Notebooks/2018-06-07_classification_BCELoss.pt (torch_old, 511993 bytes, 6 tensors)

hidden1.weight f4 [80, 1152]
000000 5c 1c 5f bb 5b 68 46 bc 1d b9 7f ba bf dd 06 bc
       -0.0034044003 -0.012109841 -0.0009755062 -0.008231579
000010 4e 85 98 bb 14 88 ba 3b 46 f1 cb 3c 18 0c 95 3b
       -0.004654563 0.0056924913 0.024895322 0.004548561
000020 8d e7 d3 bc 79 72 3d 3c 66 42 05 3d 1b f7 f2 bb
       -0.025867248 0.011562937 0.032534026 -0.007414711
000030 c9 ff 21 bc 1f f3 3a 3c a2 4d bc 3c 6f 72 73 bb
       -0.009887644 0.011410504 0.022986237 -0.0037147065
000040 da e4 b9 3c 9c c8 e0 3b 4a eb ca bc cd 75 00 3c
       0.022692133 0.006859852 -0.024770398 0.007840586
000050 d7 ac ce bc 6b a6 ce 3c b9 88 e1 39 d4 f6 dc bb
       -0.0252289 0.025225839 0.0004301721 -0.0067432914
000060 7e 79 de bb 35 06 04 3c 6c 8a d3 bc 7e ca 86 3b
       -0.0067893853 0.0080581205 -0.02582284 0.0041134944
000070 e9 ee fb 3c 5f ae d9 3c f6 29 92 bc be 43 a0 bc
       0.03075357 0.026572404 -0.017842274 -0.019563552
000080 0b 93 0c bc 4a 02 1e bc 1f 55 bb 3c d6 4a b0 bb
       -0.00857998 -0.0096441 0.022867737 -0.005380015
000090 c7 cf 98 bc 88 f9 50 3c 2b cc 91 bc 2b b9 cd 3c
       -0.018653763 0.012754805 -0.01779755 0.025112709
0000a0 4f d4 94 bc 9c ef f9 3c 14 a8 a3 bb 86 1c 1a 3a
       -0.018167643 0.030509762 -0.0049944017 0.0005878884
0000b0 b5 5a 5f 3a e8 a2 48 bc 21 b7 d7 bc e4 d2 a0 bc
       0.00085202913 -0.012245871 -0.02633244 -0.01963181
0000c0 2d 19 61 bc e9 57 c0 bc c5 76 36 3c 7f 24 38 3c
       -0.0137389125 -0.023479419 0.011136715 0.01123917
0000d0 e8 97 da 3b 44 5f ec bc 43 3b 5e 3c e5 90 18 bb
       0.0066709407 -0.02885402 0.013563934 -0.0023279723
0000e0 b7 62 bc 3b 3e 0d 11 bd 55 e0 02 bc 38 0c db bc
       0.0057490724 -0.03541302 -0.007988055 -0.026739225
0000f0 00 d3 48 bc 64 c7 c5 3c c0 b5 53 bc 89 cd b6 bc
       -0.012257338 0.024142928 -0.012921751 -0.022314804
000100 01 47 d3 3c 81 88 fc bb a8 03 90 3c c3 e9 e2 3c
       0.025790693 -0.007706702 0.017579868 0.027699357
000110 b7 80 e7 bc 41 dc 06 3d 0c 3e 00 bd a6 b0 d7 39
       -0.028259618 0.032924894 -0.031309173 0.0004113961
000120 1e 73 1e 3c 89 b9 d9 bc 52 ab d2 bc 1e 29 f5 3b
       0.009671001 -0.026577728 -0.025716458 0.007481708
000130 a6 2b 81 3c c7 cf dd 3c 79 cb 13 bb 9a 34 88 3c
       0.015767884 0.027076615 -0.00225517 0.016626645
000140 13 54 99 3c 6a 3c cf 3c d1 d0 4a 3b c1 2c 75 bb
       0.018716848 0.025297362 0.0030947218 -0.0037410709
000150 fa 20 33 bc fe a7 6d bc b0 00 df bc 1d 5c e1 3c
       -0.010933155 -0.0145053845 -0.027222008 0.027509743
000160 7a 0f 97 3c 33 5e b6 bc ff bf 92 39 1e 8e c0 3c
       0.018439997 -0.022261715 0.00027990338 0.023505267
000170 a0 dc d9 bc 1e fd 47 bc c2 0a bd ba 7c ae ce 3c
       -0.02659446 -0.012206344 -0.0014422762 0.025229685
000180 87 43 a5 b7 85 7b b3 3b 15 24 be bb 34 ed 50 bc
       -1.9700978e-05 0.005477371 -0.005802641 -0.012751866
000190 d6 24 16 3c f0 9f a0 bc 5f 4a d5 3c c8 2d 0e 3d
       0.009164056 -0.019607514 0.02603644 0.03471163
0001a0 0a 32 ca bb d0 f4 60 bc 0f 45 b3 39 d6 8e 9e 3c
       -0.006170516 -0.013730243 0.00034192993 0.019355219
0001b0 cd e7 99 bb ec 1f cf bc 9a 04 eb bc ea 09 29 bc
       -0.0046968223 -0.025283776 -0.028688718 -0.010317305
0001c0 37 28 5a 3c 0c cd dc 3c 2e 1d 3e 3c bb 0c 27 3c
       0.013315252 0.026953243 0.011603637 0.010195906
0001d0 ee fc ea 3c 93 b3 91 3c cf ef 11 3c cf 3d cc bc
       0.02868506 0.017785823 0.0089072725 -0.024931816
0001e0 38 bb 8a 3c a9 44 0b bc 1f e8 8b bc d5 e6 94 3c
       0.016934976 -0.008500257 -0.017078457 0.018176476
0001f0 70 c4 bc bc f8 67 be bc 7e 9a 63 3c 99 91 c5 bc
       -0.023042887 -0.023242936 0.013891814 -0.024117278
000200 f0 66 db 3c 11 4a ab 3c e0 35 8a 3c 1e bf 1c bb
       0.026782483 0.020909341 0.016871393 -0.0023917626
000210 9f 05 c5 3c ab 9b a1 bc 6e f9 af bc f4 f6 44 3c
       0.024050532 -0.019727549 -0.021481242 0.012021769
000220 f9 e8 f9 bb 28 65 ea 3b 35 f3 05 3d 1c b6 09 bc
       -0.0076266495 0.007153172 0.032702643 -0.008405235
000230 b1 11 cf bc ae 5d a7 3c e1 e6 c0 bc b7 33 7c bb
       -0.02527699 0.020430412 -0.023547592 -0.0038482973
000240 a7 f1 65 bb 4b 91 af 3c 58 d4 e2 bc c0 30 80 3b
       -0.0035086663 0.021431586 -0.027689144 0.0039120615
000250 ac af fb 3c 01 71 ea 3c 74 a6 c8 bc 75 7a 90 bc
       0.030723415 0.028618338 -0.024493434 -0.017636517
000260 4b 4b 03 bc 9e 8d 0f 3c f6 30 9d bc 15 8a 35 3b
       -0.008013557 0.0087617915 -0.019188385 0.0027700712
000270 1d 3a e4 bb c4 dc e0 bb 95 75 0f bb 09 5c 44 3b
       -0.0069649355 -0.006862255 -0.0021890153 0.0029962084
000280 72 8c b3 bc b7 f8 c0 3c 1f b0 b5 3c df 5c 9b 3c
       -0.021917555 0.023556096 0.022178708 0.018965183
000290 01 ef a2 3c 4b 4e 22 3c f3 cb 89 bc 2f 51 9f bc
       0.019889357 0.009906362 -0.016820883 -0.019447891
0002a0 c9 b4 a5 3c e8 e0 80 bc 37 0e ae bb a5 29 21 bc
       0.020227807 -0.015732244 -0.005311753 -0.009836589
0002b0 e7 e4 36 3b 8f 85 be bb c8 ea 99 bc 1e 7c a5 3b
       0.0027907433 -0.0058142613 -0.01878871 0.0050501963
0002c0 92 b0 6e 3c 05 db a6 3b fa 64 a2 3c bd 1b f3 ba
       0.014568465 0.005092027 0.01982354 -0.0018547695
0002d0 3d 45 8d 3c fd b5 ce bc cc ac 18 bb 62 e0 70 bc
       0.01724493 -0.025233263 -0.0023296354 -0.0147019345
0002e0 02 37 69 bc f9 4a 80 3c 1c 09 f0 39 19 aa 43 3c
       -0.014234306 0.01566075 0.00045783154 0.01194241
0002f0 87 22 a7 3b 71 76 a6 3c ed 86 c5 3c 1a 60 82 3b
       0.0051005515 0.02032015 0.02411219 0.0039787414
000300 cd 5c 4b 3b ff 7d d9 bc 67 63 be bc e4 d1 0f bc
       0.0031030655 -0.026549337 -0.023240758 -0.008778069
000310 fa 77 08 bc ed f0 a7 bc 97 27 0d bb 29 33 20 bb
       -0.008329386 -0.020500625 -0.002153849 -0.0024444556
000320 e7 9a b3 bb 79 ec 48 bb 1d 8e bc bb 05 70 83 3c
       -0.0054811123 -0.0030658527 -0.005754246 0.016044626
000330 d4 3c 6b 3b 86 76 a7 3c ae 9f 27 3b 15 e9 92 3c
       0.003589441 0.020442259 0.0025577354 0.017933408
000340 3f 49 0f 3c e8 31 d5 bc 07 58 1f bc f8 b2 e9 bc
       0.008745491 -0.026024774 -0.009725577 -0.028527722
000350 3a c5 c8 bb 46 e0 5b 3c 5c 0d 8d 3c 96 75 d1 3c
       -0.006127027 0.01342017 0.017218284 0.025568765
000360 bd 5b 8f 3c e3 2f 6a 3c d2 8f 8c 3a be 6e 2a bc
       0.017499799 0.014293644 0.0010724014 -0.01040238
000370 8e ca 93 3c d0 a6 6e 3c 45 ac 78 bc ef 91 84 bc
       0.018040922 0.014566138 -0.015177791 -0.016182868
000380 cb 06 7d bc 9c 08 ce bc cc 3c d6 bc 67 d5 0f 3c
       -0.015443514 -0.02515059 -0.026152037 0.008778906
000390 8a ac 2f bb 08 c7 a1 bc ad e3 8a 3c b3 8f 0f bc
       -0.0026805722 -0.019748226 0.016954267 -0.008762288
0003a0 2f c9 c4 bc f7 ed d4 bc 19 44 b7 3c 84 7d 5a 3c
       -0.024021713 -0.025992377 0.022371339 0.013335589
0003b0 6c 68 9b 3c e7 73 69 3a 61 27 b6 3c 8e 5a b7 3c
       0.01897069 0.00089055154 0.022235574 0.022382047
0003c0 2d 71 df 3c 13 91 79 bc 13 81 d8 bc 93 9d 9d 3c
       0.027275646 -0.015232342 -0.026428735 0.019240176
0003d0 2e 60 ef 3b 14 21 02 bd 47 12 dc 3c 03 cb b4 3b
       0.0073051667 -0.031769827 0.026864184 0.005517365
0003e0 59 4b 6d 3c 4a 52 af 3b 6a 63 a9 3c 1a d8 ab 3c
       0.014483296 0.005350386 0.020677287 0.020977069
0003f0 c5 22 e0 bc 22 bf 62 bc c5 48 36 3c 34 de a0 3b
       -0.02736033 -0.013839515 0.011125748 0.004909301

hidden1.bias f4 [80]
000000 1b 2e a7 3e 48 1b 73 3c 17 55 af 3e 18 5d 72 3e
       0.32652363 0.014838047 0.34244606 0.23668325
000010 db 89 44 3e 2c d8 a2 3e 61 4e 1f 3e 0d 42 15 3f
       0.19193213 0.3180555 0.15557243 0.5830391
000020 65 84 81 3e d3 99 f5 3c f7 77 64 3e 71 03 01 3e
       0.25296322 0.029980576 0.22311388 0.12598969
000030 be 4e 66 3e 96 b2 2b 3f fd 34 24 3e a3 f6 3e be
       0.22490975 0.67069376 0.16035838 -0.18648772
000040 0d bd 1f 3e 75 96 3c 3e 44 a5 7a 3e fc fc 99 3e
       0.15599461 0.1841677 0.24477106 0.30075824
000050 9c f1 4e bb b6 ff 0e 3d 27 fa 6f 3b 9b 4e 30 3e
       -0.0031577116 0.034911834 0.0036617608 0.17217486
000060 5b 1b 8b 3d 0a b9 a0 3e fc 80 2e 3e 24 43 5c 3d
       0.06792327 0.31391174 0.17041391 0.053774968
000070 ba e7 39 3e dd 9f c0 bd 2d 4b 12 3f b1 bc 08 3e
       0.18154803 -0.094054915 0.5714596 0.1335323
000080 a3 ae d9 3d fa 3b 07 bd 0c 52 8d 3d a6 42 3c 3e
       0.106290124 -0.033016182 0.06900415 0.183848
000090 b0 75 e2 3d 49 fb 42 3e 6f b6 84 bc 19 aa 02 3e
       0.11057603 0.1904117 -0.016200272 0.127602
0000a0 7c f8 2f 3d 87 fb e4 bc a7 93 9e 3e b3 ce 63 3e
       0.042961583 -0.027951969 0.30972025 0.22246818
0000b0 54 2e 0f 3f d4 f4 86 3e 03 50 aa 3e b4 07 5b 3e
       0.55930066 0.26358664 0.3326417 0.21389657
0000c0 9d 5f 92 3b 43 27 1a 3c 17 a7 9a bd da 1c 85 3e
       0.0044669644 0.009408775 -0.07551401 0.25998574
0000d0 d6 31 90 bc e8 f0 e4 3d e3 d3 96 3d 36 64 9b bd
       -0.017601889 0.11178762 0.07364633 -0.07587473
0000e0 3b a0 cd 3d 30 82 73 3e a0 64 83 3e 52 c8 d8 3c
       0.10040327 0.23780131 0.25662708 0.026462708
0000f0 4e cd b3 3e 9e dc 60 3c 20 57 0f 3e db 24 33 be
       0.35117573 0.013724474 0.1399808 -0.17494528
000100 7d a4 cc 3d 32 f0 67 3e 73 cf dc 3e 29 a7 8c 3e
       0.09992311 0.22650221 0.4312702 0.27471283
000110 cb 2a 7b 3e 40 f4 09 3e 0d 4b ce 3e 90 b9 ca 39
       0.24528043 0.1347208 0.40291634 0.00038666697
000120 ec 18 a6 3e f4 af 29 3c 51 3b 2a 3f 9c ff a0 3c
       0.3244089 0.010356892 0.6649676 0.019653134
000130 6a 27 1f 3e 1d 79 6b 3e d5 e6 d9 3d 89 0e f4 3d
       0.15542379 0.2299542 0.10639731 0.11916835

hidden2.weight f4 [200, 80]
000000 17 6c bd 3d f5 2e 7e bd bc ab 60 3d de 4d fc 3d
       0.09249132 -0.0620565 0.05485128 0.123195395
000010 d8 b9 73 bc 7b b1 8d 3c 78 24 28 3d 0b fe 12 3e
       -0.014875852 0.017296543 0.041050404 0.14354722
000020 5e 7a 05 3e b8 89 73 3d 34 d1 d5 3d c0 53 c4 3d
       0.1303496 0.05945751 0.10440293 0.095862865
000030 08 e2 2c 3d 03 df 4c 3e 0d ae c8 3d 82 0b 10 be
       0.042207748 0.20006947 0.097988226 -0.1406689
000040 6e fd cd 3d cb b0 60 3d 35 c1 04 3e 1d b9 02 3d
       0.100581035 0.054856103 0.12964328 0.03191482
000050 ef ca ba 3c c3 e8 2a bd 66 45 ab bd 12 2f 0b 3e
       0.022801844 -0.041725885 -0.08362846 0.13592175
000060 2a f4 aa bd 2a 7e 82 3c 5b 01 89 bd 4c 21 87 3d
       -0.08347352 0.0159293 -0.06689712 0.06598148
000070 6c 74 5b 3d fb de 0b be 7c 3b d1 3d 52 d5 8e 3d
       0.053577825 -0.13659279 0.10216424 0.06974281
000080 0b 05 66 3d 7e 2f a3 bd 34 67 cc 3d 71 74 23 3d
       0.056157153 -0.07968043 0.09980622 0.03990597
000090 93 95 d5 bc 25 87 ba 3d e5 c5 70 bd 23 c3 ea 3d
       -0.0260723 0.09107808 -0.058782477 0.114630006
0000a0 93 7d c5 bc ba ad d9 ba 22 89 01 3e c5 c1 cc 3d
       -0.02410773 -0.0016607561 0.12649968 0.09997896
0000b0 af 69 fb 3d 79 82 59 3d bb be 2e 3e bf f1 2c 3d
       0.12276017 0.053102944 0.17064945 0.042222735
0000c0 c8 2e c5 bd b2 6d 88 bd ce 5f 15 bd bb c9 b9 3d
       -0.096280634 -0.06661548 -0.03646832 0.0907168
0000d0 66 46 45 bd ff 2f f4 bc 8d 40 25 bb 45 8e 31 3b
       -0.04816284 -0.029808043 -0.0025215477 0.0027092856
0000e0 ba 3a ae 3d 22 6f 8d 3d 73 9a 58 3d 19 93 2a bc
       0.08507295 0.069059625 0.05288167 -0.010411047
0000f0 99 26 b0 3a 19 6a 89 bd f5 5d cd 3d fb 5a 78 bd
       0.0013439237 -0.0670969 0.100276865 -0.06063364
000100 f7 54 83 bc be a2 a5 3d 8f be 2f bc 69 ac c4 3d
       -0.016031725 0.08087681 -0.010726585 0.09603197
000110 26 50 cd 3d 6a ab af 3d 2f 63 26 3d 42 75 b1 bd
       0.10025053 0.085776165 0.040621933 -0.08664943
000120 73 63 b6 bd 8f 2c c7 bd 2e 4c 48 3e a0 f0 96 bd
       -0.08905687 -0.09725296 0.1956031 -0.07370114
000130 79 b5 86 bc 72 51 ea 3d 8d ec ca 3c 4a 78 a2 bc
       -0.016443955 0.11441316 0.024771 -0.019832749
000140 20 78 78 3d 57 c7 4a 3d 61 20 bb bd ea 40 2b bd
       0.060661435 0.04950651 -0.09137035 -0.041809954
000150 05 35 85 3d 55 b1 a1 3d 48 ad 04 3c 9a e9 c2 3d
       0.06504253 0.078951515 0.008097954 0.09517212
000160 d6 81 a7 bd ac 48 9b bd ff 93 2c bd 6d a2 4e bd
       -0.08179061 -0.075822204 -0.042133328 -0.05044787
000170 d9 b0 b9 3d 5d 51 a4 bd 8b ff c1 3d 71 d7 bc bc
       0.09066934 -0.08023331 0.09472569 -0.02305195
000180 e3 aa 92 bb 4f bf 81 bd a3 5f c4 bc a9 60 cb bd
       -0.0044759377 -0.06335317 -0.023971384 -0.09930546
000190 6a 99 4e bd 1d 39 48 3d 39 bd ca bd ce 27 bb 3d
       -0.050439276 0.048882592 -0.098993726 0.091384515
0001a0 83 c7 88 3d e2 3f 22 bd 13 45 92 3c 5e f7 0f 3d
       0.06678679 -0.039611705 0.017855203 0.035148017
0001b0 62 75 8f 3d 0d ff 07 bc 26 2d c7 bc ad 16 ac bd
       0.07004811 -0.008300555 -0.02431352 -0.084027626
0001c0 29 6e e9 3c 69 a5 a3 bd 7c 6b b9 bc b1 4e 99 bd
       0.028494911 -0.07990534 -0.02263426 -0.07485712
0001d0 0b 85 72 3c 8e f4 cc bd fc 1d 36 3c 19 7c ce bd
       0.014802228 -0.100075826 0.011115547 -0.100822635
0001e0 13 3c 22 bd 2b 73 ca 3d d2 d6 67 3d 7a 34 27 3d
       -0.039608072 0.09885248 0.056601353 0.04082153
0001f0 08 76 85 3d 3b 1c f2 3d ca 8f db bc 8f 8b 13 3d
       0.06516653 0.11821791 -0.026801962 0.036021765
000200 5c e6 2e 3d 2b 1a 8e 3d bd a1 27 3d b1 c7 e6 3d
       0.042700157 0.06938585 0.04092573 0.11268557
000210 10 ab c9 3d 6a 4b e6 3d ff b4 a8 bd 35 8a 83 bd
       0.09847081 0.11244853 -0.08237647 -0.06422845
000220 ac 1f 3c 3c f8 97 2c bc ae 70 7d bd 07 77 b1 3d
       0.011482161 -0.010534279 -0.061875038 0.08665281
000230 15 d0 a5 bd 5d 3b cd bd 10 7d 61 3c f8 17 bb bd
       -0.08096329 -0.10021088 0.013762727 -0.09135431
000240 d1 7c 2e bd e6 fd cb bd 1f 3c af 3d dd 34 06 bd
       -0.042599503 -0.09960537 0.08556389 -0.032765258
000250 77 99 dc 3b 71 b8 fa bb 1c b6 5c bc 56 d2 91 bd
       0.0067321616 -0.0076513817 -0.013471153 -0.071201965
000260 2e 1d bb 3d 70 f9 44 3d 05 ce 44 bd 2e c2 b0 3d
       0.09136425 0.048089445 -0.048048038 0.08630787
000270 3f e6 8f bd de d6 e1 3d 2c 15 c9 3d 34 c7 cd bd
       -0.07026338 0.11027311 0.09818491 -0.100477606
000280 0b dc c6 3d 12 9c 65 3c 2c b5 9a bd b7 93 9a bd
       0.097099386 0.014014261 -0.07554087 -0.075477056
000290 21 9e c1 3c 18 44 83 bb b9 08 49 bc d4 28 be 3c
       0.023634972 -0.00400592 -0.012270146 0.023212828
0002a0 f3 37 62 bc 6c 48 72 bd bb b5 48 3c c3 b4 cd bd
       -0.013807285 -0.059151098 0.012250359 -0.10044243
0002b0 35 53 ec bc db d2 83 3d 8e 07 2d bd 7b 23 7e bd
       -0.02884827 0.06436702 -0.042243533 -0.062045556
0002c0 e5 7e b9 3d 39 fb ac 3c 93 83 e8 bc c8 f7 c3 3c
       0.09057406 0.021115886 -0.028383052 0.023921862
0002d0 83 e9 7c 3c 81 90 44 3c 6a e7 64 bd 90 8b dd bd
       0.015436533 0.011997343 -0.055884756 -0.10817635
0002e0 62 d1 ad bd a1 ff 1f bd d6 aa 4f 3c a5 a5 b6 bd
       -0.08487202 -0.039062146 0.012675008 -0.08918313
0002f0 a2 bf 77 3d 76 d1 88 bd 84 13 cb 3d c8 8d 89 3d
       0.06048549 -0.066805765 0.09915832 0.06716496
000300 55 7c 60 bd af 83 49 bd 32 11 53 bd e0 57 29 3d
       -0.054806072 -0.04919785 -0.05153007 0.04134357
000310 08 a6 53 bd 0a ac c0 3d 07 e8 dd 3b 47 43 5e 3d
       -0.05167201 0.09407814 0.0067720446 0.05426338
000320 71 42 94 3c 7d 29 72 bd 3c 62 3a bd 70 1f ca 3d
       0.018098088 -0.059121598 -0.04550384 0.098692775
000330 66 d5 0e bc 2e 09 cb 3d 45 76 d5 b9 67 71 e9 bc
       -0.00871787 0.0991386 -0.00040714644 -0.028496457
000340 f6 f2 77 3d 38 74 d4 3c 7a 33 bb 3d 81 3f c3 3d
       0.06053444 0.025934324 0.09140678 0.09533597
000350 6a 96 4b 3d 19 41 b3 bd 4c 76 43 bd 6b cd 3a 3d
       0.049703993 -0.08752651 -0.04772024 0.045606058
000360 0f 6d b9 bd be 64 ab 3d 30 1e 42 bc 73 67 c1 3d
       -0.090540044 0.083688244 -0.011848018 0.094435595
000370 57 b9 de 3c f8 8f b1 3d 97 2f 9c bd 3a 34 3b bd
       0.027187986 0.08670038 -0.076262645 -0.045704104
000380 ea 4f 01 3b 85 ab 29 3d 34 78 0e bd 1d 19 66 3d
       0.001973147 0.04142334 -0.034782603 0.056176294
000390 ba a6 dc 3d 8d d2 2b 3d 8b 60 dc 3c 13 ed 08 bc
       0.10773988 0.041948844 0.026901504 -0.008357304
0003a0 1e 32 d7 bb 8f 73 7d 3d 9f 1c 7e bd 59 d6 da bc
       -0.0065672537 0.061877783 -0.062039014 -0.026713537
0003b0 81 e2 ee 3c 76 84 f9 3c 9f 01 1a bd 9d 41 81 3d
       0.02916074 0.03045867 -0.037599202 0.06311343
0003c0 f0 12 bf 3d 14 49 ab bd 5a 53 95 3c 2b 72 ea 39
       0.09329784 -0.08363548 0.018228222 0.0004471702
0003d0 64 10 74 3d cf 43 92 bc c4 5f 23 3d 0f 4a cf 3d
       0.059585944 -0.0178546 0.03988625 0.101215474
0003e0 b6 54 d7 3d 8e 48 2e bd 3e 63 2d bd 70 0c 41 bb
       0.10514204 -0.042549662 -0.042330973 -0.0029456876
0003f0 9e 3c c9 bc b7 5e bf bd 23 88 04 3d 7f 6f c9 bd
       -0.024565037 -0.09344237 0.032356393 -0.09835719

hidden2.bias f4 [200]
000000 3e b0 01 3f c3 d6 75 3d a9 8c 85 3d 52 f8 04 bc
       0.5065955 0.060019266 0.065209694 -0.008115845
000010 65 57 0e bd 97 3c 96 bc 6e a4 bf bd 1e 6a 8f 3d
       -0.034751315 -0.018339438 -0.09357534 0.07002662
000020 a4 dc 66 3c f8 54 3f bd ca 31 2b 3e db f2 49 bd
       0.014090691 -0.046711892 0.16718212 -0.04930387
000030 d1 be 7b 3d cb b7 d8 bb 63 58 b8 3c 26 47 22 bd
       0.061461274 -0.0066137067 0.022503084 -0.039618634
000040 2b 1e 5e 3e 27 f5 bf bd 9b d8 df 3e d9 a9 33 3d
       0.21691196 -0.09372931 0.43719944 0.04386315
000050 31 5f 37 3e 7a db 48 3c dc 10 7e 3e 11 94 99 3d
       0.17907406 0.012259359 0.24811119 0.074989446
000060 52 e7 a3 3d c1 d6 f1 3d c1 da 6a 3e 5b 85 ae 3e
       0.08003105 0.11808539 0.2293501 0.34086117
000070 23 c0 0a bc c4 7b 02 39 42 ef 98 3d 74 bb d3 bd
       -0.0084686605 0.00012443872 0.0746751 -0.10338488
000080 48 53 43 bd 37 f4 e7 bd f8 99 a5 bd e2 59 01 3b
       -0.047686845 -0.11325877 -0.08086008 0.0019737412
000090 bf 8e 4c 3e b5 28 d2 bd 1d 7a 62 3d 3b 07 40 3e
       0.19976328 -0.102616705 0.055292238 0.18752758
0000a0 42 af c4 3c ff 81 49 3d ae 92 92 bb 9b e5 0a 3d
       0.02400935 0.04919624 -0.004473052 0.033910375
0000b0 30 42 8f 3d 00 fc 28 3e 5c 30 9a 3e a4 6c 8d 3d
       0.06995046 0.1650238 0.3011502 0.06905487
0000c0 d1 bb 1e 3e 4f fb e1 bd 86 a6 97 3d 92 29 df 3c
       0.15501334 -0.110342614 0.07404809 0.027241502
0000d0 49 7a c1 bc 2a 08 9d bd 39 93 7a 3e e0 1b ad 3d
       -0.02361788 -0.07667573 0.24470223 0.08452582
0000e0 40 87 19 3e d7 b0 c8 3e cf 6c 3f 3d bc d5 d8 3c
       0.14993 0.39197418 0.046734627 0.026469104
0000f0 dd d8 0f 3e f4 ea 40 3e 8e b0 d3 bc 24 27 01 3e
       0.1404757 0.18839628 -0.025841024 0.12612587
000100 d6 2a ba 3e 67 0b b7 3d 4f a1 9b 3e 99 c7 da bd
       0.36360806 0.08937722 0.30396506 -0.106826015
000110 40 33 fd 3d 9d da 0c bd a2 54 66 bb d1 0a 3b 3e
       0.12363291 -0.034388173 -0.003514566 0.18265845
000120 97 db ca bd 5e 08 8f 3e 09 d2 87 3c e6 39 d7 bd
       -0.09905165 0.2793607 0.016579645 -0.1050909
000130 8e e3 6c 3e 9a b1 93 bc 58 13 13 bc 0f d3 07 bd
       0.2313368 -0.018029023 -0.00897678 -0.033160266
000140 3e 11 b3 3e cb 5f cc 3d 9a 47 87 3d a3 de 04 3d
       0.34974092 0.099792086 0.06605454 0.032438885
000150 87 fc 69 3e e9 c5 0a 3e 2b 93 25 3e ca 96 72 bd
       0.22850238 0.13552059 0.16169421 -0.059225835
000160 42 59 be 3d 55 25 c1 3e 6d 2e 1e 3d 28 27 ad 3d
       0.09294368 0.37723795 0.038618494 0.08454734
000170 98 08 55 bd f2 5b 4b 3e f2 56 23 3c 5d 7a 71 3e
       -0.05201015 0.19859293 0.00996946 0.23581834
000180 cc 41 7b 3e 31 6f 0e bd 6d b9 c0 ba de 30 b1 bb
       0.24536818 -0.03477401 -0.0014703699 -0.0054074368
000190 45 ad a2 3c ac f3 d5 3d bd 42 dc bd ce e0 d9 3b
       0.019858012 0.10446867 -0.10754917 0.0066491133
0001a0 7c 91 ef 3d f7 51 2a bd ce 41 66 3e 27 df e2 bc
       0.11697671 -0.041582074 0.2248604 -0.027694298
0001b0 c1 b4 8b bc 44 d7 56 3e a7 99 08 bd 88 b8 c6 bd
       -0.017053964 0.20980555 -0.03334966 -0.09703165
0001c0 3d 04 9b bd 4b 7a 26 3e 04 61 f3 bc 0d bf 9d 3d
       -0.07569168 0.16257589 -0.029709347 0.07702456
0001d0 c3 8b 58 3d 09 23 67 3e 67 5a 9e 3d 48 54 1a 3d
       0.052867662 0.22571959 0.07732087 0.037678033
0001e0 d1 3b 26 bd 15 61 43 bd 8d 5c f2 3e 93 5f 55 3e
       -0.04058439 -0.047700007 0.47336236 0.2083724
0001f0 80 c6 0c be 6c 36 9e 3d 58 23 97 bd 48 5b b5 3d
       -0.13747597 0.07725224 -0.07379788 0.08855301
000200 09 a4 d3 3c 8d 43 74 3e f8 e4 de bd ad 31 11 3d
       0.025835054 0.23853894 -0.10883516 0.035447765
000210 dd 61 70 bc b7 52 50 bd e8 d6 02 3e 0e 2c 4f 3d
       -0.01467177 -0.050860133 0.12777293 0.050579123
000220 3f 16 92 3d 71 1a c5 bd 53 dc df bc bb 82 8b 3d
       0.07133149 -0.09624184 -0.027326738 0.06812044
000230 9f e2 86 3d 52 8a 3d bd ce db 05 3c 87 4c e6 3e
       0.06586193 -0.04627449 0.008170081 0.4498026
000240 f1 82 21 bd c9 26 4c 3e e7 66 1c 3c a4 5c 8b 3d
       -0.039431516 0.1993667 0.009546018 0.06804779
000250 4b 6f f6 3d 5a ae d5 3c ab ec b5 3e ca 01 54 3d
       0.12032946 0.026084114 0.35532126 0.05175952
000260 be c4 73 3d 29 aa bb bc f6 b7 d1 3d f7 0d a2 bb
       0.0595138 -0.022908287 0.10240166 -0.0049455124
000270 37 1f 0b bd 7b 13 9d 3d 3f 58 04 3e 5f 5a b3 3d
       -0.033965316 0.07669731 0.12924288 0.08757471
000280 5f 48 88 bd 4f 28 e5 3d 93 e4 59 bd fb 54 99 bd
       -0.06654429 0.11189329 -0.0531965 -0.07486912
000290 e8 da ae 3d ac 06 53 3e ce 05 d2 3c fd 03 1d 3e
       0.08537847 0.20608014 0.025637534 0.15333553
0002a0 17 8d 94 3d fa 96 ca 3d 0e 76 58 bc df 8e 93 bd
       0.07253473 0.09892078 -0.01321174 -0.07204985
0002b0 5c a6 59 bc d6 79 08 3e 01 01 36 3e 46 ad 73 bd
       -0.013284292 0.13327727 0.1777382 -0.05949142
0002c0 4b 57 a7 bc f3 79 63 3e 0c 48 5a 3e 88 36 b4 3d
       -0.020427367 0.22214489 0.21316546 0.087994635
0002d0 81 0d 7d 3c 69 e3 03 3e 06 17 a7 bd dc b7 19 3e
       0.015445114 0.12879719 -0.08158688 0.15011543
0002e0 1b 7a 56 3e 47 96 a3 bd 17 6e 30 3e b7 f8 b9 3d
       0.20945017 -0.079876475 0.17229496 0.09080642
0002f0 08 20 43 3d 22 c1 5d 3e 58 72 68 bd af bc b6 bd
       0.04763797 0.21655706 -0.05674967 -0.08922707
000300 37 10 27 3d f0 6a 5e 3d 7a f7 e0 3c 0a 25 15 3d
       0.040786948 0.054301202 0.027461756 0.036412276
000310 66 b3 71 3e 6d ca 97 bc fd 5c b9 3e 4e dd 84 3e
       0.23603591 -0.018529141 0.36203757 0.25950092

predict.weight f4 [96, 200]
000000 73 45 2d 39 48 ae cb bc fa 73 d9 3c 56 9a 9c 3c
       0.00016524438 -0.024863377 0.02654456 0.019116562
000010 c6 97 21 3c 3a 48 7d 3d 00 bf 11 3c dc 9b c6 bd
       0.009862846 0.06183646 0.008895636 -0.096976966
000020 30 50 2b 3d db 10 7c bc dd 27 50 bc 38 c6 66 bd
       0.04182452 -0.015384878 -0.012704817 -0.05634138
000030 50 24 92 bd f0 41 52 bd 06 d2 12 3c 41 11 40 bd
       -0.07135832 -0.051332414 0.008961206 -0.046891455
000040 20 d3 1e bb 19 d1 24 3d 0a 79 0b be e8 5b e8 bb
       -0.0024234727 0.040238474 -0.13620391 -0.007091034
000050 ed 96 ea bd c0 89 ef bc e8 09 a3 3c ef 47 72 bd
       -0.11454568 -0.029240489 0.019902185 -0.059150632
000060 3a 82 67 3c ef e5 c1 bb 53 0f 68 bd 04 f9 69 3c
       0.0141301695 -0.005917303 -0.05665524 0.014280561
000070 0f c9 c9 39 1e 90 91 bd 92 f9 cf 3d 7d 89 5d bd
       0.00038487508 -0.07107566 0.10155024 -0.054086197
000080 8c fd fe bc fc 87 46 bd a4 16 86 3d 5e 7f 5c bd
       -0.03112676 -0.04846953 0.06547287 -0.053832404
000090 c0 0c 4c bd 48 6d f9 bc cf d6 29 bd 2f 90 7d bd
       -0.049816847 -0.030447617 -0.041464623 -0.061905082
0000a0 40 1b 74 3d 4c 45 a4 3c 3c ca 92 bd 15 41 29 3d
       0.0595963 0.020052575 -0.071674794 0.041321833
0000b0 d0 0e e0 3b 7a 57 ac bd 85 e0 19 bd 45 80 6c bd
       0.0068377033 -0.08415122 -0.037567634 -0.057739515
0000c0 2a 42 9f bd d4 a8 5d bd 8e 7d 82 bd 78 20 60 bd
       -0.07776292 -0.054116085 -0.06371604 -0.054718465
0000d0 90 cf 8f 3d 02 03 54 bc 94 df f9 bd bd 5e 82 bd
       0.07022011 -0.01294017 -0.12200847 -0.06365726
0000e0 e7 15 05 bd 0b f6 ba bd f2 68 a0 bd f0 3d 50 3d
       -0.03249159 -0.0912896 -0.07832517 0.05084032
0000f0 e7 97 25 bd fc 29 61 bd 24 4a 45 3c bc a1 62 bd
       -0.04042807 -0.05497168 0.012041602 -0.055330023
000100 a9 1e 48 bd 24 58 30 3d 06 8f db 3c e4 a1 7d 3c
       -0.048857365 0.043052807 0.026801597 0.015480492
000110 3a d5 a4 3d 29 95 94 bc cb 9f 1a 3d a1 e0 01 bc
       0.08048482 -0.018137531 0.037750047 -0.007927091
000120 f5 51 72 3d 9e 26 aa bc 46 06 c7 bb 09 79 71 bd
       0.05916019 -0.020770367 -0.006073746 -0.05895332
000130 13 33 36 bd a3 2c 4e bd 28 6b 6d 3d 81 c2 8a bd
       -0.044482302 -0.050335538 0.05796352 -0.0677538
000140 29 65 e1 bd d8 d1 78 bd e0 d2 20 3d 65 32 b3 3a
       -0.11005623 -0.060746998 0.039263606 0.0013671635
000150 d0 7d da 3d 89 c0 26 bd 71 e8 8a 3d 37 42 3e bd
       0.10668528 -0.04071096 0.06782616 -0.046449866
000160 3d c1 5d ba 02 1d 45 3d 5a 6c a4 bb cd d3 30 3d
       -0.00084592757 0.048123367 -0.0050177993 0.04317074
000170 12 d1 21 bd f7 a5 59 bd 32 5a 17 3d 73 88 3b 3d
       -0.039506026 -0.053136792 0.03695125 0.045784425
000180 27 03 40 3d 6b 4b 32 bd 8a 87 11 3d ae 11 89 3d
       0.046878006 -0.043528955 0.03552965 0.06692825
000190 64 6c c2 3c d0 55 ad bd 19 0d 70 3d 5f 9f ed bb
       0.023733325 -0.08463633 0.05860624 -0.0072516645
0001a0 10 68 3b bd d0 c9 ec 3b 73 70 d8 3c 34 f4 61 bd
       -0.04575354 0.0072262064 0.026420807 -0.05516453
0001b0 e9 c6 b1 3c 08 88 9d bc 6f 41 4e bd 72 c7 27 bd
       0.021701293 -0.019229904 -0.05035537 -0.04096169
0001c0 6a b2 8b bd 1e bc e4 bd e6 e4 b6 3c 31 1b 14 3d
       -0.06821139 -0.11168693 0.022325944 0.036158744
0001d0 14 42 b0 bc be 4d 13 bd 26 87 3b bd b3 9c b9 3c
       -0.021515884 -0.035962813 -0.045783184 0.022657728
0001e0 90 e0 10 bc f9 10 f3 3c 02 5f fb bc 8f f0 82 bd
       -0.008842602 0.02967118 -0.030684952 -0.06393539
0001f0 5e d8 f4 3c cd 05 96 bd 9e 86 8f bd d6 62 0e bd
       0.029888328 -0.07325325 -0.07008098 -0.034762226
000200 37 8d 12 3d ec 92 0a bd 23 63 2d 3d 6f db 9c bc
       0.035779204 -0.033831522 0.042330872 -0.019147603
000210 3b 0d 78 3d 9c 92 78 bd cf 7b 4f 3d 6c 8a 19 3d
       0.060559493 -0.060686693 0.050655182 0.037485525
000220 76 34 6d 3c 4a 64 c6 bc 10 e6 e8 bc 13 ed 4f bc
       0.01447784 -0.024217743 -0.028430015 -0.0126908
000230 a4 5c 25 3d f5 ca 65 39 00 38 86 bd 82 2f cd bd
       0.040371552 0.00021914749 -0.0655365 -0.10018827
000240 96 c8 18 bd 91 30 48 3c 76 89 64 bd a5 78 6b 3d
       -0.03730067 0.01221861 -0.055795155 0.057488102
000250 ec ac 80 3d 16 48 25 bc b3 80 a1 bd 57 5e 30 bd
       0.06282982 -0.010087987 -0.078858756 -0.04305872
000260 79 d7 c1 bb bd a1 e4 3c c9 f6 13 3d ab 5c 9d bd
       -0.005915579 0.027909154 0.036124025 -0.07683691
000270 11 69 07 bd 52 54 92 bb 35 eb 02 3d 2b 2f 9a bd
       -0.033059184 -0.004465618 0.031962592 -0.07528528
000280 85 6a 7f bd 85 79 30 3d b4 6b df 3c 22 e6 6d 3d
       -0.062357444 0.04308464 0.027273037 0.0580808
000290 b3 6f a1 bd 2d ed 26 3b 75 4b b4 3d 29 db d8 bc
       -0.07882633 0.0025470958 0.08803455 -0.026471691
0002a0 bb a7 21 bd 1b 64 2d bd 5a 0e 00 3c 69 fb 3d bc
       -0.0394666 -0.042331796 0.007815922 -0.011595585
0002b0 b8 68 26 bb 96 49 96 3c 84 3b 0d bc 25 70 8d bd
       -0.0025392007 0.018345635 -0.008620147 -0.069061555
0002c0 ce 3d da 3c 9c da 20 3d 27 55 4c bd cd 71 9a 3c
       0.026640799 0.039270982 -0.049885895 0.018853093
0002d0 54 d7 30 3b 9a fc 9b bd d8 10 22 bc e9 94 36 bd
       0.0026983814 -0.07616539 -0.009891711 -0.044575606
0002e0 a7 54 71 3c f9 3f 8b bc f2 f2 9a bd eb ac 64 bd
       0.014729655 -0.016998278 -0.075658694 -0.05582897
0002f0 62 d6 67 bd b8 80 92 bd f4 fa 90 bc 96 36 3b 3a
       -0.056600936 -0.071534574 -0.017697789 0.0007141618
000300 01 d0 06 bd 2f 30 1b 3d d2 c8 4c 3d 09 c7 a3 bd
       -0.03291321 0.03788775 0.049996205 -0.07996947
000310 de 07 8b bd 6d 74 55 3d a9 a7 87 bd 2a 17 66 bd
       -0.0678861 0.052112985 -0.066237755 -0.056174435
000320 8d ea 86 bd 25 d4 95 bd 1d 74 b2 bc ed cf 3c 3d
       -0.06587706 -0.07315854 -0.021783883 0.04609673
000330 e3 af 48 3d d4 53 94 3d 69 35 8a bc 95 2f a9 3b
       0.048995864 0.072425514 -0.016871171 0.005163143
000340 c0 f6 41 bc 26 e5 4f bd ae 07 a2 bd 6b c2 12 bd
       -0.011838615 -0.050755642 -0.07911621 -0.035829943
000350 62 93 8b bb 31 c8 14 bd de ba 85 bd 9b ee 03 bd
       -0.0042595128 -0.03632373 -0.06529783 -0.032209974
000360 a0 bd d9 3b ad db 2f 3d a5 a3 44 bd dd 3d 3d 3d
       0.0066449195 0.04293411 -0.048007626 0.046201576
000370 56 e7 b2 bd ff 5d 87 bd be 22 26 3d 3a 58 b8 bd
       -0.0873553 -0.06609725 0.040560476 -0.09001203
000380 2d b6 29 3b d3 b7 8d bd e6 66 8e 3c 4c 9a 6e bd
       0.0025895939 -0.06919827 0.01738305 -0.058252618
000390 c6 74 85 3c 31 43 f7 3c 71 9b 05 3c 24 51 0d 3d
       0.016291033 0.030183407 0.008154736 0.03450121
0003a0 5b 13 c4 bc 66 18 74 3d 47 f6 1a 3d ed c8 ae 3d
       -0.02393501 0.05959358 0.037832525 0.08534417
0003b0 00 93 87 3d a0 e2 e6 bc 07 19 4d bd f8 cc 3a bc
       0.06619835 -0.028184235 -0.050072696 -0.011401407
0003c0 b7 85 f4 bc 92 b5 26 bc 17 15 66 bc 2d 3f 85 bd
       -0.029848916 -0.010175126 -0.014043114 -0.065061904
0003d0 b3 96 cd bc 99 64 5f 3b 0e 6f 1d bc 57 00 d9 bb
       -0.025096273 0.003408706 -0.009608997 -0.006622355
0003e0 cd fb 2b 3c d0 e3 15 3d 1d 9f 02 3c dc de 01 bc
       0.010497046 0.036594212 0.007972506 -0.007926669
0003f0 8f 2f 7c 3c 6c 91 27 3d 6a 66 cc bd ba 05 76 3c
       0.015392198 0.04091017 -0.099804714 0.015016014

predict.bias f4 [96]
000000 ad 43 d8 bd 1b 42 02 be d6 0c a6 bd 6c 27 f3 bd
       -0.10559783 -0.1272053 -0.08107917 -0.118727535
000010 ed ec 31 be 4f 73 90 bd 97 d7 1c be b4 19 21 be
       -0.17375536 -0.07053243 -0.15316616 -0.15732461
000020 18 cf 06 be 78 19 04 be f3 b6 e2 bd eb 4f 30 be
       -0.13164937 -0.1290034 -0.11070051 -0.17217986
000030 31 67 b8 bd cd a0 e2 bd 51 8a 95 bd 1d 96 2f be
       -0.09004057 -0.110658266 -0.073017724 -0.17147107
000040 86 31 29 be b3 a7 8d bd 8c 91 f6 bd b6 58 18 be
       -0.16522798 -0.06916752 -0.120394796 -0.1487759
000050 cd 2c 15 be 30 6f 28 be f0 23 ac bd 09 d4 9a bd
       -0.14567871 -0.16448665 -0.08405292 -0.07559974
000060 73 cb 87 bd d1 98 19 be e4 b0 22 be 6f af d8 bd
       -0.06630602 -0.14999701 -0.15887791 -0.10580336
000070 7a 3e 96 bd 2e c6 10 be a7 8b ab bd 2c 52 1e be
       -0.07336135 -0.141381 -0.08376246 -0.15461034
000080 24 60 bf bd d1 a7 ca bd 6f 8d 28 be 2f 81 ac bd
       -0.09344509 -0.0989529 -0.16460203 -0.08423077
000090 48 ab b3 bd 41 89 38 be 2e 13 38 be cb 75 2e be
       -0.08772904 -0.18021108 -0.17976066 -0.17037122
0000a0 16 4b c3 bd 9b 52 01 be cb ff 91 bd f5 e2 56 bd
       -0.09535806 -0.12629168 -0.07128867 -0.052462537
0000b0 54 52 2d be 41 63 26 be 97 c5 8f bd 5c 2d 2c be
       -0.16925937 -0.162488 -0.07020109 -0.16814178
0000c0 3c 1f bf bd 26 c4 4d bd c9 76 df bd 53 04 64 bd
       -0.09332129 -0.05023589 -0.10911328 -0.055668186
0000d0 4c 04 e1 bd 1b da ad bd 92 f4 2a be 33 f8 89 bd
       -0.10987148 -0.08488866 -0.16694859 -0.06736793
0000e0 21 7f 3a bd 84 27 d5 bd ca 47 b1 bd b9 58 25 be
       -0.045531396 -0.10407928 -0.08656271 -0.16147126
0000f0 0a 5a 31 be de 0f 2d be 0f d3 84 bd a0 28 1d be
       -0.17319503 -0.16900584 -0.06485569 -0.15347528
000100 9f 80 8b bd 33 82 ea bd ec 90 8b bd f8 94 1d be
       -0.06811642 -0.11450615 -0.06814751 -0.15388858
000110 d1 3c 40 bd 13 5e c5 bd 57 d5 b7 bd 34 16 26 be
       -0.046933 -0.09637084 -0.08976238 -0.16219407
000120 25 b8 d5 bd 46 a1 bb bd c5 51 88 bd 95 d2 f6 bd
       -0.104355134 -0.0916162 -0.06656221 -0.12051884
000130 aa 2c 55 bd 41 8b 86 bd 75 60 d4 bd 77 79 b5 bd
       -0.052044548 -0.06569529 -0.1036996 -0.08861058
000140 9c 91 da bd a3 c6 f0 bd e4 52 dc bd 89 7d 08 be
       -0.10672304 -0.11756637 -0.10757998 -0.13329138
000150 ee 2d 16 be 82 e4 07 be 09 cd b4 bd 55 7c cd bd
       -0.14665958 -0.13270763 -0.0882817 -0.1003348
000160 36 75 2e bd ec c0 07 be 99 ac 07 be 1a 7d 33 be
       -0.04259225 -0.13257188 -0.13249435 -0.17528191
000170 cb e8 c3 bd cc 56 eb bd aa ac 94 bd 26 e7 b7 bd
       -0.09565886 -0.114911646 -0.072594956 -0.08979635
