Notebooks/2018-06-07_classification_BCELoss.pt (torch_old, 511993 bytes, 6 tensors)

hidden1.weight f4 [80, 1152]
000000 1f e9 f7 bb 19 3c 45 bc 33 89 3d ba 49 19 7d bb
       -0.007565632 -0.012038254 -0.0007230222 -0.0038619807
000010 0a 36 69 3b f9 12 f2 ba 6b be b3 3c cc 21 1b 3c
       0.0035585188 -0.0018468789 0.021941384 0.009468507
000020 1e 88 b9 bc fe 13 97 3b 30 ef f6 3c 48 37 50 bc
       -0.022647914 0.0046105376 0.03014335 -0.012708493
000030 7a 2f 67 bc 7c 80 4a 3c fd 2c c8 3c 4c 90 a7 ba
       -0.01411044 0.012359735 0.024435515 -0.0012784093
000040 02 51 a9 3c 65 e1 1b 3b ed e2 fb bc 1a c3 04 3c
       0.02066851 0.0023785469 -0.030747855 0.008103156
000050 6a 74 91 bc f4 cb e2 3c c6 d1 be 3a d6 5a 88 bb
       -0.017755706 0.027685143 0.0014558367 -0.004161219
000060 13 f0 ae bb fa 49 3c 3c 48 bc 8e bc 64 76 06 3c
       -0.0053386777 0.011492247 -0.017423764 0.008206937
000070 4a 65 d7 3c a8 a7 d0 3c 03 ba a1 bc b9 ec 9f bc
       0.026293416 0.02547057 -0.019742018 -0.019522058
000080 5d 06 1e bc 6b a3 ca bb cb b4 c8 3c 4a bb f6 bb
       -0.009645072 -0.0061840317 0.024500271 -0.007529651
000090 8e df cf bc e0 bf 38 3c 13 0d 40 bc 1e 9c 74 3c
       -0.025375154 0.011276215 -0.011721867 0.014929799
0000a0 6f 72 db bc f6 de 0c 3d 05 62 a3 bb d2 e7 54 bc
       -0.026787965 0.03439232 -0.00498605 -0.012994723
0000b0 f9 4b 7a 3b 6e be f7 bb ee 41 d4 bc 56 4b 9e bc
       0.0038192256 -0.007560543 -0.025910344 -0.019323032
0000c0 31 f1 2b bc a7 44 b2 bc 18 1c 08 3c cb 01 89 3c
       -0.010494516 -0.021761252 0.008307479 0.016724488
0000d0 27 2a 4b 3c a8 8a ab bc 93 c6 93 3b 86 df 5e bc
       0.012400187 -0.02094014 0.004509756 -0.013603097
0000e0 51 13 99 3b 43 52 9a bc 6e fc 33 bb 22 7e e2 bc
       0.004671492 -0.018838054 -0.0027463692 -0.027648035
0000f0 5c 86 1f bc d0 d6 da 3c cc 0a 7d bc 3b af c9 bc
       -0.009736624 0.026713759 -0.015444469 -0.02461969
000100 c0 49 cf 3c 6b b3 e1 bb 4e b8 8f 3c 0e 9a b1 3c
       0.025303721 -0.0068878434 0.017543938 0.021679904
000110 e4 7d dd bc 74 c5 b4 3c 3c 73 14 bd 50 48 2e 3c
       -0.027037568 0.02206681 -0.03624271 0.010637358
000120 44 ba 3f 3c 47 21 55 bc 4f fc db bc cd f0 44 bb
       0.011702124 -0.013008422 -0.026853709 -0.0030050755
000130 ae 9b 48 3c d8 d3 a0 3c 5f 75 04 bb 1e 3d b9 3c
       0.012244148 0.019632265 -0.002021156 0.02261215
000140 ef da 9d 3c 0f 81 be 3c 18 e1 98 3b bf 77 81 bb
       0.019269435 0.0232549 0.004665505 -0.0039510424
000150 14 e3 13 bc 50 e5 a9 bb 42 f3 d3 bc 31 f9 13 3c
       -0.009026308 -0.005184807 -0.02587283 0.00903158
000160 0f 28 a2 3c d3 cc e9 bc 85 85 ce 3b 75 58 b6 3c
       0.019794492 -0.02854005 0.006302538 0.022258976
000170 4c 21 a5 bc a3 8d b6 ba 22 ee 89 bb 9c e9 ac 3c
       -0.020157479 -0.0013927709 -0.004209296 0.021107487
000180 2c 07 1b 3b 2d aa d0 3b 6b 9e d0 bb 5d a1 51 bc
       0.0023655398 0.006367943 -0.006366541 -0.01279482
000190 a9 e4 7b 3b 1d 97 3f bc 55 fa ec 3c 32 b0 8c 3c
       0.0038435853 -0.011693743 0.028927961 0.01717386
0001a0 01 78 13 bc 31 8e 00 bc 78 e1 42 3b fc ac bb 3c
       -0.009000779 -0.007846401 0.002973644 0.022909634
0001b0 21 62 4c bc da 76 92 bc ef ab 00 bd a8 3c 6a bc
       -0.012474568 -0.017878938 -0.03141397 -0.014296688
0001c0 8f 69 71 3c a7 a5 d6 3c 5a bf 70 3c b8 43 44 3c
       0.01473464 0.026202036 0.014694059 0.011979036
0001d0 f0 b2 ea 3c 08 02 a6 3c 97 8e 7b 3b df e4 a0 bc
       0.028649777 0.02026464 0.003838455 -0.019640384
0001e0 e1 f8 c6 3c 13 04 fc bb f3 04 39 bc 70 20 74 3c
       0.024288597 -0.0076909154 -0.011292684 0.014900312
0001f0 8f 12 ac bc 34 6e 7f bc 07 47 54 3c 83 a1 95 bc
       -0.021004943 -0.015590239 0.012956387 -0.018265491
000200 a0 4f d7 3c 26 06 9a 3c af ce 65 3c c3 3d 9a bb
       0.026283085 0.01880176 0.014026328 -0.0047070696
000210 c6 3c 03 3d 76 b5 87 bc ed e3 6e bc 4f c6 c8 3b
       0.03204038 -0.01656602 -0.014580709 0.006127156
000220 17 2f 84 bc 38 d9 33 3c a8 30 e4 3c 1b 39 c3 bb
       -0.016135735 0.010977082 0.027855232 -0.0059577352
000230 54 ed ab bc 63 75 74 3c 1f 3f d1 bc 85 36 26 bc
       -0.02098719 0.014920565 -0.025542794 -0.010144834
000240 1f 8b a4 bb 53 04 b3 3c 68 57 c2 bc 19 a0 f1 3b
       -0.0050214673 0.021852648 -0.02372332 0.0073738215
000250 27 cf c3 3c b5 5d ff 3c b9 b8 5e bc 61 a3 a3 bc
       0.023902489 0.031172613 -0.013593846 -0.019975366
000260 5e c2 10 bc 46 5c 20 3c 69 fe 70 bc 41 9c 41 ba
       -0.008835403 0.009787625 -0.014709094 -0.00073856494
000270 cb 8b ee bb 24 ce d9 3a 55 06 1c ba 27 9b 68 3b
       -0.007279848 0.0016617221 -0.0005951871 0.0035492869
000280 4f 22 a0 bc c6 82 aa 3c ec 0e a7 3c 48 54 6e 3c
       -0.01954761 0.02081431 0.020392857 0.014546461
000290 79 ec b0 3c 62 23 a8 3a eb 5d a7 bc 77 53 37 bc
       0.021597134 0.0012827928 -0.020430526 -0.011189333
0002a0 28 01 83 3c 00 ad 0c bc 32 bf 1f bc 7b c4 1a bc
       0.015991762 -0.008586168 -0.009750174 -0.009446259
0002b0 1f 76 1a 3a ed 1e 17 bb 3a ea ae bc 73 52 15 3b
       0.0005892235 -0.0023059205 -0.021351922 0.002278474
0002c0 20 25 66 3c f4 8e 84 3b db 5d 8d 3c 6b c3 6d 3b
       0.014046937 0.0040453617 0.017256668 0.0036279808
0002d0 af 87 b2 3c a5 2a 98 bc d3 b9 cb bb b8 7e fb bb
       0.021793215 -0.018575022 -0.0062172203 -0.007675018
0002e0 e6 1b 21 bc 4b f0 16 3c b5 86 69 3b dc 2b 77 3c
       -0.009833312 0.009212564 0.003563327 0.0150861405
0002f0 6c 88 ad 3b e0 11 6c 3c e7 11 cd 3c 91 6e 01 3c
       0.005295804 0.014408559 0.02503295 0.007899896
000300 77 6c 0e 3b 7e f5 ce bc a8 b3 a6 bc 18 79 c4 bb
       0.002173213 -0.025263544 -0.020349339 -0.005995881
000310 0a a9 9c bb 56 a6 ce bc 6f 0e 71 bb 9a 0b 2f 3a
       -0.004780893 -0.0252258 -0.0036782285 0.0006677449
000320 ee 45 a0 bb 29 12 00 3c 99 14 9e bb 5f 26 db 3b
       -0.004891149 0.00781683 -0.004824233 0.006687924
000330 74 53 31 bb 13 45 ac 3c 2c f5 c1 3b 2d 6b a4 3c
       -0.0027057799 0.02102903 0.0059191193 0.020070637
000340 23 4e f9 3b ef a4 d5 bc 8a d3 0e bc 64 d8 e4 bc
       0.0076081916 -0.026079623 -0.008717427 -0.027935214
000350 07 83 49 bb cb 6b 37 3c 53 84 59 3c 91 81 d8 3c
       -0.0030748264 0.011195133 0.013276177 0.02642897
000360 c6 af cc 3c 72 42 3b 3c e9 60 a3 3a a2 fc 42 bc
       0.024986159 0.011429416 0.0012464795 -0.011901053
000370 c5 c5 86 3c e3 a0 93 3c a9 42 5c bc 31 01 6e bc
       0.016451726 0.018021053 -0.013443627 -0.014526651
000380 b7 87 8e bc 4d 2a cc bc 82 55 e7 bc ba c8 46 3c
       -0.017398698 -0.024922514 -0.028239015 0.012132818
000390 72 f2 31 bb 08 6c 82 bc 10 9c 92 3c a2 24 d9 bb
       -0.0027152565 -0.015920654 0.017896682 -0.0066266814
0003a0 74 88 6e bc c9 ed ac bc b1 81 d8 3c 5c c7 19 3c
       -0.0145589 -0.021109479 0.02642903 0.00938591
0003b0 9f 0b a0 3c 36 9c 47 b9 f5 03 b4 3c df f6 b7 3c
       0.019536791 -0.00019036312 0.021974543 0.022456584
0003c0 da 16 e6 3c 7d fa 65 bc 76 76 d9 bc 9b 5e 8f 3c
       0.028087068 -0.014036772 -0.026545744 0.017501166
0003d0 af 32 a9 3b a6 a3 e5 bc fa bd c0 3c 78 dc e6 3a
       0.0051635127 -0.028032135 0.023528088 0.0017613312
0003e0 13 f9 de 3a c0 db 71 3c d1 e3 64 3c 4e 93 62 3c
       0.0017011486 0.014761865 0.013970331 0.0138290655
0003f0 97 41 df bc f3 14 4f bc 34 b5 21 3c 21 1c a6 3b
       -0.027252955 -0.012639272 0.009869862 0.005069271

hidden1.bias f4 [80]
000000 e6 d8 e5 3e 80 7c 33 3d 22 65 e8 3e 42 71 a9 3e
       0.44892043 0.043819904 0.45389658 0.3309422
000010 cf 72 76 3e 94 b3 d3 3e b2 de 38 3e d4 2c 4a 3f
       0.24067234 0.41347945 0.18053702 0.7897465
000020 b3 aa a3 3e 55 51 d0 3c 45 21 7a 3e 22 12 1c 3e
       0.3196617 0.025429407 0.24426754 0.15241292
000030 41 ed 86 3e d2 4a 6d 3f 4e b4 3e 3e 0c 24 97 be
       0.26352885 0.9269229 0.18623468 -0.2951969
000040 c4 20 7c 3e 34 63 6c 3e 31 cb 92 3e b3 35 bf 3e
       0.24621874 0.23084718 0.28670648 0.37345657
000050 35 20 cc bb 3d 54 3d 3d e5 6d 8b 3c 73 26 92 3e
       -0.0062294253 0.046222914 0.017020175 0.2854496
000060 0e 55 b8 3d f3 4d e9 3e 60 b2 53 3e 63 2c db 3d
       0.09000598 0.45567283 0.20673513 0.107018255
000070 34 1f 44 3e 52 f7 e9 bd 70 e1 35 3f f8 c0 21 3e
       0.19152528 -0.11424126 0.71047115 0.15796268
000080 e3 ce 26 3e 3a 82 08 bd 80 2b a3 3d eb 38 65 3e
       0.16289859 -0.03332732 0.07967281 0.22384994
000090 86 45 0f 3e 42 50 91 3e 3e ff 87 bb 77 e1 2e 3e
       0.13991365 0.28381544 -0.0041503003 0.17078196
0000a0 2f 1e ef 3c c1 e6 9c bc 34 81 cf 3e 46 ce 88 3e
       0.029189197 -0.019153 0.40528262 0.26719874
0000b0 96 8f 3d 3f 27 e8 a4 3e c2 1d ed 3e 0c 9c 92 3e
       0.7404722 0.32208368 0.46311766 0.2863468
0000c0 5e d4 fa 3b de 16 13 bd 68 b8 7d bd d4 f2 b2 3e
       0.0076547107 -0.03591048 -0.06194344 0.34950888
0000d0 26 65 15 bd 31 13 20 3e fd 3e d6 3d d5 f5 fb bd
       -0.036473416 0.15632321 0.10461233 -0.12302748
0000e0 ea 80 0e 3e 3e f1 aa 3e 96 17 a2 3e 22 3d 14 3d
       0.13916364 0.33387178 0.3165862 0.036191113
0000f0 17 74 f0 3e 90 71 fa 3c 10 67 32 3e 60 a6 93 be
       0.4696357 0.030571729 0.17422128 -0.28837872
000100 a7 1b f1 3d df 41 8e 3e 0f 49 1a 3f 18 d1 c1 3e
       0.117728524 0.2778463 0.6026773 0.37854838
000110 14 5a 9b 3e 3c 16 36 3e e2 9e 0e 3f 32 5b 61 3c
       0.30342162 0.17781919 0.55711186 0.013754653
000120 7a b1 d2 3e 49 21 29 3d 66 55 6d 3f d2 0f c1 3d
       0.4115103 0.04129151 0.9270843 0.094268456
000130 13 a4 7e 3e c2 69 ac 3e 31 f2 f0 3d e0 57 11 3e
       0.24867277 0.33674437 0.11764944 0.14193678

hidden2.weight f4 [200, 80]
000000 14 be ec 3d c3 1d 80 bd cf 72 1b 3d 17 64 ba 3d
       0.11559692 -0.062556766 0.037951287 0.09101122
000010 ef 59 29 bd a4 73 35 3d b3 9b 58 3c 3b 5b 3d 3e
       -0.041345533 0.044299737 0.013220715 0.18491833
000020 ac 33 0d 3e 64 27 68 3d a8 5a c0 3d 36 2d 83 3d
       0.13789243 0.05667819 0.09392291 0.06405108
000030 6e b4 16 3d 9d 92 7f 3e 2e 83 c1 3d 14 ae 9a bd
       0.036793165 0.24958272 0.09448849 -0.07552734
000040 63 9b a6 3d af e0 6c 3d 9d 1c 0c 3e 9d 8f 7b bc
       0.081351064 0.057831462 0.1368279 -0.015354064
000050 d9 22 84 3c 26 a2 42 bd 1a 82 8d bd f5 bd 02 3e
       0.016129898 -0.047517918 -0.069095805 0.12767775
000060 ee 04 cc bd 11 07 5c 3c a0 73 87 bd ac 09 35 3d
       -0.09961878 0.013429419 -0.066138506 0.044198677
000070 e1 76 fc 3c b0 38 a8 bd 1f 2a 02 3e 81 e3 75 3d
       0.030818405 -0.08213937 0.1271138 0.060031418
000080 d9 fa cd 3c 25 20 a2 bd 60 a5 c1 3d 9a 9d 0b 3d
       0.025144028 -0.07916287 0.09455371 0.034085847
000090 ff 8f fa bc f9 f1 3a 3d 32 aa 75 bd 34 d8 d0 3d
       -0.03058624 0.04564092 -0.059976764 0.101974875
0000a0 09 e8 f7 bc 3d 08 08 bc 58 86 10 3e 54 93 98 3d
       -0.03026201 -0.008302745 0.14113748 0.074499756
0000b0 08 63 2e 3e 27 60 7e 3d 88 60 4a 3e 2f c0 f0 3b
       0.17029965 0.062103417 0.19763386 0.007347129
0000c0 b5 bb bd bd 30 5e 7d bd 84 32 f0 bc ed 60 e6 3d
       -0.09264318 -0.061857402 -0.029320963 0.11248956
0000d0 80 a2 4a bd 37 9e 85 bd 81 56 8b 39 64 ad 6b 3b
       -0.04947138 -0.06524318 0.00026576596 0.0035961503
0000e0 57 e1 88 3d 53 97 23 3d 28 13 70 3d a9 7b b5 bc
       0.06683605 0.039939236 0.05861202 -0.022153692
0000f0 a0 75 c7 3c 70 ed 89 bd 0b c2 b7 3d d0 ef 14 bd
       0.02434808 -0.06734741 0.08972558 -0.036361516
000100 b3 37 b2 bc b9 c7 9a 3d 7d b4 eb 3c 67 e6 cd 3d
       -0.021755075 0.07557625 0.028772587 0.100537114
000110 ec 4a b5 3d c0 f9 98 3d 81 87 8b 3d f9 30 a7 bd
       0.08852181 0.07469511 0.06812955 -0.08163638
000120 fc 1c ec bd d3 bd 50 bd a3 12 80 3e 05 f9 ba bd
       -0.11528966 -0.05096228 0.2501422 -0.09129528
000130 54 9a ea bc 99 e8 e2 3d 3e d5 12 3c 69 e5 ea bc
       -0.028638043 0.11079521 0.008961974 -0.028673844
000140 3c e7 89 3d 70 81 23 3d 35 1a ae bd 27 ec 47 bd
       0.067335576 0.039918363 -0.08501092 -0.048809197
000150 81 aa 7e 3d ef 50 a2 3d 39 08 f4 3b f1 b8 d9 3d
       0.062174324 0.07925593 0.0074472693 0.10630978
000160 34 75 aa bd 73 ba 9c bd e0 08 21 bd ea 80 2d bd
       -0.08323136 -0.0765275 -0.039315104 -0.04235927
000170 1a 4d b8 3d 5f 43 95 bd ef b3 bb 3d 6b 43 28 bd
       0.08999081 -0.07288241 0.09165179 -0.04107992
000180 02 b9 9f bc f7 bb 86 bd 58 f8 18 bd 33 c3 cf bd
       -0.019497398 -0.0657882 -0.037346214 -0.10144653
000190 d5 53 5d bd f7 ae 38 3d ef 0a ce bd 14 2a ac 3d
       -0.054035027 0.045088734 -0.10060679 0.08406463
0001a0 ea f0 84 3d 5c ae 64 bd 27 e7 67 3c 00 e3 f5 3c
       0.06491263 -0.055830345 0.014154232 0.030015469
0001b0 0b a4 9a 3d 22 6f 40 bc 53 a8 93 bc 7c 9a b0 bd
       0.0755082 -0.011745246 -0.0180246 -0.086232156
0001c0 a2 b0 11 3d 45 9b a2 bd 20 ca cf bc 59 27 9c bd
       0.03556884 -0.079397716 -0.025364935 -0.076246925
0001d0 d5 45 80 3c 46 a1 dc bd d0 a6 0c 3c be 7a d0 bd
       0.015658299 -0.10772948 0.008584693 -0.10179661
0001e0 89 ef 09 bd 17 f0 b6 3d 41 1c 5b 3d 3c 61 2c 3d
       -0.033675704 0.08932512 0.053493742 0.042084917
0001f0 26 8b 8e 3d a9 f5 04 3e e8 3a e0 bc da b3 11 3d
       0.06960134 0.12984337 -0.027371839 0.03557191
000200 ed 29 21 3d dc de 88 3d 0f 92 99 3c f7 65 e7 3d
       0.039346624 0.06683132 0.018746404 0.11298745
000210 5e 62 db 3d ba 9a 09 3e aa 1e 94 bd 0f 17 97 bd
       0.107121214 0.1343793 -0.07232411 -0.07377445
000220 62 90 fb 3b d0 2c f5 bb de 0b 63 bd a2 36 af 3d
       0.007677124 -0.0074821487 -0.05543124 0.08555342
000230 da 78 a0 bd 0e f4 dc bd b4 a5 3c 3c 32 65 cb bd
       -0.078355506 -0.10788737 0.011514116 -0.09931411
000240 48 1a 38 bd e6 f2 c3 bd 96 75 ba 3d 7d 36 04 bd
       -0.04494694 -0.095678136 0.09104459 -0.032278527
000250 d1 da 00 3c 80 79 28 bb e8 01 ed ba 76 23 9e bd
       0.00786467 -0.0025707185 -0.0018082233 -0.077216074
000260 13 66 be 3d 6b f8 0b 3d 00 51 2a bd 19 9e 8e 3d
       0.09296813 0.034172457 -0.041581154 0.069637485
000270 5d 36 94 bd 02 86 ec 3d b4 a8 d2 3d f3 b7 c8 bd
       -0.072369315 0.115489975 0.10286084 -0.098007105
000280 43 aa d3 3d 62 ff 86 3c 79 88 9f bd dc 27 b7 bd
       0.10335209 0.016479198 -0.07789702 -0.089431494
000290 76 92 84 3c a9 b3 77 3b 63 a2 91 bc c4 62 2a 3d
       0.01618312 0.0037796295 -0.017777627 0.041598096
0002a0 24 60 00 bc 04 00 a1 bd f4 c0 cd 3b 4c 29 db bd
       -0.007835422 -0.07861331 0.0062791053 -0.10701236
0002b0 12 4c 16 bd 89 80 b4 3d 44 b2 0a bd 03 73 c0 bd
       -0.03669364 0.08813579 -0.033861414 -0.09396937
0002c0 f3 15 99 3d e9 e7 56 3c 77 95 c1 bc 34 c4 60 3c
       0.074748896 0.013116815 -0.02363084 0.0137186535
0002d0 da f4 7a 3c 7f ab dd 3b 10 07 43 bd 65 6f d5 bd
       0.015317166 0.0067648287 -0.047614157 -0.104216374
0002e0 1a 37 c2 bd ac f2 06 bd 5d b6 81 3c b3 00 ba bd
       -0.09483166 -0.032946274 0.015834028 -0.090821646
0002f0 9f 05 50 3d 68 66 c3 bd 59 a9 c8 3d c4 43 85 3d
       0.05078661 -0.09541017 0.097979255 0.06507066
000300 03 27 7b bd 7a da 54 bd 8e 5e 42 bd 7f 59 31 3d
       -0.0613165 -0.051966168 -0.047453456 0.04329824
000310 83 46 51 bd ea ae cf 3d a5 aa 30 3b f1 c5 69 3d
       -0.051092636 0.10140784 0.002695718 0.057073537
000320 5a 63 08 3c 8c 2b 8d bd 55 9d 1b bd 74 f7 a6 3d
       0.0083244685 -0.068930715 -0.03799184 0.08152667
000330 8a 91 1b 3c 23 7c bf 3d c1 22 00 3b 45 48 10 bd
       0.009495148 0.09349849 0.0019551965 -0.03522517
000340 88 50 81 3d 81 3a fb 3a 84 d2 99 3d 59 1b ca 3d
       0.06314188 0.0019167216 0.07510856 0.098684974
000350 0a 3d 52 3d 78 86 c0 bd 8f 11 75 bd f4 72 3b 3c
       0.051327743 -0.09400648 -0.0598312 0.011440981
000360 fa 2c de bd f7 f5 b2 3d ef 14 93 bb 88 59 b9 3d
       -0.10848422 0.0873832 -0.0044885795 0.0905028
000370 3f 49 1b 3d 32 3d ae 3d 72 a0 87 bd 24 17 b2 bd
       0.03791165 0.08507766 -0.066223994 -0.0869582
000380 f3 b1 34 3a 4c 25 21 3d ca 44 a4 bc 11 cb 85 3d
       0.00068929716 0.03934221 -0.020052332 0.065328725
000390 b2 b4 ce 3d 0f 85 06 3d b3 e8 13 3d 24 dd 70 bc
       0.10093059 0.03284174 0.03611059 -0.0147011615
0003a0 2e ea 00 bc 32 d5 37 3d 89 46 1e bd 69 87 1d bd
       -0.007868333 0.044881053 -0.038641486 -0.038459215
0003b0 5f a1 f8 3c e3 34 af 3c 7f 1e 2c bd 4e 8e 6f 3d
       0.030350385 0.021387523 -0.04202127 0.05848532
0003c0 ad 6a be 3d 1f a0 a4 bd 17 88 9d 3c 99 28 5b bb
       0.092976905 -0.08038353 0.019229932 -0.0033440946
0003d0 41 44 5b 3d b9 0f 1c bc 9b e9 33 3d 4e e9 e0 3d
       0.05353189 -0.009525233 0.043923955 0.10981999
0003e0 b8 69 d8 3d 16 2a 00 bd 9c 45 10 bd ca 93 19 bb
       0.10567039 -0.031290136 -0.035222635 -0.0023434036
0003f0 02 0f 19 bc 8e 48 ab bd f9 70 08 3d 63 a1 ed bd
       -0.009341957 -0.08363448 0.033310864 -0.11603048

hidden2.bias f4 [200]
000000 e3 47 13 3f f8 ca 94 3d e4 88 b8 3d dc d1 0b 3c
       0.57531565 0.07265276 0.09010485 0.008533921
000010 fb f0 15 bd 1c c5 05 3d 12 f9 a1 bd c9 27 de 3d
       -0.03660677 0.03265868 -0.079088345 0.10847432
000020 90 87 07 3d 47 c5 9b bd 02 df 50 3e 47 ba 21 bd
       0.033088267 -0.07605987 0.2039757 -0.03948429
000030 ef 25 e0 3d ef bc cd bb ed 45 3e 3d 80 88 31 bd
       0.10944735 -0.006278626 0.046453405 -0.043343067
000040 f4 61 7e 3e 0c ca c7 bd d4 f0 e9 3e 46 e2 6c 3d
       0.24842054 -0.09755334 0.4569155 0.05783298
000050 83 0a 50 3e 1f 44 7a 3c d1 3f 8b 3e d9 1e a2 3d
       0.2031651 0.01527503 0.27197126 0.0791604
000060 d2 0f c9 3d 97 ba 2c 3e 19 31 6e 3e 80 4a bf 3e
       0.098174706 0.16868053 0.23260917 0.37361526
000070 c6 6c 12 3c bb a4 e0 3b 4e 33 c9 3d e5 3b d7 bd
       0.008937066 0.006855575 0.09824239 -0.10509471
000080 f6 2e 6a bd 1c 49 de bd 6b b6 a9 bd cb c0 8d 3c
       -0.05717369 -0.10853788 -0.082867466 0.017303845
000090 84 3f 6f 3e 0e 88 b3 bd a2 07 1e 3d 15 cf 58 3e
       0.23364073 -0.08766185 0.038581498 0.21172746
0000a0 3c cf d4 3c 0d 57 88 3d 9c 39 d1 b9 74 72 69 3d
       0.025977723 0.066572286 -0.0003990651 0.056993917
0000b0 66 39 b1 3d f9 85 3c 3e 70 df a4 3e c2 69 c5 3d
       0.08653526 0.18410482 0.3220172 0.09639312
0000c0 1c 4b 37 3e 09 02 0a be 58 da 86 3d 9f 9f 24 3d
       0.17899746 -0.13477339 0.065846145 0.04019129
0000d0 fb 77 b5 bc 5b 66 63 bd b4 f6 8b 3e e4 46 bc 3d
       -0.022151938 -0.055517536 0.27336657 0.09193209
0000e0 89 84 39 3e ba 8f dc 3e 4a 8b a1 3d b3 f2 05 3d
       0.18116964 0.43078405 0.078878954 0.03270216
0000f0 e2 f1 20 3e 28 8f 53 3e 40 42 bd bc 3d e5 25 3e
       0.15717271 0.20660079 -0.02310288 0.16200729
000100 df f6 ba 3e 65 e2 0c 3e c9 6c ac 3e 2e fa 01 be
       0.36516473 0.13758238 0.33676746 -0.12693092
000110 f6 4a 18 3e 92 3d 0d bd 18 90 9a 3b 7d 69 5e 3e
       0.14872345 -0.034482546 0.0047168843 0.21719928
000120 d7 73 a6 bd a7 e0 a3 3e ea 0f 30 3d 9c 3a bc bd
       -0.081275634 0.32007334 0.042983927 -0.09190866
000130 77 a3 77 3e 9b 6a a3 bc 41 8b 23 bc 85 b7 7a 3c
       0.2418345 -0.019948294 -0.009981931 0.0153025435
000140 7c 60 bf 3e fb 86 ed 3d d3 84 e3 3d 65 6a 45 3d
       0.373783 0.11598011 0.111093186 0.04819717
000150 c2 c9 8b 3e 52 28 1c 3e 7b 52 37 3e 8b a8 1f bd
       0.27302366 0.15249756 0.17902558 -0.038979094
000160 40 f7 b3 3d ea 1a e1 3e 84 6c 1f 3d 6e 43 d9 3d
       0.087873936 0.43965846 0.038921848 0.10608564
000170 d3 95 5f bd 01 50 5c 3e 77 87 ae 3c a1 e5 7f 3e
       -0.054586243 0.21514894 0.021304829 0.2498994
000180 11 7f 8d 3e 46 09 1a bd 98 7b a4 bb f6 5f 69 3b
       0.27636006 -0.0376065 -0.0050196163 0.0035610176
000190 f3 5a 86 3c 1d 5f 1a 3e 79 86 da bd 36 f8 0a 3c
       0.01640079 0.15075345 -0.1067018 0.00848203
0001a0 05 e5 03 3e e7 7f 11 bd fa 35 77 3e 3a 6e de bc
       0.12880333 -0.035522368 0.24141684 -0.02715217
0001b0 90 a4 93 ba 7c 13 62 3e 66 9e 3e bc 05 cc bb bd
       -0.0011264253 0.22077745 -0.011634445 -0.09169773
0001c0 dc bf 9e bd a8 c2 3a 3e bc 04 06 bc a1 6e 9b 3d
       -0.07751438 0.18238318 -0.00817984 0.0758946
0001d0 46 e7 44 3d d9 d7 7d 3e 68 6c d1 3d ef 19 8c 3d
       0.048072122 0.2478937 0.10225755 0.06840884
0001e0 55 25 4b bd 47 f8 61 bd 81 68 06 3f 4f 1b 64 3e
       -0.04959615 -0.055168416 0.5250321 0.22276042
0001f0 d7 f7 06 be 8d 31 ae 3d 45 50 9a bd dd be f4 3d
       -0.13180481 0.08505545 -0.075348414 0.11950467
000200 d8 23 33 3d c7 cf 88 3e 2d 91 ec bd c2 e8 dc 3c
       0.043735355 0.26721022 -0.115511276 0.026966456
000210 c3 4c 41 bc 19 c8 24 bd e5 11 14 3e 87 0c 8c 3d
       -0.011798087 -0.04022989 0.14459951 0.06838327
000220 80 d3 b4 3d 8a 5d da bd 06 35 27 bd b7 40 a2 3d
       0.08829403 -0.106623724 -0.04082205 0.079224996
000230 d1 ad 67 3d ae 59 23 bd a9 73 ba 3b a5 38 01 3f
       0.05656225 -0.039880447 0.0056900573 0.5047706
000240 94 96 2c bd 28 8d 62 3e f5 bc 75 3c ea 6c 8e 3d
       -0.04213579 0.2212416 0.014998664 0.069543675
000250 4d e1 0d 3e 64 02 1a 3d a4 5b d0 3e 7b 3f 42 3d
       0.13855477 0.037599936 0.40694916 0.04742382
000260 4f 59 79 3d 2e 09 f8 bc 57 4b 1f 3e 47 f8 cc 3c
       0.060876187 -0.030277815 0.15556084 0.025020732
000270 d3 79 f0 bc 9a dc ae 3d 57 54 1d 3e 5b 86 d8 3d
       -0.029354965 0.0853817 0.15364204 0.10572501
000280 e7 6a 7c bd 3f d0 e7 3d 7f ab 55 bd 48 b4 af bd
       -0.061625388 0.11319017 -0.052165505 -0.08579308
000290 66 49 0a 3e ec a8 6a 3e 2d 83 41 3d 5c 6e 41 3e
       0.13504562 0.22916001 0.04724424 0.18889755
0002a0 57 82 c7 3d 03 8a f6 3d 08 16 7b bb 3c 9a a1 bd
       0.09741657 0.120380424 -0.0038312692 -0.07890746
0002b0 04 5d 5c bc 23 e6 13 3e 0d 5c 43 3e 0e 91 62 bd
       -0.013449911 0.14443259 0.19078083 -0.055314116
0002c0 ed 7a 8f ba 0c ed 7f 3e af 62 69 3e a2 cd e5 3d
       -0.0010946669 0.2499277 0.22791551 0.11220862
0002d0 e2 c7 44 3b f0 42 24 3e 03 8f a9 bd c7 e2 28 3e
       0.0030026366 0.1604116 -0.082792304 0.16492759
0002e0 1f ed 6e 3e cc 19 a6 bd ab 0b 52 3e cc 8c 02 3e
       0.23332642 -0.08110389 0.20512263 0.12749022
0002f0 9b 21 82 3d f9 4b 64 3e 2d 3d 79 bd e7 c0 ca bd
       0.06354066 0.22294606 -0.060849357 -0.099000745
000300 af 02 bc 3c 11 32 f3 3d 21 74 e3 3c 47 92 4b 3d
       0.022950498 0.11874784 0.027765336 0.049700048
000310 dd f0 89 3e 86 a7 4d 3c 23 82 c6 3e 42 19 99 3e
       0.26941577 0.012552148 0.3877116 0.29902083

predict.weight f4 [96, 200]
000000 b3 2d be b8 c9 0d 1b bd 8e 61 d7 3c 93 81 88 3c
       -9.068418e-05 -0.037854943 0.026291635 0.016663348
000010 fc e0 9d 3c 75 70 df 3d f1 29 f2 bc 0b f2 0c be
       0.01927232 0.10910121 -0.029561015 -0.13764207
000020 cd 98 86 3d f0 81 1e bd ff 8c 29 bd 10 1c 25 bd
       0.06572113 -0.038698137 -0.04139423 -0.040309966
000030 1a 09 aa bd 55 2a 2a bd fd 49 89 3c da 48 0c bd
       -0.08302517 -0.041544277 0.016758913 -0.034249164
000040 c8 34 bf 3c 1f ba 27 3d 34 34 21 be 04 aa e3 39
       0.023340598 0.040948983 -0.1574257 0.00043423485
000050 13 98 15 be 11 b0 bb bc 51 9d 3b 3c b5 62 93 bd
       -0.14608793 -0.022911103 0.011451081 -0.07196561
000060 22 71 eb 3c f2 0d 29 bc 82 5b 0e bd 84 fb 6f 3b
       0.02874047 -0.010318266 -0.034755237 0.003661842
000070 0f 0d 04 bc a5 2c 94 bd 22 d8 00 3e 67 c0 43 bd
       -0.008059754 -0.07235078 0.12582448 -0.04779091
000080 6f 0b 34 bd 31 ff 47 bd 08 3a 8b 3d 26 cc fb bc
       -0.043956216 -0.048827354 0.06798178 -0.030736994
000090 cf 2f 3d bc da ec fe bc c2 ad 1e bd 92 cd 95 bd
       -0.011547043 -0.031118799 -0.038739927 -0.073146
0000a0 60 5e 99 3d 5e fd 7e 3c 36 09 7a bd 09 33 0d 3d
       0.07488704 0.015563337 -0.06104394 0.0344725
0000b0 f4 eb b2 bb c4 62 92 bd cd 6d b2 bd 1c 59 a9 bd
       -0.0054602567 -0.07147744 -0.08712349 -0.082689494
0000c0 81 74 a1 bd 65 73 b2 bc f8 3e 7f bd bb bf 45 bd
       -0.078835495 -0.02178354 -0.06231591 -0.04827855
0000d0 57 f3 94 3d 78 b0 c5 bb 12 a4 2e be d8 21 83 bd
       0.07272976 -0.0060329996 -0.17054775 -0.064029396
0000e0 88 fe 57 bd a1 e7 02 be f1 5b 9d bd 6d 8a 69 3d
       -0.052732974 -0.12783672 -0.07683552 0.05701678
0000f0 13 6e 81 bd 61 b9 43 bd c4 e5 82 3c 40 18 8a bd
       -0.06319823 -0.047784213 0.015978701 -0.067429066
000100 78 42 83 bd 8e ed df 3c 6e e7 48 3d 3a ef cc 3c
       -0.06409162 0.027334955 0.049048834 0.025016416
000110 e2 31 ec 3d 1b c5 92 bc f8 d0 20 3d c0 62 4a bd
       0.11532952 -0.017916253 0.039261788 -0.04941058
000120 7d e3 9c 3d e8 1e 6e 3d fb f0 32 3d 42 83 9c bd
       0.076605774 0.058134943 0.043686848 -0.07642223
000130 4a 37 9b bd 96 20 56 bd 5d eb 7b 3d 00 15 e8 bd
       -0.07578905 -0.05227717 0.061503757 -0.113321304
000140 db 2f 27 be 51 78 36 bd ea c0 00 3d ef ab dc 3c
       -0.16326849 -0.044548336 0.031433977 0.026937453
000150 96 3a 10 3e 27 ff e9 bc c6 d9 eb 3d 68 15 87 bd
       0.14084849 -0.028564049 0.11516146 -0.0659588
000160 ba 90 02 3c b6 f2 79 3d 2d 06 a4 bb 4e 1d 2a 3d
       0.007969076 0.061022483 -0.005005619 0.041531853
000170 65 17 0a bd 0c 6a 30 bd 4b 25 49 3d cf c1 41 3d
       -0.033713717 -0.043069884 0.04910783 0.04730397
000180 e0 91 e5 3c 39 f8 2b bd d2 64 15 3d 85 c2 bd 3d
       0.02802366 -0.04198477 0.036473103 0.09265617
000190 2d 9f 19 3d a4 1e 09 be a1 b6 86 3d 36 60 02 bb
       0.037505317 -0.13390595 0.065778024 -0.0019893772
0001a0 86 a9 da bc 76 8b 71 3c 6c d9 87 3d d0 e1 60 bd
       -0.026692163 0.014742723 0.06633267 -0.05490285
0001b0 b5 e9 d8 3c f2 97 19 bd 39 cd 96 bd a7 ee 17 bd
       0.026478628 -0.037498422 -0.07363362 -0.03709283
0001c0 96 1c 80 bd c9 9b 0e be b0 4a 21 3c ab ac 2e 3d
       -0.06255452 -0.13926615 0.009844467 0.042645138
0001d0 d1 a0 af bc fc fe fa 3c a8 57 4a bd 28 23 a2 3d
       -0.021438988 0.030639164 -0.0494 0.07916862
0001e0 d9 bd 97 bc 46 d2 00 3d a8 e3 c0 bc 1c 1d 85 bd
       -0.018523144 0.031450532 -0.023546055 -0.06499693
0001f0 c3 76 40 3d 9e a2 ab bd d0 1c 6d bd 1d c6 cb bc
       0.04698826 -0.08380626 -0.057888806 -0.024874741
000200 40 d4 4d 3d 70 b6 0e bd 29 b6 2f 3d 78 84 7d bc
       0.050251245 -0.034841955 0.04289833 -0.015473478
000210 05 94 82 3d 90 91 68 bd c6 16 39 3d 79 02 05 3d
       0.06375889 -0.056779444 0.045187734 0.03247306
000220 92 8e e4 3b 86 24 2f bc 1a 83 0e bd 22 59 50 3c
       0.0069750035 -0.01068986 -0.034792997 0.012716563
000230 1c d6 83 3d 01 cc cb 3b 7f bb 8c bd 34 5a d5 bd
       0.064373225 0.0062193875 -0.068716995 -0.104175955
000240 13 fc 1c bd 3f 28 de 3c 2c a2 7f bd 06 26 f9 3c
       -0.038326334 0.0271188 -0.06241052 0.030413639
000250 e5 99 88 3d c7 1a e8 bb d0 b2 a4 bd c8 cc 38 bd
       0.06669978 -0.0070832702 -0.08041918 -0.04511717
000260 90 6e a6 bb 7f 02 0b 3d 9f 76 88 3b 97 09 c7 bd
       -0.005079098 0.033937927 0.0041645314 -0.09718626
000270 40 5a 02 bd b7 7c 26 3c d6 44 d3 3c f8 f9 b1 bd
       -0.03182435 0.01016157 0.02578966 -0.08690256
000280 bf 0c 7d bd 2a 71 25 3d 24 72 21 3d ab 06 98 3d
       -0.061779734 0.040391125 0.039415494 0.07423147
000290 6c 47 ca bd 0b a4 5f bb 54 fc f2 3d 13 df 3d bd
       -0.09876904 -0.0034124877 0.11864534 -0.04635532
0002a0 f8 b4 33 bd da e2 99 bc 99 f8 b9 bc 39 4d 38 bc
       -0.043873757 -0.018784929 -0.022701548 -0.01124888
0002b0 74 bd 69 bb ba 5c 20 3c a0 e1 19 bc 55 50 80 bd
       -0.0035665901 0.009787733 -0.009392172 -0.06265322
0002c0 96 d9 fd 3c 42 cc 4c 3d 0f 3d b0 ba c3 07 d0 3b
       0.030987542 0.049999483 -0.0013445931 0.0063485815
0002d0 b7 85 e4 3c be ad 9c bd a3 8e 4d 3a ac b5 49 bd
       0.027895791 -0.07650326 0.0007841384 -0.04924552
0002e0 cf de 63 3d 9b ac 85 bc cc 76 02 be ec b0 89 bd
       0.05563241 -0.016317656 -0.1274063 -0.06723198
0002f0 76 09 26 bd 04 0b 32 bd 7e 25 e7 bb a7 56 ed 3b
       -0.040536366 -0.043467537 -0.00705403 0.007242996
000300 7f de e4 bc b1 c6 31 3d e8 cf 53 3d 82 89 a6 bd
       -0.027938126 0.043402378 0.051711947 -0.08131696
000310 00 d2 2c bd d5 bb 3b 3d ad 33 95 bd 5b 33 83 bd
       -0.04219246 0.045833427 -0.07285247 -0.0640628
000320 90 9a 68 bd f4 9d a4 bd 30 4f e6 bc d2 0c 1a 3d
       -0.056788027 -0.0803794 -0.028113931 0.037609883
000330 be b3 71 3d 50 8f d9 3d 5d 6f b4 bc 3d 7f 58 bc
       0.059009306 0.10623038 -0.022025758 -0.01321393
000340 76 07 9f bc 01 6e 89 bd 31 35 d0 bd 1b a8 05 bd
       -0.019412737 -0.06710435 -0.101663955 -0.03263102
000350 3b 08 9a bc d3 2e 0f bd ba 3a 99 bd a9 fe fd bc
       -0.018802753 -0.034956764 -0.07481904 -0.03100522
000360 41 03 83 3c 7c 26 33 3d 68 fd 8b bd 2e 0c f7 3c
       0.015992763 0.043737873 -0.06835443 0.030157175
000370 6e dc be bd 21 7a 9f bd d5 66 3c 3d 25 c5 e5 bd
       -0.093193874 -0.07786966 0.045996506 -0.11219243
000380 01 27 46 3d 95 3f cc bd 9f e2 1c 3d e3 8b 04 bd
       0.04837704 -0.09973065 0.03830206 -0.03235997
000390 dd d9 dd 3b ba 5c 3a 3c ce 17 a5 3c 80 fd 25 3d
       0.006770356 0.011374647 0.020152953 0.04052496
0003a0 2e 18 f0 bc 51 68 7a 3d 7e 19 20 3d d4 45 0b 3e
       -0.029308405 0.06113464 0.03908681 0.13600856
0003b0 ef 8a eb 3d a4 5c 40 bc 08 08 3b bd 60 c7 5b bd
       0.11501109 -0.011740837 -0.045661956 -0.053656936
0003c0 4d c0 b3 bc 5f 49 f8 b9 9a b7 e8 bc 7a c9 2f bd
       -0.021942282 -0.00047356912 -0.02840786 -0.042916752
0003d0 8d d0 38 bd 56 5a 7e bc 4c 83 0d bd df ab 28 bc
       -0.045120765 -0.015524467 -0.034549043 -0.0102948835
0003e0 26 54 93 3b 91 fa 17 3d 28 44 f7 3b fb be a6 bc
       0.0044961153 0.037104193 0.0075459667 -0.020354738
0003f0 5b 45 8a 3c b8 99 81 3d 79 b1 09 be f5 d7 27 3c
       0.016878774 0.06328148 -0.13446607 0.010244359

predict.bias f4 [96]
000000 bf 6a d8 bd 1c 5d 03 be a6 10 b5 bd b1 d8 03 be
       -0.10567235 -0.12828487 -0.08841066 -0.1287563
000010 f1 b9 3f be f4 4c ac bd 13 75 2b be 60 fd 2b be
       -0.18723275 -0.08413115 -0.16743879 -0.16795874
000020 58 a0 09 be 93 e7 04 be cb dd f3 bd 88 a9 36 be
       -0.13440073 -0.12978964 -0.11907538 -0.17838109
000030 1c c7 d7 bd 28 53 f7 bd 3b 6b b1 bd 8a 04 38 be
       -0.10536024 -0.12076408 -0.08663031 -0.17970482
000040 e6 4d 26 be bf 57 91 bd 77 fc 02 be b8 ca 24 be
       -0.16240653 -0.07096814 -0.1279162 -0.16092956
000050 06 79 1f be 58 48 37 be 39 d2 cc bd f8 40 af bd
       -0.1557351 -0.1789869 -0.10001034 -0.08557314
000060 65 f1 77 bd 31 b9 19 be b2 83 2c be 22 aa f6 bd
       -0.060532946 -0.15012051 -0.16847113 -0.12044169
000070 1c 9e ac bd 9b cd 1c be 91 e3 c5 bd a8 38 2c be
       -0.084285945 -0.15312807 -0.096625455 -0.16818488
000080 94 1a ab bd 63 29 cf bd 67 f1 2c be 71 16 c6 bd
       -0.08354679 -0.10115316 -0.16888963 -0.09672249
000090 ba 92 d2 bd 6c 85 4a be 83 c3 46 be 88 21 3e be
       -0.10281892 -0.19777459 -0.1941052 -0.18567479
0000a0 49 fe b9 bd c4 33 05 be 49 5d 9c bd f9 30 83 bd
       -0.09081704 -0.13008028 -0.0763498 -0.06405825
0000b0 dd 89 40 be 43 21 33 be 93 81 a4 bd 77 94 3b be
       -0.1880259 -0.17493157 -0.08032527 -0.18318354
0000c0 cf 24 b8 bd f8 c8 54 bd b7 a7 f4 bd 68 f5 84 bd
       -0.08991396 -0.05194947 -0.119460516 -0.0649212
0000d0 e1 e7 fc bd 3a ff c7 bd 81 0d 37 be 8a a3 9a bd
       -0.12348915 -0.097654775 -0.17876245 -0.07550724
0000e0 65 3f 42 bd 5e 3c e1 bd 50 24 be bd bb f0 33 be
       -0.04742374 -0.10997842 -0.0928427 -0.175723
0000f0 8e b4 3f be f1 9c 3b be 42 e6 9d bd fa f9 28 be
       -0.1872122 -0.18321587 -0.07709934 -0.16501608
000100 4f 3b 8f bd 15 61 f7 bd 5a 3b 9b bd 57 24 27 be
       -0.06993734 -0.12079064 -0.0757968 -0.16322456
000110 d7 23 69 bd 5f de e1 bd d5 9c cb bd ef a4 2b be
       -0.056918945 -0.11028742 -0.09942023 -0.16762136
000120 98 80 d6 bd cc 80 c4 bd cb bb 91 bd 86 40 05 be
       -0.10473746 -0.095948786 -0.07115897 -0.13012895
000130 f6 53 81 bd d0 d4 a1 bd 35 d5 ee bd 54 52 c8 bd
       -0.063148424 -0.07901919 -0.1166176 -0.09781328
000140 bb 47 c9 bd a7 6e ed bd 99 22 e6 bd 5a b2 0d be
       -0.098281346 -0.11593371 -0.11237068 -0.13837567
000150 63 be 24 be 1f 17 16 be f1 8b cd bd 4c 1f e7 bd
       -0.16088252 -0.14657257 -0.10036457 -0.11285266
000160 db 21 06 bd f4 21 07 be b4 4d 0a be f7 48 3e be
       -0.03274713 -0.13196546 -0.13506204 -0.18582521
000170 51 1d db bd f5 0f 04 be 07 88 a7 bd e3 72 cb bd
       -0.10698951 -0.12896712 -0.08180242 -0.09934022
