Notebooks/2018-05-23_classification_BCELoss.pt (torch_old, 511993 bytes, 6 tensors)

hidden1.weight f4 [80, 1152]
0	0xbb4b417f	-0.003101438
1	0xbc47e2d8	-0.01220008
2	0xba99b6f7	-0.0011727501
3	0xbc068f7e	-0.008212922
4	0xbb9e5a84	-0.0048325676
5	0x3bb87c5d	0.0056300596
6	0x3cc7e73f	0.024402259
7	0x3b8fb3c5	0.004385444
8	0xbcd3d1eb	-0.025856933
9	0x3c49e20e	0.012321962
10	0x3d0814a4	0.03322281
11	0xbc001a6b	-0.007818799
12	0xbc2227b9	-0.009897166
13	0x3c3c67a6	0.011499321
14	0x3cbc4312	0.0229812
15	0xbb73e638	-0.0037216078
16	0x3cbad1a6	0.022805046
17	0x3be93ae8	0.007117618
18	0xbcc997df	-0.02460855
19	0x3bff785f	0.007796332
20	0xbcce22e5	-0.025163123
21	0x3ccee4f7	0.025255663
22	0x3a4a3043	0.000771288
23	0xbbee0d43	-0.0072647645
24	0xbbec5d2f	-0.007213257
25	0x3c07429e	0.008255629
26	0xbcd7d80d	-0.026348138
27	0x3b93e0d3	0.004512885
28	0x3cfb43ff	0.030672072
29	0x3cd91bd6	0.026502531
30	0xbc924ebf	-0.017859815
31	0xbca08b58	-0.019597694
32	0xbc0b9742	-0.008519949
33	0xbc219e8d	-0.009864462
34	0x3cbc1d57	0.02296321
35	0xbbae0cf4	-0.0053116027
36	0xbc985a8e	-0.018597867
37	0x3c4faa95	0.012674947
38	0xbc92bd2b	-0.017912468
39	0x3ccede8b	0.025252601
40	0xbc8feded	-0.017569507
41	0x3cf64328	0.03006132
42	0xbb9b2064	-0.004734086
43	0x3aaa566d	0.0012995728
44	0x3a62cfca	0.0008652179
45	0xbc4b735a	-0.012417639
46	0xbcd85414	-0.02640728
47	0xbc9f35c0	-0.01943481
48	0xbc64b2a1	-0.013958604
49	0xbcc089fb	-0.023503294
50	0x3c393098	0.01130309
51	0x3c362792	0.011117833
52	0x3bd4ed3f	0.0064980085
53	0xbcecc61b	-0.028903058
54	0x3c607cd4	0.013701636
55	0xbb0b2ca4	-0.0021236325
56	0x3bb89193	0.005632588
57	0xbd12ac93	-0.03580911
58	0xbc05fd77	-0.0081781065
59	0xbcde2bc2	-0.027120475
60	0xbc50da7b	-0.012747402
61	0x3cc3630d	0.023850942
62	0xbc4d109d	-0.012516168
63	0xbcb59ae3	-0.022168582
64	0x3cd3fa6d	0.025876248
65	0xbbf9967e	-0.007616817
66	0x3c8f77ca	0.017513175
67	0x3ce2f887	0.027706398
68	0xbce8c7bc	-0.028415553
69	0x3d06f534	0.032948688
70	0xbd00f80e	-0.031486563
71	0x39d5e1e3	0.00040794825
72	0x3c17b3b8	0.009259157
73	0xbcdee6ee	-0.027209725
74	0xbcd12e9e	-0.025534924
75	0x3c0e022c	0.00866751
76	0x3c82c3a4	0.01596243
77	0x3ce339f0	0.027737588
78	0xbb1dfce5	-0.0024107036
79	0x3c8640f0	0.016388386
80	0x3c98e474	0.018663622
81	0x3ccf92f4	0.025338627
82	0x3b4acfdb	0.0030946645
83	0xbb7785f3	-0.003776905
84	0xbc31db64	-0.010855529
85	0xbc6d3900	-0.014478922
86	0xbcdf864b	-0.027285716
87	0x3ce0e386	0.027452242
88	0x3c9df16c	0.019280158
89	0xbcb00fcb	-0.021491906
90	0xb95b0ac2	-0.00020889475
91	0x3cbe15a6	0.023203682
92	0xbcdb71b5	-0.026787618
93	0xbc4e6dc5	-0.012599413
94	0xbaabab78	-0.0013097366
95	0x3cce4cad	0.025183046
96	0xb883974d	-6.274749e-05
97	0x3bb339b8	0.005469527
98	0xbbc04338	-0.005867388
99	0xbc517020	-0.01278308
100	0x3c1862ef	0.009300931
101	0xbca0e0e0	-0.019638479
102	0x3cd41502	0.025888924
103	0x3d0ddf12	0.034636565
104	0xbbd0993b	-0.0063659227
105	0xbc525a94	-0.012838978
106	0x393f2731	0.0001822978
107	0x3c9be364	0.019029327
108	0xbb986b4c	-0.0046514627
109	0xbcd23714	-0.025661029
110	0xbcea070e	-0.028567817
111	0xbc28a545	-0.01029331
112	0x3c5a85f4	0.013337601
113	0x3cdd1adc	0.026990347
114	0x3c3b6e55	0.011439879
115	0x3c27421e	0.010208635
116	0x3ceaf7e5	0.028682658
117	0x3c915744	0.017741807
118	0x3c112ea0	0.008861214
119	0xbccdabd7	-0.025106354
120	0x3c8c9465	0.017160604
121	0xbc0266af	-0.007959052
122	0xbc8e6818	-0.01738362
123	0x3c983320	0.018579066
124	0xbcbc39ff	-0.022976873
125	0xbcc0925b	-0.023507288
126	0x3c64d7fe	0.013967512
127	0xbcc78670	-0.024356097
128	0x3cdb8371	0.026796075
129	0x3cab0d94	0.020880498
130	0x3c8bc8ec	0.01706358
131	0xbb21af36	-0.0024671084
132	0x3cc249b9	0.023716794
133	0xbca2cbc5	-0.019872556
134	0xbcb29e47	-0.021803988
135	0x3c49ca1e	0.012316255
136	0xbbf0b4df	-0.0073457803
137	0x3bd9d4f0	0.0066476986
138	0x3d06254f	0.032750424
139	0xbc1069ca	-0.008814285
140	0xbcd217a8	-0.025646046
141	0x3caa15ba	0.020762313
142	0xbcbfd950	-0.023419052
143	0xbb5f498a	-0.0034070932
144	0xbb61e79c	-0.0034470325
145	0x3caf65aa	0.021410782
146	0xbce412d7	-0.027841015
147	0x3b809e1c	0.003925098
148	0x3cfc0ac6	0.030766856
149	0x3ce7686a	0.02824803
150	0xbcca0691	-0.024661334
151	0xbc8eedfb	-0.017447462
152	0xbc010000	-0.007873535
153	0x3c168cf5	0.00918888
154	0xbc9d3d33	-0.019194221
155	0x3b1ae2c7	0.0023633705
156	0xbbe07d2c	-0.006850859
157	0xbbedb83e	-0.0072546294
158	0xbb1e0f96	-0.0024118177
159	0x3b436a99	0.0029818176
160	0xbcb452b5	-0.022012094
161	0x3cc1c21a	0.023652125
162	0x3cb6b385	0.022302398
163	0x3c9b8b31	0.01898727
164	0x3ca375fb	0.019953718
165	0x3c24c1bb	0.010055955
166	0xbc870953	-0.016483938
167	0xbca2e897	-0.019886298
168	0x3ca7a8da	0.020466257
169	0xbc84f4ca	-0.016230006
170	0xbba2a9e3	-0.0049640997
171	0xbc1524cb	-0.00910301
172	0x3b3f2126	0.0029164045
173	0xbbb72ec3	-0.005590291
174	0xbc993d7e	-0.01870608
175	0x3ba4dd02	0.005031229
176	0x3c70968d	0.014684332
177	0x3ba8dd86	0.005153361
178	0x3ca1de11	0.01975921
179	0xbaf818c2	-0.0018928277
180	0x3c8cde45	0.01719583
181	0xbcd030a4	-0.025413819
182	0xbb2d3ca2	-0.0026433845
183	0xbc769a68	-0.015051462
184	0xbc722a2c	-0.014780562
185	0x3c87443b	0.016512027
186	0x3a609380	0.0008566901
187	0x3c3a73d4	0.011380155
188	0x3ba56b9d	0.005048229
189	0x3ca70874	0.020389773
190	0x3cc52b89	0.02406861
191	0x3b81d1d2	0.00396178
192	0x3b518bd4	0.0031974213
193	0xbcd9c63f	-0.026583789
194	0xbcbfda31	-0.023419471
195	0xbc0e2fce	-0.00867839
196	0xbc089194	-0.00833549
197	0xbca678e2	-0.020321313
198	0xbb1b41fe	-0.0023690457
199	0xbb290f9f	-0.0025796664
200	0xbbb6b630	-0.0055759177
201	0xbb546f0e	-0.0032414827
202	0xbbae75f8	-0.0053241216
203	0x3c81b3c5	0.015832791
204	0x3b68f3a5	0.0035545614
205	0x3ca6786a	0.02032109
206	0x3b28188e	0.0025649401
207	0x3c9331e7	0.017968131
208	0x3c104f60	0.008807987
209	0xbcd54a92	-0.026036534
210	0xbc200a86	-0.009768134
211	0xbce91447	-0.028452052
212	0xbbce5d59	-0.006297749
213	0x3c58fcb7	0.013243846
214	0x3c8c7c88	0.017149225
215	0x3cd08ee3	0.025458759
216	0x3c8f070e	0.017459419
217	0x3c704ad4	0.014666278
218	0x3aaad41e	0.0013033187
219	0xbc2718bb	-0.010198767
220	0x3c9318f5	0.017956236
221	0x3c704640	0.014665186
222	0xbc781edf	-0.015144079
223	0xbc846c22	-0.016164843
224	0xbc7bda3b	-0.015371854
225	0xbccdb733	-0.02511177
226	0xbcd560ed	-0.026047194
227	0x3c0dcfdf	0.008655517
228	0xbb2e7ad7	-0.0026623511
229	0xbca4bfbf	-0.020110963
230	0x3c8a63a6	0.01689322
231	0xbc155a80	-0.009115815
232	0xbcc82d52	-0.024435673
233	0xbcd45821	-0.02592093
234	0x3cb328d4	0.021870054
235	0x3c60805f	0.013702481
236	0x3c9ba4e1	0.018999519
237	0x3a6d514e	0.0009052948
238	0x3cb639f9	0.02224444
239	0x3cb88ebc	0.022528999
240	0x3cdf10c0	0.027229667
241	0xbc7af8c3	-0.0153180985
242	0xbcd8202e	-0.026382532
243	0x3c9f048a	0.019411344
244	0x3bf5d0de	0.0075017055
245	0xbd02f169	-0.031968508
246	0x3cdef3d4	0.027215876
247	0x3bbcd5b2	0.005762779
248	0x3c787722	0.015165122
249	0x3b93d85b	0.0045118756
250	0x3cb123ce	0.021623518
251	0x3cada281	0.021195652
252	0xbce37335	-0.027764896
253	0xbc63c7d3	-0.013902622
254	0x3c37cb8a	0.011217961
255	0x3b931468	0.0044885166

hidden1.bias f4 [80]
0	0x3ea2903c	0.31750667
1	0x3c7531a6	0.01496545
2	0x3eabb327	0.3353512
3	0x3e6f416e	0.23364803
4	0x3e419a47	0.18906508
5	0x3e9e8e4d	0.30967942
6	0x3e1c4627	0.15261136
7	0x3f10ddc7	0.56588405
8	0x3e7ce009	0.24694838
9	0x3cf61976	0.030041438
10	0x3e5f5d10	0.21812844
11	0x3dfbce9b	0.12295266
12	0x3e614f39	0.22002877
13	0x3f265cfc	0.6498563
14	0x3e20ba77	0.1569613
15	0xbe38b651	-0.18038298
16	0x3e1cb9fb	0.15305321
17	0x3e388598	0.18019712
18	0x3e7583b2	0.23976019
19	0x3e96ab63	0.29427633
20	0xbb2933ad	-0.0025818155
21	0x3d0af912	0.03392894
22	0x3b789c76	0.0037935055
23	0x3e2cac8b	0.16862695
24	0x3d87c685	0.066296615
25	0x3e9e12ca	0.3087371
26	0x3e2a7574	0.16646367
27	0x3d55fdba	0.052243926
28	0x3e355e38	0.17711723
29	0xbdbd45ea	-0.09241851
30	0x3f0e983b	0.55701035
31	0x3e067583	0.13130765
32	0x3dd6659d	0.104686
33	0xbd062a0e	-0.03275495
34	0x3d89cbfd	0.06728361
35	0x3e388fc1	0.18023588
36	0x3ddf081d	0.10890219
37	0x3e4035ca	0.18770519
38	0xbc8462f1	-0.01616046
39	0x3dfef5a9	0.124492
40	0x3d2f148f	0.042744216
41	0xbce43e04	-0.027861603
42	0x3e9a7e4b	0.3017448
43	0x3e5e9766	0.21737441
44	0x3f0adbd4	0.5424168
45	0x3e835244	0.256487
46	0x3ea4d291	0.321919
47	0x3e571980	0.21005821
48	0x3b994c0c	0.004678255
49	0x3c28c0f6	0.010299912
50	0xbd98e974	-0.07466403
51	0x3e823b5c	0.25435913
52	0xbc8e117d	-0.017342323
53	0x3de03d4b	0.10949191
54	0x3d93cefe	0.07217215
55	0xbd9518d2	-0.07280125
56	0x3dc9a5c5	0.09846071
57	0x3e6f6a5b	0.23380415
58	0x3e80c292	0.25148445
59	0x3cd2be36	0.025725465
60	0x3eae757b	0.34074005
61	0x3c5c4918	0.013445161
62	0x3e0c9ca2	0.13731626
63	0xbe2e3015	-0.1701053
64	0x3dc797a9	0.09745724
65	0x3e63275e	0.22182986
66	0x3ed639b2	0.41840893
67	0x3e890413	0.2676092
68	0x3e7596cd	0.23983307
69	0x3e07294e	0.1319935
70	0x3ec88212	0.39161736
71	0x3a502559	0.00079401355
72	0x3ea33c59	0.3188198
73	0x3c319ad7	0.010840139
74	0x3f252332	0.6450683
75	0x3c918d1e	0.017767485
76	0x3e1bcea1	0.15215541
77	0x3e66d728	0.22543013
78	0x3dd5980c	0.10429391
79	0x3def306d	0.11679158

hidden2.weight f4 [200, 80]
0	0x3db987f9	0.09059138
1	0xbd79b91b	-0.060967546
2	0x3d5e6db9	0.05430386
3	0x3dfdd093	0.12393298
4	0xbc748dcc	-0.014926385
5	0x3c828e56	0.015937012
6	0x3d2cefcb	0.042220872
7	0x3e0ec4f3	0.13942318
8	0x3e04c03a	0.12963954
9	0x3d79909c	0.060928926
10	0x3dd70e08	0.10500723
11	0x3dc6ea4b	0.097126566
12	0x3d301abd	0.04299425
13	0x3e476de4	0.19475514
14	0x3dc93c02	0.09825899
15	0xbe11f43f	-0.14253329
16	0x3dd0fd56	0.1020457
17	0x3d5f37c5	0.054496545
18	0x3e03fb96	0.12888941
19	0x3d073bd4	0.03301604
20	0x3cbd9b9d	0.023145491
21	0xbd288a93	-0.04114778
22	0xbdaa4682	-0.083142295
23	0x3e0bb66f	0.13643812
24	0xbdaa286a	-0.083084896
25	0x3c6feda8	0.014644064
26	0xbd898b30	-0.06716001
27	0x3d89c62a	0.0672725
28	0x3d5e83dd	0.054324973
29	0xbe0cee8e	-0.13762876
30	0x3dcb835e	0.09937166
31	0x3d8fd07e	0.070221886
32	0x3d6bf6db	0.057608467
33	0xbda2aab9	-0.07942719
34	0x3dccf50a	0.10007675
35	0x3d243f08	0.040099174
36	0xbcd2bf34	-0.025725938
37	0x3dbd9665	0.09257201
38	0xbd6ede20	-0.058317304
39	0x3debff3a	0.1152329
40	0xbcb7e65d	-0.022448713
41	0xba9665ba	-0.0011474409
42	0x3e0039f4	0.12522107
43	0x3dcc29b6	0.09968893
44	0x3df34c2c	0.11879763
45	0x3d563e67	0.052305605
46	0x3e2cad4d	0.16862984
47	0x3d2f88a7	0.04285493
48	0xbdc502d5	-0.09619681
49	0xbd879fcb	-0.06622275
50	0xbd1accd5	-0.037793
51	0x3db81662	0.08988644
52	0xbd44623a	-0.04794524
53	0xbcedd83e	-0.029033776
54	0xba827d5c	-0.0009955573
55	0x3b380687	0.0028080062
56	0x3daf23a2	0.08551718
57	0x3d8ef226	0.0697978
58	0x3d565b93	0.052333426
59	0xbc24c8fb	-0.010057683
60	0xb93f3a3d	-0.00018236875
61	0xbd89365f	-0.066998236
62	0x3dcd8ff5	0.10037223
63	0xbd7b098a	-0.061288394
64	0xbc739cfd	-0.014868972
65	0x3da56cfe	0.08077429
66	0xbc5ea1f8	-0.013588421
67	0x3dc35428	0.09537536
68	0x3dcd5809	0.10026557
69	0x3db0d0a1	0.08633543
70	0x3d1e2a9e	0.03861486
71	0xbdaf5715	-0.085615315
72	0xbdb6350d	-0.088968374
73	0xbdcaac54	-0.0989615
74	0x3e432a46	0.19059095
75	0xbd959d66	-0.07305412
76	0xbc797956	-0.015226683
77	0x3de99a46	0.114063784
78	0x3ccda34f	0.025102286
79	0xbca1148a	-0.019663114
80	0x3d7710c9	0.060318742
81	0x3d4beff8	0.0497894
82	0xbdbc6e59	-0.09200735
83	0xbd2b3497	-0.0417982
84	0x3d857223	0.065159105
85	0x3da20f3c	0.07913062
86	0x3c065e30	0.008201167
87	0x3dc2787c	0.09495637
88	0xbda76024	-0.08172634
89	0xbd9b5992	-0.075854436
90	0xbd2d95ae	-0.042379074
91	0xbd4f934d	-0.050677586
92	0x3db9aa94	0.09065738
93	0xbda51f18	-0.08062571
94	0x3dc22188	0.09479052
95	0xbcc26d07	-0.023733629
96	0xbb8a28e5	-0.004216301
97	0xbd812b40	-0.063070774
98	0xbcc0f314	-0.023553409
99	0xbdcbafd7	-0.09945648
100	0xbd4e6ca8	-0.05039659
101	0x3d48b1eb	0.0489978
102	0xbdcaa8c4	-0.09895471
103	0x3dbbab49	0.091635294
104	0x3d88d511	0.06681264
105	0xbd22cc8b	-0.03974585
106	0x3c91bd03	0.017790323
107	0x3d10ba50	0.03533393
108	0x3d8f212f	0.06988751
109	0xbc144fbb	-0.009052212
110	0xbccce565	-0.025011728
111	0xbdac1bea	-0.08403762
112	0x3ce7b90d	0.028286481
113	0xbda3a11f	-0.07989716
114	0xbcb7bb84	-0.022428282
115	0xbd994851	-0.074844964
116	0x3c808a0c	0.015690826
117	0xbdcc8ca6	-0.09987764
118	0x3c3a1c52	0.011359291
119	0xbdcee128	-0.10101539
120	0xbd23b3df	-0.03996646
121	0x3dca9be0	0.09893012
122	0x3d67cd0b	0.05659203
123	0x3d2818f1	0.04103941
124	0x3d851bb2	0.06499423
125	0x3df1499f	0.1178162
126	0xbcdc5ea2	-0.026900593
127	0x3d13c2ad	0.03607433
128	0x3d2f1761	0.042746905
129	0x3d8e242d	0.06940494
130	0x3d2a1a9c	0.041529283
131	0x3de60376	0.11231129
132	0x3dca0145	0.098635234
133	0x3de418e1	0.11137558
134	0xbda97e3e	-0.08276032
135	0xbd8229f2	-0.06355657
136	0x3c436255	0.0119253
137	0xbc3037e6	-0.010755515
138	0xbd7e200e	-0.06204229
139	0x3db14e3b	0.086574994
140	0xbda649ab	-0.0811952
141	0xbdcd431c	-0.10022566
142	0x3c60b480	0.01371491
143	0xbdbb1cb4	-0.09136334
144	0xbd2e9f07	-0.04263213
145	0xbdcb7cb4	-0.099358946
146	0x3daead2a	0.08529122
147	0xbd06059c	-0.032720193
148	0x3bd3f179	0.006467995
149	0xbbfe53cd	-0.0077614547
150	0xbc66282e	-0.0140476655
151	0xbd9194f1	-0.071084864
152	0x3dbb6f5a	0.09152098
153	0x3d4531d0	0.048143208
154	0xbd44bee3	-0.048033606
155	0x3db10ff6	0.086456224
156	0xbd8fd0e2	-0.07022263
157	0x3de0d7f0	0.10978687
158	0x3dc8c755	0.098036446
159	0xbdcda573	-0.100413226
160	0x3dc72679	0.09724135
161	0x3c62e92f	0.013849541
162	0xbd9a3476	-0.075295374
163	0xbd98fae9	-0.07469732
164	0x3cc7c3ff	0.02438545
165	0xbb75d555	-0.003751119
166	0xbc47f6a6	-0.012204802
167	0x3cbbbc5e	0.022916969
168	0xbc6103de	-0.013733832
169	0xbd73b9b7	-0.059503283
170	0x3c49026d	0.012268645
171	0xbdcda320	-0.10040879
172	0xbcecdc8f	-0.028913764
173	0x3d831449	0.064003535
174	0xbd2db15a	-0.042405464
175	0xbd7673b2	-0.06016893
176	0x3dbb891f	0.09157013
177	0x3cabc9e9	0.020970302
178	0xbce8bd0a	-0.028410453
179	0x3cc8e451	0.024522932
180	0x3c7d0f83	0.015445593
181	0x3c45f65c	0.012082662
182	0xbd64356f	-0.05571502
183	0xbddd1c86	-0.10796456
184	0xbdae49d3	-0.085101746
185	0xbd1cd7b4	-0.038291648
186	0x3c506f9b	0.012721921
187	0xbdb61331	-0.08890379
188	0x3d78400b	0.06060795
189	0xbd850af9	-0.064962335
190	0x3dcb32a7	0.099217705
191	0x3d88d52e	0.06681286
192	0xbd5d0101	-0.053956036
193	0xbd494e90	-0.04914719
194	0xbd52fce3	-0.051510703
195	0x3d2942da	0.04132352
196	0xbd50fecd	-0.051024247
197	0x3dc17f63	0.09448125
198	0x3be0ec2e	0.0068640923
199	0x3d5e2caf	0.054241832
200	0x3c906b93	0.01762942
201	0xbd71d3a3	-0.059039723
202	0xbd3aab6c	-0.045573637
203	0x3dca2fec	0.098724216
204	0xbc1218e1	-0.008917064
205	0x3dcb1075	0.09915248
206	0xb98c23cf	-0.0002672956
207	0xbce67673	-0.028132653
208	0x3d77d65a	0.060507156
209	0x3cd7a6cc	0.026324652
210	0x3dbe7452	0.0929953
211	0x3dc3072d	0.09522853
212	0x3d4c4df7	0.04987904
213	0xbdb33cf7	-0.087518625
214	0xbd41a680	-0.047277927
215	0x3d3da961	0.04630411
216	0xbdb7700c	-0.08956918
217	0x3dabeb62	0.08394505
218	0xbc43f62b	-0.0119605465
219	0x3dc19e5f	0.09454035
220	0x3cde07d5	0.027103344
221	0x3db180cc	0.08667144
222	0xbd9c8604	-0.07642749
223	0xbd31e39f	-0.043429967
224	0x3af74c27	0.00188673
225	0x3d2b5d02	0.041836746
226	0xbd0edcdd	-0.0348786
227	0x3d654671	0.05597538
228	0x3ddcb8af	0.10777413
229	0x3d2bb552	0.041920967
230	0x3cdb2bb4	0.026754238
231	0xbc046377	-0.008080355
232	0xbbc4553c	-0.005991606
233	0x3d807a8f	0.06273376
234	0xbd7f5252	-0.062334366
235	0xbcd5b785	-0.026088485
236	0x3cf12f71	0.029441567
237	0x3d00367e	0.031301968
238	0xbd19bd09	-0.037533794
239	0x3d820cee	0.063501224
240	0x3dbed0b1	0.093171485
241	0xbdaaf95c	-0.08348343
242	0x3c94551d	0.018106991
243	0x3984d396	0.00025334646
244	0x3d738c43	0.059459936
245	0xbc940041	-0.018066527
246	0x3d226aba	0.039652564
247	0x3dce6f38	0.10079807
248	0x3dd70153	0.104982994
249	0xbd2e9807	-0.042625453
250	0xbd2e0280	-0.042482853
251	0xbb404786	-0.0029339506
252	0xbccd4568	-0.02505751
253	0xbdc050e5	-0.093904294
254	0x3d046066	0.032318495
255	0xbdc90aed	-0.09816537

hidden2.bias f4 [200]
0	0x3eff8751	0.49907926
1	0x3d7376fd	0.059439648
2	0x3d83f90b	0.064439856
3	0xbc119cb3	-0.008887458
4	0xbd0e7115	-0.034775812
5	0xbc9ac459	-0.018892454
6	0xbdc05973	-0.09392061
7	0x3d8cabd5	0.06868712
8	0x3c54ab84	0.012980346
9	0xbd3d6838	-0.04624197
10	0x3e29f129	0.16595902
11	0xbd4c0b25	-0.049815316
12	0x3d76c1dc	0.060243472
13	0xbbd091c7	-0.0063650343
14	0x3cb43551	0.02199808
15	0xbd21dcb4	-0.03951712
16	0x3e5a2f71	0.2130716
17	0xbdbfce75	-0.093655504
18	0x3edd6329	0.43239716
19	0x3d2cb7cb	0.042167466
20	0x3e3523e9	0.1768948
21	0x3c4950dd	0.012287346
22	0x3e7b78d8	0.24557817
23	0x3d994a80	0.07484913
24	0x3da26281	0.079289444
25	0x3deedc02	0.11663057
26	0x3e67b22c	0.22626561
27	0x3eac66c1	0.33672145
28	0xbc0cc556	-0.00859197
29	0xba1f512a	-0.0006077463
30	0x3d9881a6	0.074466035
31	0xbdd35e1a	-0.10320683
32	0xbd4384da	-0.04773412
33	0xbde750d5	-0.11294714
34	0xbda5ae06	-0.08089833
35	0x3a070242	0.0005150178
36	0x3e49f8a3	0.19723754
37	0xbdd26c66	-0.102745816
38	0x3d6346b9	0.05548737
39	0x3e3d2ef8	0.18474948
40	0x3cc6c013	0.02426151
41	0x3d435446	0.04768779
42	0xbb966015	-0.0045890906
43	0x3d0996d3	0.033591103
44	0x3d8da9fc	0.069171876
45	0x3e26b5d3	0.16280298
46	0x3e983796	0.2972991
47	0x3d8c4de6	0.068507954
48	0x3e1c2792	0.1524947
49	0xbde161f6	-0.11005013
50	0x3d97cfa2	0.0741265
51	0x3cd6d873	0.026226258
52	0xbcc0e342	-0.023545865
53	0xbd9d6ba5	-0.07686547
54	0x3e77cc5b	0.24199049
55	0x3dacb610	0.08433163
56	0x3e17dedf	0.14831112
57	0x3ec6b6ab	0.3881124
58	0x3d3b6395	0.045749266
59	0x3cd661ec	0.02616974
60	0x3e0ed581	0.13948633
61	0x3e3eceb2	0.18633536
62	0xbcd3528b	-0.025796195
63	0x3e0005fe	0.12502286
64	0x3eb7c93a	0.3589571
65	0x3db413de	0.08792852
66	0x3e99d927	0.30048487
67	0xbdd98abb	-0.10622164
68	0x3dfc1b7c	0.1230993
69	0xbd0cddc3	-0.034391176
70	0xbb86f22a	-0.0041182237
71	0x3e3845dd	0.179954
72	0xbdcb2f50	-0.099211335
73	0x3e8d3bd0	0.27584696
74	0x3c7f6408	0.015587814
75	0xbdd71998	-0.105029285
76	0x3e69df46	0.22839078
77	0xbc92603c	-0.017868154
78	0xbc11b7b4	-0.008893896
79	0xbd0c01c7	-0.034181383
80	0x3eb10747	0.34575865
81	0x3dca2f36	0.09872286
82	0x3d8502d5	0.06494681
83	0x3d0301a9	0.031984005
84	0x3e67da04	0.2264176
85	0x3e08ce06	0.13359842
86	0x3e22bbea	0.15891996
87	0xbd75dc31	-0.060024444
88	0x3dbe990d	0.09306536
89	0x3ebda9c5	0.37043586
90	0x3d1e1869	0.038597498
91	0x3daae852	0.08345093
92	0xbd54bd31	-0.05193824
93	0x3e49780d	0.19674702
94	0x3c2829ea	0.010263899
95	0x3e6f22d9	0.23353137
96	0x3e77c06c	0.24194497
97	0xbd0e5d11	-0.034756724
98	0xbaa6ef1b	-0.0012736054
99	0xbbba7031	-0.005689644
100	0x3ca4082e	0.020023432
101	0x3dcffe41	0.10155917
102	0xbddc6b07	-0.10762601
103	0x3bd60bf5	0.006532187
104	0x3ded850e	0.11597644
105	0xbd2a9463	-0.04164542
106	0x3e63179c	0.22176975
107	0xbce30b51	-0.027715357
108	0xbc8e2f72	-0.017356608
109	0x3e538478	0.20656002
110	0xbd0ba2af	-0.034090694
111	0xbdc6c75a	-0.09705992
112	0xbd9aeb85	-0.07564453
113	0x3e24d60c	0.16097277
114	0xbcf488da	-0.029850412
115	0x3d9e0f62	0.07717778
116	0x3d58ce0b	0.052930873
117	0x3e642d52	0.22282913
118	0x3d9c4c46	0.076317355
119	0x3d149c5b	0.036281925
120	0xbd250033	-0.040283393
121	0xbd42e313	-0.047579836
122	0x3eef4181	0.46729663
123	0x3e537d7e	0.2065334
124	0xbe0c83e3	-0.13722186
125	0x3d9da094	0.076966435
126	0xbd971c27	-0.073784165
127	0x3db27ba4	0.08714989
128	0x3cd3d1e6	0.025856923
129	0x3e70f010	0.23529077
130	0xbddf6aeb	-0.10909065
131	0x3d12979d	0.03578912
132	0xbc707aae	-0.014677687
133	0xbd50fd9c	-0.05102311
134	0x3e01e33b	0.12684338
135	0x3d4fe557	0.050755825
136	0x3d9106d4	0.070813805
137	0xbdc3fbb9	-0.09569497
138	0xbcddf221	-0.027092995
139	0x3d8bcd25	0.068262376
140	0x3d87409c	0.0660412
141	0xbd3f9db9	-0.046781275
142	0x3c056f1e	0.008144168
143	0x3ee2fb91	0.44332555
144	0xbd20b678	-0.039236516
145	0x3e484d1d	0.19560666
146	0x3c1afd5d	0.009459821
147	0x3d8c964a	0.06864603
148	0x3df2545a	0.11832495
149	0x3cd46d28	0.025930956
150	0x3eb2e9b9	0.3494394
151	0x3d546328	0.051852375
152	0x3d738aa3	0.059458386
153	0xbcb9716c	-0.022637092
154	0x3dcc588f	0.09977829
155	0xbbba87de	-0.005692466
156	0xbd0e7bf6	-0.034786187
157	0x3d9c4c2c	0.07631716
158	0x3e01dd35	0.1268204
159	0x3daffba1	0.08592916
160	0xbd8878b1	-0.06663645
161	0x3de49199	0.11160583
162	0xbd5ac34d	-0.05340891
163	0xbd982453	-0.07428803
164	0x3daa7a23	0.08324077
165	0x3e4fecab	0.20305125
166	0x3cd13a43	0.025540477
167	0x3e1a04e2	0.15040925
168	0x3d93cb44	0.07216504
169	0x3dc62eae	0.09676872
170	0xbc58e3cc	-0.013237905
171	0xbd932631	-0.07185019
172	0xbc5939c4	-0.013258401
173	0x3e07a056	0.13244757
174	0x3e3328f5	0.17496093
175	0xbd73d7b1	-0.05953187
176	0xbcab866c	-0.02093812
177	0x3e60c147	0.2194873
178	0x3e57bf99	0.21069182
179	0x3db28a50	0.08717787
180	0x3c81ecd5	0.01586
181	0x3e021c68	0.12706149
182	0xbda693ac	-0.08133635
183	0x3e183b81	0.14866449
184	0x3e53a948	0.20670044
185	0xbda3665c	-0.07978508
186	0x3e2e2d94	0.17009574
187	0x3db63d18	0.088983715
188	0x3d42c0a3	0.047546994
189	0x3e5b90c6	0.21441945
190	0xbd65d310	-0.056109488
191	0xbdb6ac2e	-0.089195594
192	0x3d280666	0.041021727
193	0x3d5a9729	0.053366814
194	0x3ce1adf5	0.02754877
195	0x3d1230a3	0.035690915
196	0x3e6dbee2	0.23217347
197	0xbc9c98ab	-0.019115767
198	0x3eb6b8c8	0.35687852
199	0x3e827469	0.2547944

predict.weight f4 [96, 200]
0	0x3a654f6f	0.0008747493
1	0xbcc9588a	-0.024578352
2	0x3cd9e17d	0.026596779
3	0x3c9d9905	0.019238004
4	0x3c1e4c3c	0.00966173
5	0x3d781ad0	0.060572445
6	0x3c1a8c1e	0.009432821
7	0xbdc3dd75	-0.09563724
8	0x3d2a1df0	0.041532457
9	0xbc6ffa43	-0.014647069
10	0xbc474184	-0.012161616
11	0xbd67c88e	-0.05658775
12	0xbd91dccf	-0.07122194
13	0xbd52f9e7	-0.051507857
14	0x3c14d69d	0.009084371
15	0xbd41b254	-0.047289208
16	0xbb336196	-0.0027371398
17	0x3d24d51a	0.040242292
18	0xbe0aecde	-0.1356692
19	0xbbe6f2da	-0.007047993
20	0xbde96297	-0.11395758
21	0xbcefe5ba	-0.029284347
22	0x3ca69ff6	0.020339947
23	0xbd6f4d1d	-0.05842315
24	0x3c60d8f4	0.013723601
25	0xbb9cff5d	-0.004791184
26	0xbd676ff1	-0.05650324
27	0x3c790a41	0.015200199
28	0x3a526763	0.000802627
29	0xbd9078f4	-0.0705432
30	0x3dcdce83	0.100491546
31	0xbd5e1403	-0.054218303
32	0xbcfd5799	-0.030925559
33	0xbd4774e0	-0.048695445
34	0x3d85f96a	0.065417126
35	0xbd5ec2f8	-0.054385155
36	0xbd4e099d	-0.050302137
37	0xbcfdc913	-0.030979669
38	0xbd2a2c26	-0.04154601
39	0xbd79e21d	-0.061006654
40	0x3d73932c	0.059466526
41	0x3ca887c7	0.020572556
42	0xbd935c39	-0.071953245
43	0x3d2aad79	0.041669343
44	0x3be414d8	0.0069604926
45	0xbdaca40a	-0.084297255
46	0xbd17319c	-0.036912546
47	0xbd6a4647	-0.057195928
48	0xbd9d1581	-0.07670117
49	0xbd5f4578	-0.05450961
50	0xbd8273dc	-0.06369755
51	0xbd6010c9	-0.054703508
52	0x3d8face6	0.070154
53	0xbc507766	-0.012723779
54	0xbdf6a789	-0.120436735
55	0xbd82589b	-0.063645564
56	0xbd07e394	-0.03317602
57	0xbdb9b696	-0.09068029
58	0xbd9fe11a	-0.078066066
59	0x3d4e14b4	0.050312713
60	0xbd24cec5	-0.040236253
61	0xbd6055a6	-0.05476918
62	0x3c44e964	0.012018535
63	0xbd6037ea	-0.054740824
64	0xbd44685c	-0.047951087
65	0x3d31161c	0.043233976
66	0x3cdea3cb	0.027177712
67	0x3c795685	0.015218382
68	0x3da25114	0.07925621
69	0xbc949ea4	-0.018142052
70	0x3d19140a	0.037372626
71	0xbbf79ec5	-0.0075567686
72	0x3d6f63e0	0.058444858
73	0xbcb514f9	-0.022104727
74	0xbbd34168	-0.006447006
75	0xbd6f449a	-0.058415033
76	0xbd331e46	-0.043730043
77	0xbd4d8fe5	-0.050186057
78	0x3d6bf7d6	0.0576094
79	0xbd8725f0	-0.06599033
80	0xbddf41b9	-0.109012075
81	0xbd78937c	-0.060687527
82	0x3d219012	0.039444037
83	0x3a2e905d	0.0006659085
84	0x3dda7cac	0.106683105
85	0xbd2766b5	-0.040869433
86	0x3d895843	0.06706288
87	0xbd3bf9fb	-0.045892697
88	0xba9a96a8	-0.0011794167
89	0x3d44d65d	0.048055995
90	0xbba3aeb3	-0.004995191
91	0x3d305048	0.043045312
92	0xbd221a33	-0.039575767
93	0xbd5a4465	-0.053287882
94	0x3d16d742	0.03682638
95	0x3d3b8826	0.04578414
96	0x3d431653	0.047628712
97	0xbd32519c	-0.04353486
98	0x3d11ad45	0.035565633
99	0x3d870cae	0.06594215
100	0x3cc1be29	0.023650246
101	0xbdaa3431	-0.08310736
102	0x3d7011d5	0.058610756
103	0xbbf5c7c4	-0.0075006206
104	0xbd3c9751	-0.046042744
105	0x3be4f571	0.0069872667
106	0x3cd94376	0.026521426
107	0xbd61e860	-0.05515325
108	0x3cb25e43	0.021773463
109	0xbc95baf1	-0.018277617
110	0xbd4c248f	-0.049839552
111	0xbd28abf8	-0.041179627
112	0xbd8b6600	-0.06806564
113	0xbde3e464	-0.111275464
114	0x3cb79e9c	0.022414498
115	0x3d1341e4	0.03595151
116	0xbcb03927	-0.021511627
117	0xbd175175	-0.036942918
118	0xbd3a8784	-0.045539394
119	0x3cb3c1e0	0.021943033
120	0xbc0db922	-0.008650096
121	0x3cf30884	0.029667147
122	0xbcf734c5	-0.03017653
123	0xbd8169ec	-0.06319031
124	0x3cf3ad81	0.029745819
125	0xbd954636	-0.07288782
126	0xbd8f8441	-0.07007647
127	0xbd0e7c81	-0.034786705
128	0x3d10b9fd	0.035333622
129	0xbd08a4ee	-0.033360414
130	0x3d2d4d8f	0.042310294
131	0xbc9d65a0	-0.019213498
132	0x3d77ea22	0.06052602
133	0xbd792fc2	-0.06083656
134	0x3d52dd0b	0.051480334
135	0x3d1abe6b	0.037779253
136	0x3c70f0ed	0.014705879
137	0xbcc4c47e	-0.024019476
138	0xbce427ed	-0.02785107
139	0xbc59bf5f	-0.013290255
140	0x3d24df4a	0.040252008
141	0x38e9c43e	0.00011146859
142	0xbd85fb33	-0.06542053
143	0xbdcb3752	-0.09922661
144	0xbd199f77	-0.037505593
145	0x3c4c98a1	0.012487561
146	0xbd665896	-0.056236826
147	0x3d6ce169	0.057832155
148	0x3d82791b	0.06370755
149	0xbc25463d	-0.010087547
150	0xbda05649	-0.078289576
151	0xbd2f509c	-0.042801484
152	0xbbc41d89	-0.005984966
153	0x3ce3225a	0.027726341
154	0x3d1adc12	0.03780753
155	0xbd9b5fc4	-0.07586625
156	0xbd0587d0	-0.032600224
157	0xbb9236a1	-0.0044620787
158	0x3d03bebb	0.032164317
159	0xbd9aebf8	-0.07564539
160	0xbd7f8451	-0.062382046
161	0x3d308532	0.043095775
162	0x3ce0ae50	0.027426869
163	0x3d6abb00	0.057307243
164	0xbd9f2724	-0.07771137
165	0x3b3caa31	0.0028787965
166	0x3db19fc7	0.08673053
167	0xbcd27028	-0.025688246
168	0xbd220bef	-0.039562162
169	0xbd302d58	-0.043011993
170	0x3c0470d2	0.008083539
171	0xbc3f28c5	-0.011667435
172	0xbb26f723	-0.0025476895
173	0x3c96255b	0.01832836
174	0xbbfe638b	-0.0077633313
175	0xbd8d9b6a	-0.069144085
176	0x3cd791fb	0.026314726
177	0x3d238887	0.039925124
178	0xbd4f46c0	-0.05060458
179	0x3c9900aa	0.018677074
180	0x3b1d76c5	0.002402709
181	0xbd9b369a	-0.07578774
182	0xbc2509d1	-0.010073141
183	0xbd35d138	-0.04438898
184	0x3c6b111c	0.014347341
185	0xbc8bdfad	-0.01707443
186	0xbd983c2a	-0.074333504
187	0xbd637643	-0.055532705
188	0xbd6aa61a	-0.057287313
189	0xbd92a5a8	-0.07160503
190	0xbc92f1d5	-0.01793758
191	0x3a359c6c	0.0006927911
192	0xbd07acc4	-0.033123747
193	0x3d197b85	0.037471313
194	0x3d4c3cd7	0.04986271
195	0xbda38c82	-0.07985784
196	0xbd8b0ea4	-0.06789902
197	0x3d55f50f	0.05223566
198	0xbd8615b6	-0.0654711
199	0xbd63a68b	-0.05557875
200	0xbd8728b1	-0.06599558
201	0xbd94f343	-0.07272961
202	0xbcb143b4	-0.021638729
203	0x3d3e9251	0.046526257
204	0x3d47a1a1	0.048738126
205	0x3d921195	0.0713226
206	0xbc8c5d20	-0.01713425
207	0x3bcb9bb9	0.006213632
208	0xbc3b3341	-0.011425794
209	0xbd4d2f40	-0.05009389
210	0xbda163ca	-0.078803614
211	0xbd11b564	-0.03557338
212	0xbb7fc75b	-0.0039028737
213	0xbd13fff0	-0.036132753
214	0xbd850f42	-0.06497051
215	0xbd04907a	-0.032364346
216	0x3bcf503c	0.0063267034
217	0x3d2fe3f2	0.042941995
218	0xbd4213d5	-0.047382195
219	0x3d3e72c3	0.046496164
220	0xbdb03301	-0.08603478
221	0xbd86b59e	-0.065776095
222	0x3d28a015	0.04116829
223	0xbdb5c073	-0.088745974
224	0x3a8b105c	0.0010609734
225	0xbd8a8ed2	-0.06765522
226	0x3c9488d7	0.018131657
227	0xbd6cfc24	-0.057857648
228	0x3c8a1766	0.01685686
229	0x3cfe5447	0.031046046
230	0x3bf22e3f	0.007390767
231	0x3d0cad99	0.034345243
232	0xbcc565c9	-0.024096387
233	0x3d73df1f	0.059538957
234	0x3d1a8f46	0.037734292
235	0x3dad0414	0.084480435
236	0x3d867299	0.065648265
237	0xbcee1ad7	-0.029065533
238	0xbd4cdbd2	-0.050014324
239	0xbc27f664	-0.010251615
240	0xbcf50163	-0.029907888
241	0xbc2d1aab	-0.01056544
242	0xbc607346	-0.013699358
243	0xbd868c1b	-0.06569692
244	0xbccdc1a9	-0.025116758
245	0x3b881aa6	0.0041535674
246	0xbc15c556	-0.009141287
247	0xbbcf4807	-0.006325725
248	0x3c3fcc37	0.011706403
249	0x3d185867	0.037193682
250	0x3c03a685	0.008035307
251	0xbc03fd84	-0.008056048
252	0x3c7c6a8d	0.015406263
253	0x3d2569d8	0.040384144
254	0xbdc994e5	-0.098428525
255	0x3c771607	0.015080935

predict.bias f4 [96]
0	0xbdd6e5f1	-0.104930766
1	0xbe01916c	-0.1265313
2	0xbda3db7b	-0.08000847
3	0xbdf0b32c	-0.11752924
4	0xbe30bbcf	-0.17259143
5	0xbd8dcfb4	-0.06924382
6	0xbe1b68a9	-0.15176643
7	0xbe1fd658	-0.1560911
8	0xbe060e18	-0.13091314
9	0xbe038c0d	-0.12846394
10	0xbde04aaa	-0.10951741
11	0xbe2f4318	-0.17115438
12	0xbdb57b4c	-0.08861408
13	0xbde01b50	-0.109427094
14	0xbd92ae78	-0.071621835
15	0xbe2e7a81	-0.17038919
16	0xbe28992c	-0.1646468
17	0xbd8c3ff8	-0.068481386
18	0xbdf4cdc4	-0.11953309
19	0xbe16f9f5	-0.14743789
20	0xbe13e258	-0.14441812
21	0xbe26f408	-0.16304028
22	0xbda91722	-0.08256365
23	0xbd98be59	-0.07458181
24	0xbd86fc13	-0.06591048
25	0xbe190c32	-0.14946058
26	0xbe21aad7	-0.15787826
27	0xbdd5e9b2	-0.104449645
28	0xbd93d9ca	-0.07219274
29	0xbe0f7be6	-0.14012107
30	0xbda8962c	-0.08231768
31	0xbe1ce48f	-0.15321563
32	0xbdbf4a16	-0.09340303
33	0xbdc945a2	-0.098277345
34	0xbe27d3fe	-0.16389462
35	0xbdaa21f5	-0.08307258
36	0xbdb0f35b	-0.08640166
37	0xbe370dbd	-0.17876334
38	0xbe36a63a	-0.17836848
39	0xbe2d160d	-0.16902943
40	0xbdc2c1df	-0.09509634
41	0xbe00a68f	-0.12563537
42	0xbd909a67	-0.070607
43	0xbd525822	-0.05135358
44	0xbe2bd617	-0.16780888
45	0xbe2530e3	-0.1613193
46	0xbd8d321f	-0.068943255
47	0xbe2aaf03	-0.16668324
48	0xbdbe9de3	-0.09307458
49	0xbd4b6f27	-0.04966655
50	0xbddd3067	-0.10800248
51	0xbd5f75dd	-0.054555763
52	0xbdde376e	-0.10850416
53	0xbdab68e9	-0.083696194
54	0xbe29bacf	-0.16575168
55	0xbd8793b9	-0.06619973
56	0xbd38c548	-0.045110017
57	0xbdd316b1	-0.103070624
58	0xbdaf872a	-0.085707024
59	0xbe23ce34	-0.15996629
60	0xbe2ff2c3	-0.1718245
61	0xbe2bc217	-0.16773258
62	0xbd82285b	-0.063553534
63	0xbe1bf489	-0.15230002
64	0xbd8afa8a	-0.06786068
65	0xbde92b4b	-0.113852106
66	0xbd896652	-0.06708969
67	0xbe1c58d6	-0.15268263
68	0xbd3b2fb5	-0.045699794
69	0xbdc25840	-0.094894886
70	0xbdb58c1b	-0.088646136
71	0xbe251500	-0.16121292
72	0xbdd56258	-0.10419148
73	0xbdba85b2	-0.091075316
74	0xbd867fd3	-0.06567349
75	0xbdf48c38	-0.11940807
76	0xbd501e19	-0.050809953
77	0xbd83b9ea	-0.06431945
78	0xbdd1a952	-0.102373734
79	0xbdb32f5e	-0.08749269
80	0xbddac37d	-0.10681818
81	0xbdf01de5	-0.11724452
82	0xbddad16f	-0.106844775
83	0xbe077567	-0.13228379
84	0xbe14c78d	-0.14529248
85	0xbe067a1b	-0.13132517
86	0xbdb1fd80	-0.086909294
87	0xbdcad888	-0.09904581
88	0xbd2e64d8	-0.04257664
89	0xbe074a19	-0.1321186
90	0xbe06c886	-0.13162431
91	0xbe3255aa	-0.17415491
92	0xbdc1d607	-0.094646506
93	0xbde89723	-0.11356952
94	0xbd9246ea	-0.07142432
95	0xbdb59198	-0.088656604
