Notebooks/2018-05-23_classification_BCELoss.pt (torch_old, 511993 bytes, 6 tensors)

hidden1.weight f4 [80, 1152]
00000000: cba9 40bb bf2b 48bc 787f a1ba 458c 07bc
00000010: 1c85 a1bb ea80 b83b dc06 c53c 799e 8c3b
00000020: dcc6 d3bc 8f2c 513c 2422 0a3d d4b6 00bc
00000030: fdb2 1fbc 5aa5 393c e707 bc3c dc1c 7fbb
00000040: 1b34 bb3c ac26 ef3b 3bb8 c8bc 6db6 003c
00000050: 1713 cebc 151d cf3c ef68 793a 045c f8bb
00000060: 23ad f2bb 5417 0b3c 7e1a dabc e5f8 a03b
00000070: ec94 fc3c 7dcf d83c 3422 91bc 25b7 a0bc
00000080: 5044 0bbc a21f 24bc f3ac bc3c ba74 aebb
00000090: 2774 98bc 4e60 4f3c 3c55 93bc d909 ce3c
000000a0: 0031 8ebc 639f f33c ced4 97bb 6592 ab3a
000000b0: 2769 463a 5828 4abc 1460 d9bc 1292 9ebc
000000c0: 1a83 66bc cf9a c0bc 685c 3a3c 39c5 353c
000000d0: 51a4 d43b 3bb3 ecbc 6ccf 5e3c 8033 f4ba
000000e0: 42ce bf3b 8781 12bd 7fa8 09bc b90b dfbc
000000f0: e1a0 51bc 6f2a c23c 970a 4bbc 89e6 b4bc
00000100: d819 d43c daef f7bb a9a7 8f3c 0aad e23c
00000110: ac52 e9bc c2df 063d 9e0a 01bd 6deb 5b39
00000120: fc31 163c c6f8 e2bc 861f d1bc 5872 123c
00000130: a767 823c 8429 e43c 83e0 1cbb d216 863c
00000140: e3c9 983c 667b cf3c 2be0 473b 9b7a 72bb
00000150: 18c3 32bc 6da4 6ebc 9068 dfbc 34c1 e13c
00000160: c53d a03c f53a acbc bbf8 4fb9 642d bd3c
00000170: 516b dbbc 2fe5 4ebc 5421 b1ba edbc ce3c
00000180: f49c 33b8 3c51 b23b e1c0 c1bb 2029 50bc
00000190: 6bfd 1a3c 8523 a2bc a173 d33c ea6c 0e3d
000001a0: dfbb d6bb c9fa 4abc de2d a639 9c9c 993c
000001b0: 9d2f 99bb dcb9 d1bc bda9 eabc a700 27bc
000001c0: ba74 5a3c 8bff dc3c a3bb 3a3c d271 263c
000001d0: 5fa9 ea3c e2b4 903c 317a 113c 18d7 cebc
000001e0: 32df 8c3c f926 ffbb 8174 8fbc 9fca 983c
000001f0: be38 babc b506 c0bc 3d3b 683c 1931 c7bc
00000200: 1a59 db3c 5905 ab3c 282b 8c3c 6eee 1ebb
00000210: b1e5 c03c 7bde a3bc 29d4 b3bc 40fe 4b3c
00000220: e535 eebb 426a d33b c500 063d 31d0 10bc
00000230: b4bb d3bc ee55 a93c dcf3 c0bc 3492 58bb
00000240: 61c0 5ebb de67 af3c 1ea4 e4bc 13b3 7a3b
00000250: d1db fc3c f209 e63c 7ef5 cabc a066 8dbc
00000260: 34d8 01bc eebd 173c 0b20 9bbc 7807 143b
00000270: f0a1 dcbb bdfc eabb 9d1e 1fbb 90a7 373b
00000280: c0d6 b4bc b1c9 c13c 8635 b73c 9f3e 9c3c
00000290: e0b7 a33c 030b 273c 86a5 85bc c90e a5bc
000002a0: ba74 a93c 9d74 88bc 7a2c a3bb 5f0d 0fbc
000002b0: a656 323b 6e03 bbbb 26d1 97bc 4979 a93b
000002c0: f43e 713c 7070 aa3b 4807 a23c 2344 feba
000002d0: bab6 8c3c 5c1d d1bc d8c7 3abb 073f 7abc
000002e0: 5d92 78bc 370e 8b3c f7aa 8c3a 52c6 393c
000002f0: ea75 ad3b 8b11 a93c c1f8 c43c 733e 773b
00000300: 7b2f 553b aeb3 d9bc 0654 c0bc eecd 0dbc
00000310: fb98 08bc 1ebb a5bc 02f4 27bb 2f0a 2ebb
00000320: bd40 b8bb 6e75 58bb fa48 a0bb 7adf 813c
00000330: 0303 6f3b 9225 a53c bf4e 293b 291d 923c
00000340: 4cd0 103c 1e3f d5bc 2486 1fbc a2e4 e8bc
00000350: 96af d2bb 26d6 573c 94bf 8b3c b492 cf3c
00000360: 9a62 8e3c 7d09 743c eb34 cc3a 9b1f 21bc
00000370: c11f 943c db20 6f3c 1691 77bc 4ae4 85bc
00000380: 126e 7bbc 166d cdbc ebb4 d4bc 6275 0d3c
00000390: 851e 2ebb c493 a6bc 3e9e 8a3c ef3a 1abc
000003a0: abf7 cabc e5df d3bc 209f ae3c b1e8 623c
000003b0: a9d6 9d3c 4139 8b3a 6548 b73c e508 ba3c
000003c0: 4dbc de3c 8165 7cbc b9f7 d7bc da43 9f3c
000003d0: 303a fa3b c417 03bd 711e e03c 8874 c23b
000003e0: 9f31 803c 0044 823b 8d6c b63c bd97 ae3c
000003f0: 7215 e7bc 5dda 66bc 6fbd 383c 496c 893b
-0.002939808 -0.012217461 -0.0012321314 -0.008273189 -0.004929198 0.005630602 0.024051122 0.0042913524
-0.02585166 0.012766971 0.033723965 -0.00785609 -0.009747264 0.011330927 0.022952987 -0.0038927114
0.022851994 0.007298311 -0.02450191 0.007855994 -0.025155587 0.025282422 0.00095142325 -0.0075793285
-0.0074058934 0.008489449 -0.02662396 0.004912483 0.03083273 0.026466126 -0.017716505 -0.01961858
-0.008500174 -0.0100173075 0.023031687 -0.0053239735 -0.018610073 0.012657238 -0.017984979 0.02515118
-0.01735735 0.029739087 -0.0046335226 0.0013089894 0.00075687695 -0.01233872 -0.026535071 -0.019356761
-0.014069343 -0.023511318 0.01137457 0.011094385 0.0064893146 -0.028894057 0.013599258 -0.0018631071
0.0058534453 -0.03576806 -0.008401989 -0.02722727 -0.012794704 0.023701875 -0.0123926615 -0.022082584
0.02589123 -0.0075664343 0.017536001 0.027670402 -0.028481804 0.032928236 -0.031504266 0.0002097317
0.009167191 -0.027706515 -0.025527727 0.0089383945 0.015918566 0.027851827 -0.002393753 0.016368303
0.018650955 0.025327396 0.0030498605 -0.0036999348 -0.010910772 -0.014565569 -0.027271539 0.027557947
0.019560704 -0.021024207 -0.00019833718 0.023092933 -0.02678457 -0.012627884 -0.0013513961 0.025236571
-4.28231e-05 0.005441813 -0.0059128855 -0.012705117 0.009459834 -0.019792328 0.025811972 0.034771837
-0.0065531577 -0.012388893 0.0003169616 0.018751435 -0.0046748654 -0.02560132 -0.02864539 -0.010193027
0.013333494 0.026977321 0.011397275 0.010158973 0.028645216 0.017664377 0.00887923 -0.025249049
0.017196272 -0.0077866283 -0.017511608 0.018651305 -0.022732135 -0.023440698 0.01417428 -0.024315404
0.026775885 0.020876573 0.017110422 -0.0024251002 0.023547025 -0.020003548 -0.021951752 0.012450755
-0.0072696083 0.006451876 0.032715578 -0.008838699 -0.02584634 0.020670857 -0.023553781 -0.0033046128
-0.0033989178 0.021411832 -0.027910288 0.003825371 0.030866535 0.028080914 -0.024775263 -0.01726085
-0.007925082 0.009261591 -0.018936178 0.002258746 -0.0067331716 -0.007171242 -0.0024279722 0.002802346
-0.022075057 0.023655744 0.02236439 0.019072829 0.01998514 0.0101954965 -0.01631428 -0.020148652
0.020685542 -0.016657168 -0.0049796673 -0.008731215 0.002721229 -0.005707196 -0.018532347 0.005171929
0.014724482 0.005201392 0.019778863 -0.0019398968 0.017176975 -0.025526695 -0.0028500464 -0.015273816
-0.0151716145 0.016974552 0.0010732104 0.011338787 0.0052935975 0.020638248 0.024044396 0.0037726432
0.0032529521 -0.026574936 -0.023477565 -0.0086550545 -0.008337255 -0.020230826 -0.0025627618 -0.0026556363
-0.005622952 -0.0033028978 -0.004891512 0.015853632 0.00364703 0.020159516 0.002583429 0.01783617
0.008838724 -0.026031073 -0.009736571 -0.028429333 -0.006429623 0.013173616 0.017059125 0.025338508
0.017381001 0.01489484 0.0015579736 -0.0098341955 0.018081548 0.014595236 -0.015110275 -0.016344208
-0.015346067 -0.02507643 -0.025965175 0.008633943 -0.0026568484 -0.020334132 0.016921159 -0.009413465
-0.0247763 -0.025863597 0.021316111 0.013849423 0.019267397 0.0010621921 0.022373388 0.02270932
0.027189398 -0.01540506 -0.02636324 0.019441534 0.007636331 -0.032005087 0.027358266 0.0059343018
0.015648661 0.0039753914 0.022268558 0.021312589 -0.028208468 -0.014090148 0.011275633 0.004193817

hidden1.bias f4 [80]
00000000: 3dca 9f3e b1f3 773c 568a a93e 2659 6d3e
00000010: 75cf 3f3e 3b17 9c3e 3b6b 1a3e 4549 0e3f
00000020: 3d4a 793e bbd7 f53c dd72 5c3e 3d2a f83d
00000030: b56d 5e3e 2a39 233f eea9 1e3e 98f4 34be
00000040: db0a 1b3e 4a19 363e b168 723e 8fba 943e
00000050: 714a 16bb 6bbb 083d 1042 833b 608d 2a3e
00000060: 12d4 853d 3d81 9c3e ce09 283e b4a7 523d
00000070: 998a 323e d91b bbbd 9162 0c3f 3aff 043e
00000080: 9a9c d43d 2a8d 05bd 0080 873d 5345 363e
00000090: e601 dd3d cda6 3e3e b92a 84bc f335 fb3d
000000a0: 972c 2e3d d0c5 e3bc 4815 983e dc73 5b3e
000000b0: 9a49 083f 3e2d 813e 62a5 a13e 10bd 543e
000000c0: 2a7f 9d3b df05 303c e16f 97bd 5c7b 803e
000000d0: 44e0 8cbc bc92 dd3d 662f 923d 0759 91bd
000000e0: 1655 c73d 900d 6d3e 2571 7e3e b13b cf3c
000000f0: 0560 ab3e b9ad 593c f301 0b3e 3e12 2bbe
00000100: 468a c43d e847 603e 1a54 d23e 2cdf 863e
00000110: 8046 723e 9485 053e 2b16 c53e de01 893a
00000120: 0a74 a13e 43cf 373c 8e33 223f b79e 893c
00000130: 88ec 193e 2713 643e 3ce3 d23d 7a04 ec3d
0.31208983 0.015133784 0.33113354 0.23178539 0.18731482 0.30486473 0.15079968 0.5558055
0.24344726 0.030010095 0.21528192 0.12117431 0.21721537 0.637591 0.1549451 -0.1767143
0.1514086 0.17783085 0.23672749 0.29048583 -0.0022932554 0.03338186 0.004005678 0.16655493
0.0653459 0.3056735 0.1640999 0.051429465 0.17435683 -0.09136171 0.548379 0.12987986
0.10381432 -0.032605328 0.06616211 0.17799883 0.10791378 0.18618317 -0.016133653 0.12266149
0.042522993 -0.027804285 0.29703736 0.21430916 0.5323731 0.2522983 0.3157149 0.20775247
0.004806419 0.010743587 -0.07394386 0.25094116 -0.017196782 0.10819003 0.07137947 -0.07097059
0.09733026 0.23149705 0.24847849 0.025297018 0.33471695 0.013286048 0.13574962 -0.16706178
0.09596686 0.2190243 0.4107979 0.26342142 0.23659706 0.13039237 0.38493475 0.0010452827
0.31533843 0.011218849 0.63359916 0.016799314 0.15031636 0.22272931 0.10297248 0.11524291

hidden2.weight f4 [200, 80]
00000000: 244f b73d 9bde 76bd d634 5c3d e1bf fe3d
00000010: c8f5 77bc 6326 783c 5935 2f3d 6053 0c3e
00000020: 745f 043e b6b5 7c3d 98c7 d73d fd62 c83d
00000030: 039e 313d c146 443e 6676 c93d 8ad7 12be
00000040: 538d d23d 267b 5e3d 1a85 033e 1939 093d
00000050: d839 bf3c 826a 27bd 16b7 a9bd 8805 0c3e
00000060: 93d6 a9bd 08be 633c 95ef 89bd 8b0f 8b3d
00000070: bf4b 603d e579 0dbe 8425 c83d 3b43 903d
00000080: 55ca 6d3d aa57 a2bd e72e cd3d f28b 243d
00000090: daa3 d1bc 3004 bf3d 14e4 6dbd ab9d ec3d
000000a0: 3fea b0bc fb87 67ba 71ff fe3d bde8 cb3d
000000b0: 0893 ee3d ab7e 543d 4da5 2b3e 47cd 303d
000000c0: 29e4 c4bd 6b21 87bd 1e81 1dbd adf4 b63d
000000d0: f1e2 43bd 0897 ebbc 8717 c0b9 ac4f 4b3b
000000e0: d8ab af3d 9e7d 8f3d 260f 553d c456 22bc
000000f0: 805f 8bba 7f01 89bd 4a9d cd3d f422 7cbd
00000100: 4783 6abc 4d43 a53d 49e8 77bc b284 c23d
00000110: f849 cd3d 7569 b13d 816e 193d 3dff adbd
00000120: 9f52 b6bd db77 ccbd 0346 403e a0e9 94bd
00000130: 2789 6ebc 0dcd e83d 1255 ce3c 59c7 a0bc
00000140: b043 763d 0d8c 4c3d 492e bdbd 6841 2bbd
00000150: 3791 853d 9f3c a23d 2421 073c bb3b c23d
00000160: 944c a7bd 5f65 9bbd bf0e 2ebd 47f2 4fbd
00000170: f3a8 b93d d097 a5bd ba34 c23d 2053 c5bc
00000180: f668 86bb 05e0 80bd 0f2f bfbc 0fd9 cbbd
00000190: fa53 4ebd bcf0 483d 9a9b cabd b4ec bb3d
000001a0: d4db 883d 2436 23bd d75c 913c 0e1c 113d
000001b0: 6bf3 8e3d 30b2 1abc f2fd cfbc 0322 acbd
000001c0: cdb1 e63c 469d a3bd b3cc b6bc 0040 99bd
000001d0: 929f 843c a353 ccbd 0009 3c3c dc1a cfbd
000001e0: 8f84 24bd 76ae ca3d b7bc 673d df74 283d
000001f0: 54eb 843d cfd9 f03d 7ae2 dcbc 53d5 133d
00000200: d034 2f3d a126 8e3d b358 2b3d 7591 e53d
00000210: a736 ca3d ecf1 e23d 37e8 a9bd 4e6f 81bd
00000220: d344 473c d142 32bc a373 7ebd d037 b13d
00000230: 5a8b a6bd f14d cdbd be53 603c 131f bbbd
00000240: d296 2ebd 5b42 cbbd 5d60 ae3d c2f4 05bd
00000250: 35e1 ce3b 1f45 00bc 15c9 6abc b273 91bd
00000260: 6c9b bb3d 6157 453d eb94 44bd c634 b13d
00000270: 28c6 8fbd dd51 e03d f7a5 c83d 9398 cdbd
00000280: 6854 c73d 97eb 613c edea 99bd 92fc 97bd
00000290: d53d cb3c 7a55 6abb f720 47bc 0850 ba3c
000002a0: 9682 60bc e5b0 74bd eb28 493c 96a1 cdbd
000002b0: d72c edbc 1cbc 823d f014 2ebd 5641 72bd
000002c0: 35ad bc3d 1505 ab3c 47eb e8bc 5a54 cb3c
000002d0: 6536 7d3c 3e9c 463c bbde 63bd 00d0 dcbd
000002e0: f489 aebd 0de0 1abd 28b9 503c e8c3 b5bd
000002f0: 7a8e 783d 8fe8 82bd c91c cb3d 9c6f 883d
00000300: 2327 5bbd 6e31 49bd e6e9 52bd c13a 293d
00000310: 3d87 4fbd be0a c23d b04c e23b a133 5e3d
00000320: 8d11 8e3c 28b2 71bd 97c9 3abd de34 ca3d
00000330: 36d5 13bc d711 cb3d d189 1db9 d4d5 e4bc
00000340: 55c8 773d 885e d93c a74f c03d f1dc c23d
00000350: 31be 4c3d 123c b3bd 33ba 40bd a00e 3f3d
00000360: 916b b6bd f62c ac3d 45e5 44bc 4ebd c13d
00000370: 77db dd3c 2b81 b13d 36b0 9cbd 7dde 2cbd
00000380: f286 f33a 2a62 2c3d a712 0fbd 90cb 643d
00000390: f1c3 dc3d 20a3 2b3d b66d da3c 2737 02bc
000003a0: 78e4 b9bb 2f8a 813d 3edd 7fbd b0d6 d2bc
000003b0: 98d9 f23c f606 023d d097 19bd b87c 823d
000003c0: 10b3 be3d 78cf aabd cedc 933c c6be 1339
000003d0: a746 733d 3cd6 94bc 51e7 213d 54fb cd3d
000003e0: 41d5 d63d 6bb6 2ebd a344 2ebd 0d67 3fbb
000003f0: 5a53 cfbc 11d2 c0bd 2d4d 043d 2fe1 c8bd
0.08950642 -0.060270887 0.053761326 0.12438942 -0.015134282 0.015145871 0.042775486 0.1370368
0.12927037 0.06169673 0.10536116 0.097845055 0.043363582 0.19167615 0.09837036 -0.14340034
0.10280862 0.054316662 0.12843743 0.03350172 0.023343012 -0.04087306 -0.08286874 0.13673985
-0.0829288 0.013900287 -0.0673515 0.06790074 0.054759737 -0.1381603 0.097727805 0.07044073
0.058054287 -0.07926877 0.100187115 0.040172525 -0.025590826 0.093269706 -0.05807884 0.1155351
-0.021596072 -0.00088322134 0.12451065 0.09956501 0.11649138 0.051878612 0.16762276 0.043164518
-0.096138306 -0.06598171 -0.038453214 0.08933387 -0.04782385 -0.02875854 -0.00036638623 0.003102283
0.085776985 0.070063815 0.0520164 -0.009908382 -0.001063332 -0.066897385 0.10039766 -0.06155677
-0.0143135255 0.08069477 -0.015131065 0.09497966 0.10023874 0.086626925 0.0374589 -0.084959485
-0.089024775 -0.09983798 0.18776707 -0.07271123 -0.014559067 0.11367235 0.025187049 -0.019626306
0.060123146 0.04993825 -0.09237344 -0.041810423 0.06521838 0.07921719 0.008247647 0.09484049
-0.08168903 -0.075876944 -0.04249453 -0.050768163 0.09065428 -0.080855966 0.09482713 -0.024087489
-0.004101868 -0.06292728 -0.023337869 -0.0995351 -0.050373055 0.049057707 -0.0989296 0.09176007
0.06682554 -0.039846554 0.017744465 0.035427146 0.06980022 -0.009441897 -0.025389645 -0.08404925
0.028160954 -0.07988982 -0.022314405 -0.0748291 0.01618937 -0.0997689 0.011476755 -0.10112545
-0.04016548 0.09896557 0.056576457 0.041127082 0.06490198 0.11760294 -0.026963461 0.036092114
0.042774975 0.06940962 0.041832637 0.11209384 0.09873705 0.11081299 -0.082962446 -0.06320058
0.012162405 -0.010880188 -0.062122 0.086532235 -0.08132048 -0.10024632 0.013691841 -0.09136786
-0.042624302 -0.09924766 0.085144736 -0.032704122 0.006313468 -0.00782898 -0.014330168 -0.07102145
0.09160504 0.048179034 -0.04799358 0.08652644 -0.07020217 0.10953114 0.0979728 -0.10038867
0.09732896 0.013789079 -0.07515512 -0.07421221 0.024809757 -0.0035756514 -0.0121538555 0.02274324
-0.013703009 -0.059739012 0.012277822 -0.10040586 -0.028952045 0.06383535 -0.042500436 -0.05914434
0.09212724 0.020876447 -0.028432501 0.024820495 0.015454863 0.012122212 -0.055632334 -0.1078186
-0.08522406 -0.037811328 0.012739457 -0.08875257 0.06068275 -0.06392013 0.099176 0.06661913
-0.05350412 -0.049119405 -0.051492594 0.041315798 -0.050666083 0.09474705 0.0069061145 0.054248456
0.017342353 -0.059007794 -0.045602407 0.09873365 -0.009023001 0.09915512 -0.00015024027 -0.027933992
0.060493786 0.026534334 0.093901925 0.095147975 0.04998607 -0.08751692 -0.047052573 0.046644807
-0.089072354 0.08407013 -0.012017553 0.09459935 0.027082188 0.08667215 -0.07650797 -0.04220437
0.0018579646 0.042085804 -0.034929898 0.055858195 0.1077956 0.041903615 0.026663642 -0.00794772
-0.0056729876 0.063251846 -0.062466852 -0.025737137 0.029644772 0.03174492 -0.037498295 0.063714445
0.09311497 -0.08340353 0.018049624 0.00014090081 0.05939355 -0.018168561 0.03952724 0.10057703
0.10489894 -0.042654436 -0.042545926 -0.002920571 -0.0253083 -0.09415067 0.032300163 -0.09808575

hidden2.bias f4 [200]
00000000: ae36 fd3e 761f 723d 4816 833d 6a45 18bc
00000010: a48e 0ebd 379f 9dbc acae c0bd f02c 8b3d
00000020: 8f19 493c 1e55 3cbd 4237 293e 2648 4dbd
00000030: 47fa 733d 29aa ccbb c500 b23c f895 21bd
00000040: 59d4 573e cbbb bfbd 30d9 db3e 9087 283d
00000050: f3cd 333e de9c 493c bce9 793e a51c 993d
00000060: 3685 a13d 2436 ed3d 0ac2 653e ab1c ab3e
00000070: 3bbe 0dbc 3edf 81ba aa52 983d c627 d3bd
00000080: f1a0 43bd 68fd e6bd eebd a5bd 63e0 b6b9
00000090: 4963 483e 758d d2bd 9ab1 633d c78d 3b3e
000000a0: e00d c83c 12cf 3f3d 972d 98bb d7e8 083d
000000b0: 48a3 8c3d 5457 253e 3705 973e fbab 8b3d
000000c0: da9e 1a3e 4618 e1bd cde4 973d c2c0 d13c
000000d0: 1f85 c0bc 7197 9dbd 6b1d 763e 4680 ac3d
000000e0: 58eb 163e 417b c53e 292a 393d bded d43c
000000f0: 5535 0e3e ee91 3d3e 8413 d3bc 43e2 fe3d
00000100: 4835 b63e 5c68 b23d 55cb 983e 8dd9 d8bd
00000110: 6b73 fb3d abdf 0cbd a453 92bb 8699 363e
00000120: bb5b cbbd 2c27 8c3e ff63 753c 2cf3 d6bd
00000130: 660c 683e 2ed3 91bc eb15 11bc cc21 0ebd
00000140: f7cc af3e bcf6 c83d 7585 833d 4f12 023d
00000150: ef84 663e 45a9 073e 99ef 203e 8ba6 77bd
00000160: 45b9 be3d e290 bb3e d20b 1e3d 5680 a93d
00000170: ac9c 54bd 5c56 483e 86e9 2a3c cbbb 6d3e
00000180: 75a8 753e bf53 0ebd 4714 99ba 39a6 c0bb
00000190: 73bc a43c 8e8c cc3d 0781 dcbd 007e d43b
000001a0: 8b69 ec3d 35aa 2abd 6c2f 613e 0125 e3bc
000001b0: b160 8fbc ae8f 513e 7a68 0dbd f3d5 c6bd
000001c0: ace0 9abd f5cf 233e cd1a f5bc b838 9e3d
000001d0: 57ed 583d 5366 623e ed26 9b3d 1e00 113d
000001e0: 4551 24bd baa7 42bd 8f65 ed3e f163 523e
000001f0: e859 0cbe 4d4a 9d3d 8216 97bd 99d2 b03d
00000200: 9a05 d43c 16f5 6e3e 5d8c dfbd 1854 133d
00000210: e78a 70bc 6844 51bd 1954 013e a152 503d
00000220: 3057 903d df4b c3bd e604 ddbc 1d00 8c3d
00000230: 6f73 873d ddc2 40bd 950a 053c d100 e13e
00000240: 1f4e 20bd 88ed 453e 1499 1a3c cf4e 8d3d
00000250: 63c5 ef3d a7da d33c 121c b13e f6a3 543d
00000260: e66b 733d e557 b8bc d439 c93d af7d c8bb
00000270: 1673 10bd 7ddd 9b3d 8563 003e 51eb ad3d
00000280: cc9a 88bd 8529 e43d 7141 5bbd 0280 97bd
00000290: a0ff a73d f309 4e3e 8dc8 d03c 6d33 183e
000002a0: 627a 933d b474 c33d 26f9 58bc 94f0 92bd
000002b0: d711 59bc 2f16 073e c374 313e dded 73bd
000002c0: 798a adbc 6429 5f3e 402b 563e b6ae b13d
000002d0: f2c0 833c 4711 013e b54d a6bd 8b50 173e
000002e0: eefd 513e 9847 a3bd 2bdc 2c3e 18fc b33d
000002f0: 0083 423d 6b33 5a3e 1c4a 64bd 0d9b b6bd
00000300: e87d 283d 9dbc 583d f70f e23c 1b6d 103d
00000310: d85a 6b3e 5d20 9fbc 9123 b53e 4005 813e
0.4945578 0.059112035 0.06400734 -0.009293893 -0.034804 -0.019240959 -0.09408316 0.067956805
0.01227416 -0.04597961 0.16524985 -0.050117634 0.059564855 -0.0062458706 0.021728883 -0.039449662
0.21077098 -0.093619905 0.42939138 0.041144907 0.17559032 0.012305466 0.24405569 0.07476167
0.07886736 0.11582592 0.22437301 0.3342031 -0.0086513115 -0.000990845 0.07437642 -0.103103206
-0.047760908 -0.11278802 -0.08092867 -0.00034880926 0.19569124 -0.10280887 0.055589296 0.18315803
0.024420679 0.046828337 -0.0046441066 0.03342518 0.06867081 0.16146594 0.29496166 0.06819912
0.1509966 -0.10990958 0.07416687 0.02560461 -0.023500977 -0.07694901 0.2403466 0.08422904
0.14738214 0.38570598 0.045206223 0.025992269 0.13887532 0.18512699 -0.025766142 0.124455
0.35587525 0.08711311 0.2984263 -0.105883695 0.122778736 -0.034392994 -0.004465537 0.17832002
-0.099296056 0.27373636 0.014977454 -0.104956 0.2266098 -0.017800894 -0.008855323 -0.0347002
0.34336063 0.09812686 0.06421939 0.03175574 0.22511648 0.13248165 0.15716399 -0.060461562
0.09312681 0.36633974 0.03858549 0.08276431 -0.051907226 0.19564193 0.010431653 0.23216169
0.23990043 -0.034747835 -0.0011679017 -0.0058791903 0.02010939 0.09987746 -0.107667975 0.006484747
0.11543568 -0.04166623 0.21990746 -0.027727606 -0.01750216 0.20464966 -0.034523465 -0.09708776
-0.07562384 0.15997298 -0.029920006 0.07725662 0.05296072 0.22109346 0.07575784 0.035400502
-0.040116567 -0.047523238 0.46366546 0.20545937 -0.13706172 0.076801874 -0.0737734 0.08633918
0.025881577 0.2333568 -0.10915444 0.03596887 -0.014681554 -0.051090628 0.12629737 0.05086005
0.0704788 -0.09535956 -0.026979875 0.06835959 0.06613814 -0.047060836 0.008120199 0.43945935
-0.039137002 0.19328892 0.009435911 0.06899797 0.117075704 0.025861097 0.34591728 0.051914178
0.05942907 -0.022502849 0.09825483 -0.0061184983 -0.035266005 0.07610605 0.12537964 0.08492149
-0.0667015 0.11140732 -0.053529207 -0.073974624 0.082030535 0.20120983 0.025486255 0.14863367
0.07201077 0.09543744 -0.013242995 -0.07174793 -0.013248882 0.13192056 0.17329697 -0.059553016
-0.021184193 0.21793133 0.20914936 0.086759016 0.016083214 0.12604247 -0.0812029 0.14776818
0.20507023 -0.0797264 0.16880862 0.087883174 0.047488213 0.21308677 -0.05573474 -0.08916292
0.0411357 0.05291425 0.027595503 0.0352603 0.22983873 -0.019424612 0.35378698 0.25199318

predict.weight f4 [96, 200]
00000000: 0c5f 9f3a 5e03 c8bc b64a da3c 1a30 9e3c
00000010: 495a 1c3c b309 753d c141 1e3c cc6f c2bd
00000020: 8781 293d f1ac 69bc e4f9 42bc ec39 68bd
00000030: f3bb 91bd 7a46 53bd 97fa 153c 3990 42bd
00000040: 0446 43bb f5d7 243d 78ab 0abe 58cf e7bb
00000050: 66c8 e8bd 2506 f0bc a4e6 a73c 60a1 6dbd
00000060: 96ba 5c3c ff6c 88bb 2a2a 67bd 3a00 803c
00000070: a709 8c3a 2ed4 8fbd 2a97 cc3d 2861 5ebd
00000080: 1649 fcbc 50f1 47bd 6ce8 853d f949 60bd
00000090: affe 4ebd c112 00bd ae4a 2abd 321c 78bd
000000a0: 2255 733d 58e4 a93c 519c 93bd 2561 2b3d
000000b0: 30ca e53b 5bd5 acbd 14d0 15bd f60d 69bd
000000c0: 9d2a 9cbd ddf1 5fbd 446c 82bd ca0a 60bd
000000d0: 6c9b 8f3d a580 4ebc 2013 f5bd 8556 82bd
000000e0: e26a 09bd be4a b9bd 0995 9fbd 90fc 4c3d
000000f0: 696e 24bd 62fa 5fbd 6acd 443c 3eed 5ebd
00000100: 7c71 42bd f11a 313d 6a1b e03c c28b 763c
00000110: 35e0 a03d 86a1 94bc 0667 183d 306e f3bb
00000120: 9b58 6d3d 9782 babc 80b5 d8bb 2f5e 6ebd
00000130: c686 31bd 884b 4dbd a032 6b3d 2047 85bd
00000140: 5a28 debd cd74 78bd d2ee 213d 7e4c 9439
00000150: d476 da3d 7cfe 27bd 5480 883d 4afb 3abd
00000160: 1e4c b1ba 9b7c 443d f92b a3bb 5c7c 2f3d
00000170: 5c36 22bd 9485 5abd f562 163d a982 3b3d
00000180: 488c 443d b455 32bd 77c8 113d 7e01 863d
00000190: 7d70 c13c 96a9 a8bd 5f23 703d 545d fabb
000001a0: 8511 3dbd ac47 e03b 8b96 d93c b5e2 61bd
000001b0: 87eb b23c 941f 92bc ad1d 4bbd d523 29bd
000001c0: 9e3a 8bbd 5777 e3bd d311 b83c f8d1 123d
000001d0: 8034 b0bc 4052 19bd 5d15 3abd 9549 b03c
000001e0: d0ce 0bbc 2a0f f33c 2c4c f5bc 8aa5 80bd
000001f0: 89b1 f23c 31ea 94bd da7c 8fbd d6aa 0ebd
00000200: 038c 0f3d c2b9 07bd 8320 2d3d 48b6 9dbc
00000210: d1dc 773d cc7a 79bd f842 543d 1a3d 1b3d
00000220: 6f1d 723c 0774 c4bc 05bb e1bc d316 5fbc
00000230: 81a5 243d cf37 8438 fad5 85bd f94d cabd
00000240: 9311 1abd 573f 4f3c 235e 67bd 7151 6d3d
00000250: 8d4b 833d c243 25bc 9dcf 9fbd 98c2 2ebd
00000260: 4147 c5bb bf68 e23c 9151 1e3d 9356 9abd
00000270: 30a6 04bd 6a74 92bb fdec 033d bd42 9bbd
00000280: df93 7fbd c17f 303d 8254 e13c c40a 693d
00000290: 251f 9ebd 6409 493b 1b28 b03d 644b cfbc
000002a0: d935 22bd 09ad 31bd cb53 063c f0c7 3fbc
000002b0: 8920 27bb 05f6 953c 3693 f0bb 84b2 8dbd
000002c0: 1932 d63c 6bbe 243d 98a3 50bd c00b 983c
000002d0: 0009 113b efcc 9abd 9c8b 26bc 1377 35bd
000002e0: 0404 663c 6b37 8cbc 86d4 96bd 37e1 62bd
000002f0: f41d 6cbd a1a5 92bd 522e 94bc 3890 303a
00000300: 8f22 08bd 6061 183d 3503 4c3d 7475 a3bd
00000310: d728 8bbd be3e 563d 692e 85bd ca8e 62bd
00000320: 0969 87bd 9472 94bd 97cb b0bc aa6f 3f3d
00000330: 1501 473d 51bc 903d b2c4 8dbc 600c de3b
00000340: 4f48 38bc 1dc7 4bbd de24 a1bd 611f 11bd
00000350: 27f8 70bb 088e 13bd 68e7 84bd 18f1 04bd
00000360: ab94 c63b aaeb 2f3d 5dfd 40bd 16cc 3e3d
00000370: 3fda aebd 6f63 86bd fbbe 293d 1578 b4bd
00000380: c749 7a39 c4f0 88bd e296 973c ba33 6cbd
00000390: d45d 8c3c 82f0 003d 0e6a e43b 0156 0c3d
000003a0: 9720 c6bc 57c0 733d 8554 1a3d f609 ac3d
000003b0: 54e5 853d 1516 f2bc c3c2 4cbd eb39 1fbc
000003c0: e939 f5bc 5077 32bc 89a0 5dbc c535 87bd
000003d0: 6f33 cebc 40a3 933b 682c 11bc f71b cabb
000003e0: 6222 493c 9966 193d 803d 043c 023e 06bc
000003f0: 5185 7c3c 1d56 243d 343e c8bd 9aa0 773c
0.0012159063 -0.024415668 0.026646953 0.019310046 0.00954301 0.059823703 0.009659232 -0.0949398
0.041383293 -0.014262424 -0.011900399 -0.056695864 -0.071159266 -0.051580884 0.009153984 -0.047500823
-0.0029796371 0.040245015 -0.13541973 -0.007074278 -0.11366348 -0.029299805 0.02049572 -0.058015227
0.01347222 -0.004163384 -0.056436695 0.015625108 0.0010684029 -0.07022892 0.0998977 -0.054291874
-0.030796569 -0.048814118 0.065384716 -0.054758046 -0.050535854 -0.031267885 -0.041575126 -0.060573764
0.05940736 0.020738766 -0.07207549 0.04184069 0.007012628 -0.08439132 -0.036575392 -0.05689808
-0.07625315 -0.05467402 -0.06368306 -0.05469779 0.07012066 -0.012603913 -0.119665384 -0.063641585
-0.033549197 -0.09047459 -0.07792098 0.05004555 -0.040144358 -0.054682143 0.012011865 -0.05442547
-0.04747151 0.043238584 0.027356822 0.015047969 0.07855264 -0.018143427 0.037207626 -0.007428907
0.05794583 -0.022767348 -0.0066134334 -0.05819529 -0.04334142 -0.05012086 0.057421327 -0.06507707
-0.1084754 -0.060658265 0.039534397 0.0002828575 0.10667196 -0.04101418 0.06665102 -0.045649804
-0.0013526713 0.047970396 -0.004979607 0.042843208 -0.039602622 -0.053350046 0.036715467 0.045778904
0.047985345 -0.043538764 0.03559157 0.06543253 0.023613209 -0.08235471 0.058627483 -0.00764052
-0.046159286 0.0068444815 0.026561042 -0.055147845 0.021840824 -0.017837323 -0.049588848 -0.041293938
-0.0679829 -0.11106747 0.022469437 0.035844773 -0.021509409 -0.037431955 -0.04543053 0.021519462
-0.008533195 0.029670317 -0.029943548 -0.06281574 0.029625671 -0.07271231 -0.070062354 -0.03483089
0.035045635 -0.033136137 0.042267334 -0.019251958 0.06051332 -0.060908124 0.05182168 0.037900068
0.014777525 -0.023981107 -0.027554998 -0.013616282 0.0401969 6.304646e-05 -0.065349534 -0.09878153
-0.037614416 0.012649379 -0.05648626 0.057938997 0.064108945 -0.0100869555 -0.07803271 -0.042666048
-0.006020457 0.027637837 0.038652007 -0.07536044 -0.03238505 -0.004469444 0.03220843 -0.07581089
-0.06239688 0.043090586 0.027506117 0.056895033 -0.07720784 0.0030675763 0.086013995 -0.025304504
-0.039602134 -0.04337791 0.008198689 -0.011705384 -0.002550157 0.018305788 -0.0073417677 -0.06918815
0.026146935 0.04022066 -0.050937265 0.01856029 0.0022130609 -0.07558619 -0.010165121 -0.04430301
0.014039043 -0.01711627 -0.073647544 -0.055390563 -0.057645753 -0.071604975 -0.018088493 0.00067353575
-0.033236083 0.03720224 0.049807746 -0.07981387 -0.06794899 0.05230593 -0.06502993 -0.055311956
-0.06611831 -0.072484165 -0.021581454 0.04673735 0.048585016 0.070671685 -0.017305706 0.0067763776
-0.011247708 -0.049750436 -0.0786836 -0.035430316 -0.0036769004 -0.036024123 -0.0648945 -0.032456487
0.006060203 0.042949356 -0.047116626 0.04658135 -0.08537721 -0.06561934 0.0414419 -0.08811966
0.00023869342 -0.066865474 0.018504564 -0.057666518 0.017134584 0.031479366 0.0069706505 0.034261707
-0.024185462 0.0595096 0.03767826 0.084003374 0.065378815 -0.029551545 -0.049990427 -0.009718399
-0.02993484 -0.010892704 -0.013527044 -0.066020526 -0.02517101 0.004505545 -0.008860685 -0.0061678845
0.012276264 0.03745136 0.008071303 -0.008193495 0.0154126445 0.040121187 -0.09777489 0.015113974

predict.bias f4 [96]
00000000: ae2c d6bd 6837 01be d691 a2bd 8636 efbd
00000010: 6b02 30be a93b 8cbd 3993 1abe 5a0f 1fbe
00000020: 619d 05be 7f34 03be 1dd4 debd 6d9d 2ebe
00000030: e8ce b3bd 958b debd bef0 90bd 7ecf 2dbe
00000040: 5033 28be e24a 8bbd a1a4 f3bd fe28 16be
00000050: f51a 13be 0512 26be 0447 a7bd a490 97bd
00000060: e94a 86bd b2ac 18be 9502 21be fd3d d4bd
00000070: d362 92bd b7b0 0ebe accb a6bd 2509 1cbe
00000080: ae1a bfbd 1c79 c8bd 4567 27be c6b5 a8bd
00000090: 8b56 afbd d52d 36be dacf 35be 9245 2cbe
000000a0: fb6c c2bd cc40 00be 62b6 8fbd 99b4 4fbd
000000b0: a0f0 2abe 0c7a 24be dd9e 8bbd c6c9 29be
000000c0: 1c32 bebd 75dd 49bd 2bd1 dbbd 47cd 5cbd
000000d0: a5a4 dcbd c6e8 a9bd 79fd 28be 4e1e 86bd
000000e0: a586 37bd ccc4 d1bd 315d aebd 11e0 22be
000000f0: fe21 2fbe 2afa 2abe 508d 80bd 6a37 1bbe
00000100: 089d 8abd 744e e8bd 230c 88bd 1f9b 1bbe
00000110: 6536 38bd 198d c0bd 842c b4bd 2c79 24be
00000120: 4828 d5bd 36e7 b9bd 7e6d 85bd 8837 f3bd
00000130: e712 4dbd 7706 82bd fffe cfbd 9dd3 b1bd
00000140: 8abe dabd 93c0 efbd 43ea d9bd 8aca 06be
00000150: f0ee 13be 0ca3 05be c050 b0bd be39 c9bd
00000160: 7e5b 2ebd 8006 07be f63b 06be 9da8 31be
00000170: 4090 c0bd f3e5 e6bd fdd5 90bd 6523 b4bd
-0.10457741 -0.12618792 -0.07937972 -0.116803214 -0.17188422 -0.06847317 -0.15095223 -0.155332
-0.13048317 -0.12812994 -0.10880301 -0.1705224 -0.087796986 -0.10866467 -0.07077168 -0.16973683
-0.16425824 -0.06801392 -0.11896635 -0.14664075 -0.14365752 -0.16217811 -0.08167842 -0.07400635
-0.06557257 -0.14909628 -0.15723641 -0.10363386 -0.071477555 -0.13934599 -0.08144316 -0.15237863
-0.093312606 -0.09788725 -0.16347988 -0.082377955 -0.08561429 -0.17790921 -0.1775507 -0.16823414
-0.094934426 -0.12524718 -0.07017209 -0.05070934 -0.16693354 -0.16062182 -0.0681741 -0.16580877
-0.09286901 -0.049283464 -0.10733255 -0.053906705 -0.10773591 -0.08296351 -0.16502942 -0.06548749
-0.04480614 -0.10242614 -0.085138686 -0.15905787 -0.1710281 -0.16696993 -0.06276953 -0.15157858
-0.067682326 -0.11343089 -0.0664294 -0.15195893 -0.04497375 -0.09401912 -0.08797553 -0.16061848
-0.10408074 -0.09077303 -0.065150246 -0.11875826 -0.050066855 -0.06348889 -0.101560585 -0.0868294
-0.10680874 -0.117066525 -0.10640385 -0.131632 -0.14446616 -0.13050479 -0.08609152 -0.098254666
-0.042567722 -0.13186073 -0.13108811 -0.17349477 -0.094025135 -0.11274328 -0.07072065 -0.087958135
