Notebooks/2018-06-07_classification_BCELoss.pt (torch_old, 511993 bytes, 6 tensors)

hidden1.weight f4 [80, 1152]
0	0xbc00015d	-0.007812825
1	0xbc465e59	-0.012107455
2	0xbab1a990	-0.0013554562
3	0xbb755841	-0.0037436637
4	0x3baf3d81	0.005347908
5	0xba835bdc	-0.0010021883
6	0x3c9dc456	0.01925866
7	0x3bf2865f	0.007401272
8	0xbc913024	-0.01772315
9	0x3b2c65e6	0.0026305853
10	0x3ce9cf57	0.02854125
11	0xbc5c5db4	-0.013450075
12	0xbc962886	-0.01832987
13	0x3c4b55db	0.012410606
14	0x3ccd0387	0.025026096
15	0x3b2739b7	0.0025516578
16	0x3ca572fc	0.02019643
17	0x3b131071	0.002244022
18	0xbcf8fb48	-0.030393258
19	0x3c15012e	0.00909452
20	0xbc8c37c1	-0.01711643
21	0x3ce530ee	0.027977433
22	0x3b1819c7	0.0023208724
23	0xbba9d16b	-0.0051824353
24	0xbbe08e2e	-0.0068528866
25	0x3c335417	0.010945342
26	0xbc866a5e	-0.016408142
27	0x3c1bb2d9	0.00950309
28	0x3cc7d603	0.02439404
29	0x3cb1e902	0.021717552
30	0xbcb1ccd4	-0.021704115
31	0xbcae6bc8	-0.021291628
32	0xbc1fd60f	-0.009755625
33	0xbbba33ef	-0.0056824605
34	0x3cc993ad	0.02460655
35	0xbc059283	-0.008152607
36	0xbcd08d34	-0.025457956
37	0x3c42299f	0.011850744
38	0xbc49382b	-0.012281458
39	0x3c5e24c5	0.013558571
40	0xbcd85a6e	-0.026410308
41	0x3d0d079b	0.03443108
42	0xbb79007e	-0.0037994678
43	0xbc5fc47e	-0.013657687
44	0x3bb3738d	0.005476421
45	0xbbbe7ae6	-0.0058129905
46	0xbcd345c7	-0.025790108
47	0xbc920c41	-0.017828109
48	0xbc26f2e0	-0.010189742
49	0xbcb138ca	-0.021633524
50	0x3c087524	0.00832871
51	0x3c956077	0.018234475
52	0x3c658117	0.014007828
53	0xbca87e13	-0.02056793
54	0x3b372604	0.0027946243
55	0xbc68a283	-0.014198902
56	0x3b81c790	0.0039605573
57	0xbc9797f4	-0.018505074
58	0xbaad678f	-0.0013229715
59	0xbce4143e	-0.027841683
60	0xbc34ca79	-0.011034601
61	0x3cd4733b	0.025933852
62	0xbc7163a7	-0.014733232
63	0xbcd12611	-0.025530847
64	0x3ccf30a6	0.025291752
65	0xbbc4be25	-0.0060041123
66	0x3c924151	0.01785341
67	0x3ca81550	0.020517975
68	0xbcdacf62	-0.026710216
69	0x3c9eb297	0.019372268
70	0xbd1c6b7f	-0.038188454
71	0x3c3ac9c8	0.011400647
72	0x3c41358a	0.01179255
73	0xbc4161c3	-0.011803093
74	0xbce4adf2	-0.027914975
75	0xbb823307	-0.003973368
76	0x3c482e29	0.012218037
77	0x3ca17739	0.01971017
78	0xbb3e5d95	-0.0029047478
79	0x3ccca4b6	0.024980884
80	0x3c9c917e	0.019112345
81	0x3cb37b19	0.021909283
82	0x3b6ac0e6	0.0035820543
83	0xbb19e1c9	-0.0023480526
84	0xbc1b107a	-0.009464378
85	0xbb8220ab	-0.0039711795
86	0xbccd26e6	-0.025042962
87	0x3bd98242	0.0066378424
88	0x3c956147	0.018234862
89	0xbce0ce1a	-0.027442027
90	0x3ba84103	0.005134703
91	0x3ca5253d	0.020159358
92	0xbc8e5e87	-0.017379059
93	0x3a732caa	0.000927637
94	0xbbb49f2a	-0.005512138
95	0x3c958540	0.018252015
96	0x3b8601df	0.0040895785
97	0x3ba6861b	0.0050819046
98	0xbbfc879c	-0.0077065956
99	0xbc2b5615	-0.010457535
100	0x3bab3c47	0.0052256915
101	0xbc347538	-0.011014275
102	0x3cdc740f	0.02691081
103	0x3c64cac1	0.013964356
104	0xbc3df71b	-0.011594559
105	0xbbcdaa3c	-0.006276397
106	0x3bade488	0.005306784
107	0x3c9be65b	0.01903074
108	0xbc779159	-0.015110337
109	0xbc6a6ba6	-0.014307892
110	0xbd074e83	-0.03303386
111	0xbc8e4153	-0.017365133
112	0x3c6e9876	0.014562717
113	0x3cc84798	0.024448201
114	0x3c858d75	0.016302804
115	0x3c413abd	0.011793789
116	0x3ce781da	0.02826016
117	0x3c8dd7ae	0.017314758
118	0x3bb471b6	0.0055067195
119	0xbc9f2cbf	-0.019430516
120	0x3cd3dd44	0.025862344
121	0xbba8834c	-0.005142605
122	0xbc6db18b	-0.014507662
123	0x3c7a5e15	0.01528122
124	0xbc9a311d	-0.018822247
125	0xbc1c2697	-0.009530685
126	0x3c4415f0	0.011968121
127	0xbc6ef24c	-0.014584135
128	0x3cd9d1cf	0.026589302
129	0x3c97ced2	0.018531237
130	0x3c66dfcb	0.014091442
131	0xbbc14999	-0.005898666
132	0x3d0831b8	0.03325054
133	0xbc78a21a	-0.015175367
134	0xbc51ed4a	-0.012812922
135	0x3bde5ec3	0.006786199
136	0xbc819f77	-0.01582311
137	0x3c1a6db4	0.009425569
138	0x3ce503aa	0.027955849
139	0xbbd6d2c5	-0.0065558874
140	0xbcb87f4a	-0.022521634
141	0x3c404b6a	0.01173673
142	0xbcd7ccd5	-0.026342789
143	0xbc3e5450	-0.011616781
144	0xbbd34d83	-0.006448449
145	0x3ca9ab77	0.020711644
146	0xbcacf264	-0.021111675
147	0x3c29cb57	0.010363421
148	0x3cb0aa32	0.02156553
149	0x3cf99c91	0.030470164
150	0xbc27446d	-0.010209185
151	0xbc968582	-0.018374208
152	0xbc3630a9	-0.01112
153	0x3c0f1a58	0.008734308
154	0xbc3bedb1	-0.011470244
155	0xba3a8d76	-0.0007116416
156	0xbc066b71	-0.008204327
157	0x3b40100a	0.0029306435
158	0xb7696d31	-1.3913305e-05
159	0x3b629f78	0.0034579914
160	0xbc8675f6	-0.01641367
161	0x3c9de996	0.019276422
162	0x3c9fd565	0.019510934
163	0x3c4e891f	0.012605934
164	0x3cb774eb	0.022394618
165	0xbb170dc2	-0.0023048972
166	0xbc952ed5	-0.018210808
167	0xbc0b9cde	-0.008521287
168	0x3c7baaeb	0.015360574
169	0xbc104c57	-0.008807263
170	0xbc1092b6	-0.008824041
171	0xbbbe4e0c	-0.0058076438
172	0x38578146	5.138039e-05
173	0xba0e0f7f	-0.0005419179
174	0xbcbf6c25	-0.023366997
175	0x3afe0190	0.0019379128
176	0x3c5ef8e2	0.013609143
177	0x3b8954c6	0.004191014
178	0x3c7dac30	0.015482947
179	0x3badb328	0.005300898
180	0x3cb814b3	0.022470808
181	0xbc636f15	-0.0138814645
182	0xbc27289a	-0.010202551
183	0xbc375caf	-0.011191531
184	0xbc099ce6	-0.008399224
185	0x3c83e01f	0.01609808
186	0x3b16d8d6	0.0023017428
187	0x3c6eec07	0.0145826405
188	0x3b6ac1a9	0.0035820997
189	0x3c51b4f2	0.012799488
190	0x3cd3ed7a	0.025870074
191	0x3c3ad30b	0.011402856
192	0x3af424b1	0.0018626658
193	0xbcc924d4	-0.024553694
194	0xbc9c095d	-0.019047434
195	0xbb9f5b8e	-0.004863209
196	0xbb76fa0c	-0.003768566
197	0xbcc98b9e	-0.024602707
198	0xbbba5644	-0.005686553
199	0x39ee077e	0.0004540048
200	0xbb8d0ff6	-0.004304881
201	0x3bb72aab	0.005589803
202	0xbb22a934	-0.0024820091
203	0x3bc165e8	0.0059020407
204	0xbb97ceae	-0.0046327924
205	0x3c935860	0.017986476
206	0x3bdd50cd	0.006754017
207	0x3cb766ec	0.022387944
208	0x3bf0a98f	0.0073444317
209	0xbcd1a97e	-0.025593515
210	0xbbfe778b	-0.0077657155
211	0xbcd925f2	-0.026507352
212	0xbae1d7b0	-0.0017230418
213	0x3c1ab3da	0.009442294
214	0x3c35b0a3	0.011089477
215	0x3ccc200b	0.024917623
216	0x3cccba56	0.024991196
217	0x3c0d1d6b	0.008612971
218	0x3aa6c26b	0.0012722736
219	0xbc5381e2	-0.012909384
220	0x3c6530df	0.013988703
221	0x3c97470e	0.018466499
222	0xbc593715	-0.0132577615
223	0xbc4c42c1	-0.012467087
224	0xbc918107	-0.01776172
225	0xbcc484a4	-0.02398903
226	0xbced76d2	-0.028987322
227	0x3c6c57bd	0.014425215
228	0xba6a2d0e	-0.0008933105
229	0xbc8685d8	-0.016421244
230	0x3ca760dc	0.020431928
231	0xbc036662	-0.008020015
232	0xbc36a641	-0.011148036
233	0xbc9af034	-0.018913366
234	0x3cedc483	0.029024368
235	0x3c0a83fc	0.008454319
236	0x3c9c81d7	0.019104881
237	0xba69004b	-0.0008888288
238	0x3cb02e1f	0.021506367
239	0x3cb7854f	0.022402434
240	0x3ce38e56	0.027777832
241	0xbc6e3946	-0.014540022
242	0xbce064a9	-0.027391749
243	0x3c7e478e	0.01551999
244	0x3b8aed29	0.0042396975
245	0xbcbf796d	-0.02337333
246	0x3c9792e0	0.018502653
247	0x3b4855a3	0.0030568622
248	0x3b15d5ad	0.0022862956
249	0x3c6d5226	0.014484918
250	0x3c55893d	0.013033208
251	0x3c817ed9	0.015807556
252	0xbcdcf098	-0.026970193
253	0xbc496e5b	-0.012294377
254	0x3c187583	0.009305361
255	0x3b93876a	0.0045022266

hidden1.bias f4 [80]
0	0x3efac0d0	0.4897523
1	0x3d670dbb	0.05640958
2	0x3ef1f091	0.4725385
3	0x3ebb5698	0.36589503
4	0x3e85ff8a	0.26171523
5	0x3ee276f3	0.44231376
6	0x3e4498b4	0.19198877
7	0x3f598b9d	0.8497866
8	0x3eab2015	0.33422914
9	0x3d310308	0.04321578
10	0x3e775678	0.24154079
11	0x3e29dd66	0.16588363
12	0x3e8aa4be	0.27078813
13	0x3f80e12d	1.0068718
14	0x3e39488c	0.1809408
15	0xbea4ea48	-0.32209992
16	0x3e8a87a2	0.27056605
17	0x3e7193d6	0.23591551
18	0x3e97ee77	0.29674122
19	0x3eccaffa	0.3997801
20	0xbabd9979	-0.0014465294
21	0x3d4f6e2a	0.05064217
22	0xbb041cbd	-0.002015873
23	0x3eaa0238	0.33204818
24	0x3dc69a61	0.09697414
25	0x3f018b38	0.50603056
26	0x3e637863	0.22213893
27	0x3df9a72e	0.1219009
28	0x3e414120	0.188725
29	0xbde190fc	-0.11013982
30	0x3f401df0	0.7504568
31	0x3e3554c4	0.17708117
32	0x3e30577a	0.1722087
33	0xbd030952	-0.03199131
34	0x3da7c509	0.08191878
35	0x3e71582b	0.2356879
36	0x3e24b405	0.16084297
37	0x3ea368ee	0.31915992
38	0xba83db8a	-0.0010059935
39	0x3e367a7c	0.17820162
40	0x3d0cb1e6	0.034349345
41	0xbc8f53b5	-0.01749597
42	0x3edd3e44	0.43211567
43	0x3e973fd2	0.2954088
44	0x3f4b4672	0.79404366
45	0x3eaa7ed6	0.33299893
46	0x3f00764f	0.50180525
47	0x3e9dea78	0.30842948
48	0x3c39ad75	0.011332859
49	0xbd437403	-0.04771806
50	0xbd45e87d	-0.04831742
51	0x3ec70713	0.38872585
52	0xbd395d0b	-0.04525475
53	0x3e318f83	0.17339902
54	0x3ddf518a	0.10904224
55	0xbe090f2c	-0.13384694
56	0x3e241003	0.16021733
57	0x3eb412b8	0.3517053
58	0x3ea94f38	0.33068252
59	0x3d32b1d6	0.04362663
60	0x3f010a5c	0.5040643
61	0x3d3fb3fa	0.0468025
62	0x3e346f3a	0.17620555
63	0xbead2b68	-0.3382218
64	0x3e08cfc3	0.13360505
65	0x3e9a26e9	0.3010781
66	0x3f29cb8c	0.6632621
67	0x3ed10919	0.40827253
68	0x3ea7ea8f	0.32796142
69	0x3e450519	0.19240226
70	0x3f1e8586	0.6192249
71	0x3d00ceb8	0.031447142
72	0x3ee6931a	0.45034105
73	0x3d7804e5	0.060551543
74	0x3f807a7d	1.003738
75	0x3e05d479	0.13069333
76	0x3e91af8a	0.28454238
77	0x3ebcdf3b	0.3688906
78	0x3df2a632	0.118481055
79	0x3e1d881d	0.15383954

hidden2.weight f4 [200, 80]
0	0x3df74d13	0.120752476
1	0xbd5cd95f	-0.05391824
2	0x3ce290b2	0.027656887
3	0x3dc69f0c	0.096983045
4	0xbd38f8b1	-0.045159046
5	0x3d72e61f	0.05930149
6	0x3b654139	0.0034981503
7	0x3e4cc0f5	0.19995482
8	0x3e10282c	0.14077824
9	0x3d8a5b14	0.06755653
10	0x3dba33d1	0.090919144
11	0x3d737eff	0.059447285
12	0x3d13a9f0	0.036050737
13	0x3e8a2c5d	0.26986971
14	0x3dbe65b8	0.09296745
15	0xbd88e3e6	-0.06684093
16	0x3dc15770	0.094405055
17	0x3d37c986	0.044869922
18	0x3dff8985	0.12477402
19	0xbd076aca	-0.033060826
20	0x3c3f71be	0.011684833
21	0xbd448a97	-0.047983732
22	0xbd72d6b1	-0.059286777
23	0x3dedd705	0.11613277
24	0xbdca7f08	-0.098875105
25	0x3bcb6464	0.006207036
26	0xbd91dc41	-0.07122088
27	0x3d4eae20	0.050459027
28	0x3cb46a22	0.022023264
29	0xbd8dc77e	-0.06922816
30	0x3e0ddbe8	0.13853419
31	0x3d37afae	0.044845276
32	0x3d0af019	0.03392038
33	0xbd999bbe	-0.075004086
34	0x3dc3fd24	0.09569767
35	0x3d00fdf2	0.03149218
36	0xbc91d4f4	-0.01780174
37	0x3d321cc8	0.04348448
38	0xbd80a106	-0.06280713
39	0x3dcc282a	0.09968598
40	0xbcf97230	-0.030449957
41	0x3a1f9897	0.00060881063
42	0x3e14f61a	0.14547005
43	0x3d685994	0.056726053
44	0x3e3eef9f	0.18646096
45	0x3d7e1250	0.062029183
46	0x3e54b580	0.20772362
47	0xbc120395	-0.008911987
48	0xbdaf4f66	-0.08560066
49	0xbd5a7187	-0.053330924
50	0xbcbed410	-0.023294479
51	0x3de5b46a	0.11216052
52	0xbd3af9c7	-0.045648362
53	0xbd930448	-0.07178551
54	0x3af435e4	0.0018631783
55	0xbb009f2a	-0.001962612
56	0x3d86c449	0.06580407
57	0x3d185e6e	0.03719943
58	0x3d55a711	0.05216128
59	0xbcb0c15e	-0.02157658
60	0x3d0198b9	0.03163979
61	0xbd8855a8	-0.06656963
62	0x3da5f927	0.08104163
63	0xbcf68664	-0.03009338
64	0xbc8bcacf	-0.01706448
65	0x3d8ca389	0.06867129
66	0x3d2fd2e3	0.042925727
67	0x3dd1495c	0.1021907
68	0x3da83406	0.08213048
69	0x3d9af623	0.07566478
70	0x3daccead	0.08437858
71	0xbd8e9a32	-0.06963004
72	0xbdf38c63	-0.11892011
73	0xbd446347	-0.04794624
74	0x3e8b028d	0.27150384
75	0xbd96ca13	-0.07362761
76	0xbcfd9155	-0.030953089
77	0x3dd25dbb	0.10271784
78	0x3b2646b3	0.002537173
79	0xbcf7cb6a	-0.030248363
80	0x3d90bffd	0.07067869
81	0x3cd0f1fa	0.025506008
82	0xbda3091d	-0.079607226
83	0xbd3d8795	-0.04627188
84	0x3d71ecd2	0.05906374
85	0x3da60047	0.08105522
86	0x3c020396	0.007935425
87	0x3deda37c	0.11603448
88	0xbdaf224a	-0.08551462
89	0xbda22c37	-0.079185896
90	0xbd2c394c	-0.04204683
91	0xbd209250	-0.039202034
92	0x3db2e44c	0.087349504
93	0xbd7dd104	-0.06196691
94	0x3db4fff9	0.088378854
95	0xbd8400d5	-0.06445471
96	0xbc849056	-0.016182106
97	0xbd871b36	-0.06596987
98	0xbd387ffe	-0.045043938
99	0xbdd414bf	-0.103555195
100	0xbd6a4b6e	-0.05720084
101	0x3d37f614	0.044912413
102	0xbdd415da	-0.1035573
103	0x3da5154f	0.08060705
104	0x3d6cd114	0.05781658
105	0xbd6ec195	-0.058290083
106	0x3c3756de	0.011190144
107	0x3d0b8c0f	0.034069117
108	0x3d9d9b0d	0.07695589
109	0xbc6e5058	-0.014545523
110	0xbc8e3690	-0.017360002
111	0xbdb8097c	-0.08986184
112	0x3d270e19	0.04078493
113	0xbda36765	-0.07978705
114	0xbcde86c0	-0.027163863
115	0xbda08860	-0.078385115
116	0x3c9e7689	0.019343631
117	0xbdef534d	-0.1168581
118	0x3c054cee	0.008136017
119	0xbdd13884	-0.102158576
120	0xbd17a2f2	-0.03702063
121	0x3daada83	0.08342459
122	0x3d60c345	0.054873724
123	0x3d33f445	0.043934125
124	0x3d9e04be	0.07715748
125	0x3e0b3424	0.13594109
126	0xbcdb44fa	-0.026766289
127	0x3d1a011d	0.037598718
128	0x3d14ea31	0.036356155
129	0x3d6e54f4	0.058186486
130	0x3c3ccd32	0.011523532
131	0x3ddfe34b	0.109320246
132	0x3de6a9cc	0.11262855
133	0x3e0799bd	0.1324224
134	0xbd85820e	-0.065189466
135	0xbda2a451	-0.07941497
136	0x3c008cf3	0.007846105
137	0xbb713054	-0.0036802487
138	0xbd5ddfda	-0.05416856
139	0x3dad82e9	0.08472235
140	0xbd9e45e0	-0.07728171
141	0xbde9466b	-0.11390384
142	0x3c23054f	0.009949996
143	0xbdd371fd	-0.10324476
144	0xbd4f0c3e	-0.050548784
145	0xbdc10cf6	-0.094263
146	0x3dc70190	0.09717095
147	0xbd01ee50	-0.031721413
148	0x3bbe451f	0.0058065797
149	0xbb747b4b	-0.0037304934
150	0x3b0164fd	0.0019744032
151	0xbda9e20a	-0.08295067
152	0x3dbc989c	0.092087954
153	0x3ce2f27c	0.027703516
154	0xbd06a249	-0.03286961
155	0x3d713266	0.058885954
156	0xbd95bfef	-0.07311999
157	0x3defbafa	0.11705585
158	0x3dcec8a5	0.10096864
159	0xbdc3486f	-0.095353
160	0x3ddbd563	0.1073406
161	0x3bccc3e9	0.0062489402
162	0xbda41a94	-0.08012882
163	0xbdc817f9	-0.097701974
164	0x3c533f5e	0.012893526
165	0x3bc2364c	0.005926883
166	0xbcb1749a	-0.021662045
167	0x3d429f5e	0.047515266
168	0xbb92b049	-0.0044765812
169	0xbda45588	-0.08024126
170	0x3a90e4bb	0.0011054495
171	0xbde5fe30	-0.11230123
172	0xbd23293f	-0.039834257
173	0x3dbf5007	0.09341436
174	0xbcfb18a9	-0.030651407
175	0xbddcafca	-0.107757166
176	0x3d86dc7f	0.06585025
177	0x3c315f6b	0.010825972
178	0xbcbb7c7a	-0.022886503
179	0x3bdb750c	0.0066973027
180	0x3c64cb04	0.013964418
181	0x3ae604c7	0.0017549031
182	0xbd287e93	-0.041136336
183	0xbdd128bf	-0.1021285
184	0xbdbc9501	-0.09208108
185	0xbceb93f4	-0.028757073
186	0x3c83bfa4	0.016082592
187	0xbdbcebbf	-0.092246525
188	0x3d3c674e	0.045996957
189	0xbddc42fe	-0.10754965
190	0x3dc660ae	0.09686409
191	0x3d67a346	0.056552194
192	0xbd8343fd	-0.06409452
193	0xbd59f984	-0.053216472
194	0xbd3fe42e	-0.04684847
195	0x3d3030f7	0.043015447
196	0xbd308b01	-0.043101314
197	0x3dc9eee9	0.098600216
198	0xba1030f2	-0.00055004575
199	0x3d6b9d9d	0.05752336
200	0xb9f8a980	-0.00047428533
201	0xbd9fce50	-0.07803023
202	0xbd144b1a	-0.036204435
203	0x3d8d0f44	0.06887677
204	0x3c5b3c70	0.013381109
205	0x3db9ad06	0.09066205
206	0x3bc27490	0.0059343055
207	0xbd1df47e	-0.038563244
208	0x3d810795	0.06300274
209	0xbc0279d5	-0.007963617
210	0x3d8dfb17	0.06932657
211	0x3dd2fc43	0.10302021
212	0x3d5e0613	0.05420501
213	0xbdcc638a	-0.09979923
214	0xbd85ac28	-0.06526977
215	0x3bc4b681	0.0060032015
216	0xbde923cd	-0.113837816
217	0x3db8ca2a	0.09022935
218	0x3b3d49bf	0.0028883067
219	0x3db5b6fa	0.08872791
220	0x3d3468fd	0.044045437
221	0x3d9ffad5	0.07811514
222	0xbd7f3442	-0.062305696
223	0xbdc4b764	-0.096052915
224	0xba906f3e	-0.0011019481
225	0x3d24fc17	0.040279474
226	0xbc74c54c	-0.014939617
227	0x3d92c7be	0.07167004
228	0x3dc7c8de	0.09755109
229	0x3ced458e	0.02896383
230	0x3d2865ef	0.041112836
231	0xbcaca5e3	-0.021075195
232	0xbc1f3b31	-0.009718702
233	0x3d1271c4	0.035753027
234	0xbd036e33	-0.032087516
235	0xbd4377ff	-0.04772186
236	0x3cecfb89	0.028928535
237	0x3c882e33	0.016623592
238	0xbd38b66f	-0.045095857
239	0x3d614a5d	0.05500256
240	0x3dbf7a80	0.09349537
241	0xbd8a77fd	-0.06761167
242	0x3ca1f71c	0.019771151
243	0xbc111026	-0.008853948
244	0x3d3e62cb	0.046480935
245	0xbb9f854f	-0.0048681865
246	0x3d3519ea	0.044214167
247	0x3def6c87	0.11690622
248	0x3dd57998	0.10423583
249	0xbca58792	-0.020206247
250	0xbd09436e	-0.03351157
251	0xbb76f012	-0.0037679714
252	0xbbcda7d8	-0.006276112
253	0xbd9d4efa	-0.07681079
254	0x3d0447f7	0.032295194
255	0xbdfb1e26	-0.1226161

hidden2.bias f4 [200]
0	0x3f199553	0.59993476
1	0x3da698ee	0.08134638
2	0x3dc59ba9	0.096488304
3	0x3c94f377	0.0181825
4	0xbd032cbd	-0.032025088
5	0x3d962106	0.073305175
6	0xbd91a7d1	-0.071120866
7	0x3dea5ecd	0.11443863
8	0x3d2d87e2	0.042365916
9	0xbdbaae1b	-0.09115239
10	0x3e55735d	0.20844789
11	0xbd00712f	-0.03135794
12	0x3df6cec2	0.12051155
13	0xbb8d6637	-0.0043151635
14	0x3d766772	0.060157247
15	0xbd336b75	-0.04380365
16	0x3e811a01	0.25215152
17	0xbdc63130	-0.096773505
18	0x3ee5bfb5	0.44872823
19	0x3d8473d7	0.06467407
20	0x3e5641c7	0.2092353
21	0x3c9810db	0.018562725
22	0x3e906fa5	0.28210178
23	0x3dacb35c	0.084326476
24	0x3dce03b2	0.100592986
25	0x3e322ac4	0.17399126
26	0x3e62011b	0.22070734
27	0x3ebe74c7	0.3719847
28	0x3cae25f8	0.02125834
29	0x3bab6e0c	0.0052316245
30	0x3de24ec7	0.11050182
31	0xbdd70b89	-0.10500247
32	0xbd84d7fc	-0.06486508
33	0xbdd0b73b	-0.101911984
34	0xbda5ea81	-0.08101369
35	0x3cbfeefe	0.02342939
36	0x3e70ff98	0.23535001
37	0xbd9b1d97	-0.07574003
38	0x3cf6e7ff	0.030139921
39	0x3e5c8776	0.21536049
40	0x3c966167	0.018356992
41	0x3d83896e	0.06422697
42	0x3b95577f	0.0045575495
43	0x3d89a564	0.06720999
44	0x3dc5da43	0.09660771
45	0x3e46d9f6	0.19419083
46	0x3ea7968a	0.3273204
47	0x3ddcdab8	0.10783905
48	0x3e4048fe	0.18777844
49	0xbe1855b0	-0.14876437
50	0x3d813e0d	0.06310663
51	0x3d4bc036	0.049743854
52	0xbcb04cd5	-0.021521011
53	0xbd3b0940	-0.04566312
54	0x3e8f7534	0.28019106
55	0x3dc44a52	0.09584488
56	0x3e3bc3d1	0.18336417
57	0x3edbb4fe	0.42911524
58	0x3dbba7f8	0.09162897
59	0x3d19731b	0.03746329
60	0x3e297e0a	0.16551986
61	0x3e5d55b6	0.21614727
62	0xbcb02bbe	-0.021505233
63	0x3e309ba7	0.17246877
64	0x3eb5600f	0.3542485
65	0x3e183cfb	0.14867012
66	0x3eaf3020	0.34216404
67	0xbe0d8c9a	-0.13823166
68	0x3e1a3e95	0.15062936
69	0xbd0dd2cc	-0.03462486
70	0x3c085619	0.0083213085
71	0x3e5fc554	0.21852618
72	0xbd8f4ef7	-0.06997483
73	0x3ea33459	0.31875876
74	0x3d89b31c	0.067236155
75	0xbdacf79b	-0.084456645
76	0x3e7558ec	0.23959702
77	0xbcbe8476	-0.023256522
78	0xbbb0fa0e	-0.0054009026
79	0x3cfc7ebf	0.030822156
80	0x3ec0e666	0.3767578
81	0x3df82c73	0.12117853
82	0x3e06b607	0.13155375
83	0x3d636631	0.05551738
84	0x3e8e1c1c	0.2775582
85	0x3e19f4d3	0.150348
86	0x3e366fc3	0.17816071
87	0xbd041b90	-0.03225285
88	0x3daf07c6	0.085464045
89	0x3eed3a88	0.46333718
90	0x3d1d4e6c	0.038404867
91	0x3de8a090	0.1135875
92	0xbd655e28	-0.055997998
93	0x3e611bb4	0.21983224
94	0x3ccca527	0.024981095
95	0x3e82a603	0.25517282
96	0x3e939f6f	0.28832576
97	0xbd1defb4	-0.038558677
98	0xbbf30ae3	-0.0074170693
99	0x3c8b9f14	0.017043628
100	0x3c5799c7	0.013159222
101	0x3e167c91	0.14695956
102	0xbde564ba	-0.11200853
103	0x3c43c277	0.0119482195
104	0x3e057357	0.1303228
105	0xbd11b4ae	-0.0355727
106	0x3e74e9b4	0.23917276
107	0xbcce0a17	-0.025151296
108	0x3c4bfc8d	0.0124503495
109	0x3e5a0f21	0.21294834
110	0xbb520da6	-0.0032051592
111	0xbdb1efa0	-0.08688283
112	0xbd9e846a	-0.077401
113	0x3e3f4ac2	0.18680862
114	0x37d7bed3	2.5718857e-05
115	0x3d95482e	0.07289158
116	0x3d42b596	0.047536455
117	0x3e802096	0.2502486
118	0x3de180fb	0.11010929
119	0x3db95dbc	0.090510815
120	0xbd4e41fb	-0.050355893
121	0xbd70c5df	-0.058782455
122	0x3f0bd95a	0.5462853
123	0x3e6966fa	0.22793189
124	0xbe0255c2	-0.12728027
125	0x3db8684a	0.090042666
126	0xbd99f491	-0.075173505
127	0x3e092889	0.13394369
128	0x3d4b5e45	0.04965045
129	0x3e900a99	0.28133085
130	0xbe04f134	-0.12982637
131	0x3ccfc1af	0.02536091
132	0xbc1d1963	-0.009588572
133	0xbd23c05a	-0.039978363
134	0x3e1c09a3	0.15238051
135	0x3da7b1d8	0.08188218
136	0x3dc68b36	0.09694521
137	0xbde41e6d	-0.11138616
138	0xbd44067b	-0.047857743
139	0x3db41395	0.087927975
140	0x3d6ba998	0.057534784
141	0xbd21e886	-0.039528392
142	0x3c20d06c	0.009815317
143	0x3f0777bd	0.5291708
144	0xbd2f4f74	-0.04280038
145	0x3e6333cb	0.22187726
146	0x3cbb5fc2	0.02287281
147	0x3d994f31	0.07485808
148	0x3e14f2a3	0.14545684
149	0x3d2d969e	0.042379968
150	0x3edabfa0	0.42724323
151	0x3d40babc	0.047053084
152	0x3d76251b	0.06009398
153	0xbcfe7fd3	-0.03106681
154	0x3e1ffb48	0.156232
155	0x3d19427f	0.03741693
156	0xbce58f28	-0.028022364
157	0x3db7a587	0.08967119
158	0x3e1ccc4f	0.15312313
159	0x3de6f75e	0.1127765
160	0xbd76352b	-0.0601093
161	0x3df95a9d	0.12175486
162	0xbd553a52	-0.05205757
163	0xbdb3d52a	-0.08780892
164	0x3e0cf8fa	0.13766852
165	0x3e69d9b3	0.22836952
166	0x3d6a7b2f	0.057246383
167	0x3e3d193f	0.18466662
168	0x3de111e2	0.10989739
169	0x3e023845	0.12716778
170	0x3b2a514f	0.0025988405
171	0xbda1288c	-0.07869062
172	0xbc4282ae	-0.011871977
173	0x3e190718	0.14944112
174	0x3e3c5575	0.18391974
175	0xbd5a2322	-0.05325616
176	0xbb682079	-0.0035419746
177	0x3e828db3	0.25498733
178	0x3e6d0633	0.23146896
179	0x3df6e475	0.120552935
180	0x3b6cbcb5	0.003612322
181	0x3e2aebe7	0.16691552
182	0xbda83055	-0.082123436
183	0x3e2c4340	0.16822529
184	0x3e7bfa65	0.24607237
185	0xbda8c7aa	-0.08241208
186	0x3e563b3f	0.20921038
187	0x3e05cf7e	0.13067433
188	0x3d97069a	0.07374306
189	0x3e60237d	0.21888538
190	0xbd6b8820	-0.057502866
191	0xbddf81df	-0.10913443
192	0x3c55e5f2	0.0130553115
193	0x3e12813a	0.14307109
194	0x3cf5bcee	0.029997315
195	0x3d61dc7a	0.055141903
196	0x3e91795f	0.2841291
197	0x3cf920b6	0.030411106
198	0x3ec2bf33	0.38036498
199	0x3e9d4b8d	0.30721703

predict.weight f4 [96, 200]
0	0xbc6bd9ce	-0.01439519
1	0xbd545267	-0.051836397
2	0x3d119d89	0.035550628
3	0x3c303231	0.010754154
4	0x3cb3c78d	0.02194574
5	0x3e27d210	0.16388726
6	0xbd35c9f0	-0.044382036
7	0xbe14ac5f	-0.1451888
8	0x3d9e926f	0.07742774
9	0xbce1b005	-0.027549753
10	0xbd307dd5	-0.043088753
11	0xbce9378d	-0.028468871
12	0xbdab5419	-0.0836565
13	0xbd1ac845	-0.03778865
14	0x3c811d7f	0.015761135
15	0xbcef9382	-0.029245142
16	0x3d04352e	0.03227728
17	0x3d2a5580	0.041585445
18	0xbe25680c	-0.16152972
19	0x3bab8bc5	0.0052351677
20	0xbe26ce16	-0.16289553
21	0xbc595443	-0.013264718
22	0x3c6a6c5e	0.014308063
23	0xbd94a880	-0.07258701
24	0x3d021efe	0.031767838
25	0xbc76f97d	-0.015074131
26	0xbd21555b	-0.039388042
27	0x3a5156aa	0.0007985631
28	0xbc5f4c9c	-0.013629105
29	0xbd979f65	-0.07403449
30	0x3e118230	0.14209819
31	0xbd21c5b4	-0.039495185
32	0xbd1d94fe	-0.03847217
33	0xbd48de6f	-0.049040254
34	0x3d94203a	0.07232709
35	0xbbe3c184	-0.006950559
36	0x3a3faada	0.00073115306
37	0xbd04cd38	-0.032422274
38	0xbd1f319f	-0.03886568
39	0xbd8aaa68	-0.06770784
40	0x3da9612e	0.08270489
41	0x3c738933	0.014864254
42	0xbd4e0563	-0.050298106
43	0x3cf30746	0.029666554
44	0xbc1f37fc	-0.009717938
45	0xbd8f1338	-0.069860876
46	0xbdd16207	-0.10223775
47	0xbdb656d8	-0.08903283
48	0xbd8c56c2	-0.06852485
49	0xbb936499	-0.004498076
50	0xbd7cc9de	-0.061715953
51	0xbd34de6f	-0.04415744
52	0x3d9658dc	0.07341167
53	0xbc0ebc9f	-0.008711963
54	0xbe410f3c	-0.18853468
55	0xbd846695	-0.064648785
56	0xbd886a7e	-0.06660937
57	0xbe036c0f	-0.1283419
58	0xbdaa5afd	-0.08318136
59	0x3d643944	0.055718675
60	0xbd9126cd	-0.07087479
61	0xbd4aed17	-0.049542513
62	0x3c904f0b	0.017615816
63	0xbd8941c6	-0.067019984
64	0xbd9ac08b	-0.07556256
65	0x3cea0632	0.028567407
66	0x3d5a6a45	0.053324003
67	0x3d020433	0.031742286
68	0x3e0826f8	0.13296115
69	0xbc9290e0	-0.017891347
70	0x3d308396	0.04309424
71	0xbd686276	-0.056734525
72	0x3d9f893c	0.07789847
73	0x3daf1db7	0.085505895
74	0x3d89b283	0.067235015
75	0xbd9f5d26	-0.077814385
76	0xbdb16fc2	-0.08663894
77	0xbd4118b0	-0.047142684
78	0x3d462dd3	0.048383545
79	0xbe0bc436	-0.13649067
80	0xbe4b6a4e	-0.19864771
81	0xbceeb3ab	-0.029138407
82	0x3d2c81c9	0.04211596
83	0x3d25fa7d	0.040522087
84	0x3e331b4b	0.1749088
85	0xbce142b2	-0.027497623
86	0x3dfd83a3	0.12378623
87	0xbd993943	-0.07481625
88	0x3c5075b0	0.012723371
89	0x3d5c888b	0.053841155
90	0xbba79706	-0.005114439
91	0x3d3b5ff3	0.0457458
92	0xbd083188	-0.03325036
93	0xbd04b33e	-0.0323975
94	0x3d5b393f	0.05352139
95	0x3d5797d0	0.052635014
96	0x3cde0391	0.02710131
97	0xbd251cc0	-0.04031062
98	0x3d115424	0.035480633
99	0x3dcf1527	0.10111456
100	0x3d3ca272	0.046053357
101	0xbe0c82ab	-0.13721721
102	0x3d97b94e	0.07408391
103	0xbc1068fa	-0.008814091
104	0xbc966b72	-0.01836178
105	0x3c90377b	0.01760458
106	0x3d9ff31b	0.078100406
107	0xbd5f2423	-0.054477822
108	0x3cf85128	0.030312136
109	0xbccd6dca	-0.025076766
110	0xbdaa6903	-0.08320811
111	0xbd2189ee	-0.03943818
112	0xbd62008c	-0.055176303
113	0xbe268215	-0.1626056
114	0x3b9482af	0.0045321803
115	0x3d4ce448	0.050022393
116	0xbcb37000	-0.021903992
117	0x3d5ee573	0.05441804
118	0xbd2c3885	-0.04204609
119	0x3e003572	0.12520388
120	0xbca94267	-0.020661546
121	0x3d070cb0	0.032971084
122	0xbcf2a9ea	-0.029622037
123	0xbd680364	-0.05664386
124	0x3d5529d5	0.052041847
125	0xbdb7650c	-0.0895482
126	0xbd408272	-0.046999402
127	0xbcedd246	-0.02903093
128	0x3d4e44da	0.05035863
129	0xbd10dab8	-0.035364836
130	0x3d342860	0.043983817
131	0xbc81c404	-0.015840538
132	0x3d801df0	0.0625571
133	0xbd5b0745	-0.05347373
134	0x3d575798	0.05257377
135	0x3d12fa82	0.035883434
136	0x3a151ff5	0.0005688661
137	0xbb4810f9	-0.0030527695
138	0xbd2024cb	-0.03909759
139	0x3cbad651	0.022807272
140	0x3d989b34	0.07451478
141	0x3b9ea0a4	0.004840927
142	0xbd96f00b	-0.07370003
143	0xbddd4e32	-0.1080593
144	0xbd2cfd8f	-0.042234
145	0x3cef7922	0.029232565
146	0xbd74cc74	-0.059765294
147	0x3c9bc188	0.019013181
148	0x3d981b1d	0.074270464
149	0xbbfc1c84	-0.007693829
150	0xbda3afea	-0.07992537
151	0xbd3e2681	-0.04642344
152	0xbbe4aea0	-0.0069788247
153	0x3d071d65	0.032987017
154	0xb991f221	-0.00027836955
155	0xbdd506f0	-0.10401714
156	0xbcaceccc	-0.021109007
157	0x3c5f022c	0.013611358
158	0x3cf75dc5	0.03019608
159	0xbdc1303a	-0.094330266
160	0xbd673e21	-0.056455735
161	0x3d0f36af	0.03496426
162	0x3d4cffdb	0.05004869
163	0x3d8b4a41	0.06801272
164	0xbdd42b57	-0.10359829
165	0x3aa2ea61	0.001242947
166	0x3dffd3b8	0.12491554
167	0xbd256b86	-0.040385745
168	0xbd562b59	-0.052287433
169	0xbca23817	-0.019802136
170	0xbd05d7bc	-0.032676443
171	0xbc73cfc2	-0.014881076
172	0xbbea3f39	-0.00714865
173	0xbb3b3aa0	-0.0028568879
174	0xbb09ad35	-0.002100778
175	0xbd6bcef7	-0.057570424
176	0x3d06e622	0.032934316
177	0x3d7efce2	0.062252887
178	0x3ca0accd	0.019613648
179	0x3c84abdf	0.016195236
180	0x3d2c1d3d	0.04202007
181	0xbd5fc037	-0.05462667
182	0x3bc32029	0.0059547615
183	0xbd43c5a8	-0.04779592
184	0x3daa806e	0.08325277
185	0xbc8a28ef	-0.016865222
186	0xbe16db63	-0.14732127
187	0xbd618f3d	-0.055068243
188	0xbd138c48	-0.036022455
189	0xbd317725	-0.043326516
190	0xbb524878	-0.0032086652
191	0x3cb4f8be	0.022091266
192	0xbc76f57a	-0.015073175
193	0x3d86b5dd	0.065776564
194	0x3d620ad9	0.055186126
195	0xbdaed099	-0.085358806
196	0xbd1e288c	-0.038612887
197	0x3d2ab53b	0.04167674
198	0xbdb30295	-0.08740727
199	0xbd88ccf1	-0.066797145
200	0xbd87d5c4	-0.066325694
201	0xbdb415b9	-0.08793206
202	0xbc822f05	-0.015891561
203	0x3d029f2b	0.031890076
204	0x3d850234	0.06494561
205	0x3e001f1b	0.12511866
206	0xbc993f16	-0.01870684
207	0xbc8e04ea	-0.017336328
208	0xbcbc5b95	-0.022992888
209	0xbd798e08	-0.060926467
210	0xbdd74196	-0.105105564
211	0xbcbd15d2	-0.023081694
212	0xbd0e15fe	-0.034688942
213	0xbd05d646	-0.03267505
214	0xbda14f77	-0.07876485
215	0xbcb88fe6	-0.022529554
216	0x3c44fb07	0.01202274
217	0x3d34b367	0.044116404
218	0xbd9b7082	-0.075898185
219	0x3cefd13f	0.029274581
220	0xbdb5fa33	-0.08885612
221	0xbda45961	-0.0802486
222	0x3d3e612c	0.04647939
223	0xbde45e5d	-0.11150811
224	0x3d734906	0.059395812
225	0xbdc61c39	-0.09673352
226	0x3d351280	0.044207096
227	0xbc83f192	-0.0161064
228	0x3b95d299	0.0045722243
229	0x3ae74230	0.0017643627
230	0x3cc2df63	0.02378816
231	0x3d2ee01d	0.0426942
232	0xbcbc17a6	-0.022960495
233	0x3d720b66	0.0590929
234	0x3d354e36	0.04426404
235	0x3e288db4	0.16460305
236	0x3e031a21	0.12802936
237	0xbbf0ae8f	-0.0073450278
238	0xbd19f7bc	-0.037589774
239	0xbd8e62b6	-0.06952421
240	0xbc509aaf	-0.012732192
241	0x3b247a09	0.0025097153
242	0xbcf597bc	-0.02997958
243	0xbd002bbc	-0.03129171
244	0xbd675047	-0.056473043
245	0xbca93335	-0.0206543
246	0xbd3dd560	-0.04634607
247	0xbc192fc2	-0.009349765
248	0x3ab8fc54	0.0014113286
249	0x3d64b161	0.055833224
250	0x3bfd8b81	0.0077375774
251	0xbce1fe9c	-0.027587228
252	0x3c9716e5	0.018443534
253	0x3d935f7b	0.07195946
254	0xbe157071	-0.14593674
255	0x3b6bf7ac	0.0036005778

predict.bias f4 [96]
0	0xbde19bc4	-0.11016038
1	0xbe078daf	-0.13237642
2	0xbdb9e0b1	-0.090760596
3	0xbe05f116	-0.13080248
4	0xbe42b4cb	-0.1901428
5	0xbdb2504b	-0.08706721
6	0xbe2e13d3	-0.1699975
7	0xbe2f163e	-0.17098328
8	0xbe0d82d0	-0.13819432
9	0xbe085684	-0.13314253
10	0xbdf81083	-0.12112524
11	0xbe38e3b6	-0.18055615
12	0xbddb7ae2	-0.107167974
13	0xbdfb9ed5	-0.12286154
14	0xbdb3b550	-0.08774817
15	0xbe3b6f69	-0.18304218
16	0xbe29ace7	-0.16569863
17	0xbd993519	-0.07480831
18	0xbe088841	-0.13333227
19	0xbe2a3909	-0.1662332
20	0xbe219b6a	-0.15781942
21	0xbe3a603e	-0.18200776
22	0xbdd295b9	-0.102824636
23	0xbdb3c0c8	-0.087770045
24	0xbd81c977	-0.063372545
25	0xbe1f7e59	-0.15575542
26	0xbe3234bc	-0.17402929
27	0xbe01dd98	-0.12682188
28	0xbdb5841e	-0.0886309
29	0xbe1fec8d	-0.1561758
30	0xbdca9838	-0.09892315
31	0xbe301f54	-0.1719945
32	0xbdb2e6f8	-0.0873546
33	0xbdda1a35	-0.1064953
34	0xbe318b60	-0.17338324
35	0xbdcea8d0	-0.10090792
36	0xbddb5320	-0.10709214
37	0xbe4e89e0	-0.20169783
38	0xbe4a8a74	-0.19779378
39	0xbe407e1f	-0.18798111
40	0xbdc04157	-0.093874626
41	0xbe097504	-0.13423544
42	0xbda27271	-0.07931984
43	0xbd875a37	-0.06609004
44	0xbe448add	-0.19193597
45	0xbe356128	-0.17712843
46	0xbdaa9cb7	-0.08330672
47	0xbe3fa53f	-0.1871538
48	0xbdbff89c	-0.0937359
49	0xbd69c0e6	-0.057068728
50	0xbdfe4cc9	-0.12416989
51	0xbd8b197a	-0.06791969
52	0xbe00be99	-0.12572707
53	0xbdcdd7cd	-0.10050926
54	0xbe3a2b16	-0.18180498
55	0xbd9d05d2	-0.07667126
56	0xbd4f4b82	-0.05060912
57	0xbde86163	-0.113467
58	0xbdc93953	-0.09825387
59	0xbe399846	-0.18124494
60	0xbe42edad	-0.19035979
61	0xbe3f8092	-0.1870139
62	0xbda17cd8	-0.0788514
63	0xbe2cb042	-0.16864112
64	0xbd956a9f	-0.07295727
65	0xbdfef20a	-0.12448509
66	0xbda377ce	-0.07981835
67	0xbe2a4d5b	-0.16631071
68	0xbd719192	-0.058976717
69	0xbde7a304	-0.1131039
70	0xbdd19017	-0.10232561
71	0xbe2d3f46	-0.16918668
72	0xbde04435	-0.109505095
73	0xbdcbf1eb	-0.099582516
74	0xbd995dec	-0.07488617
75	0xbe099ddd	-0.13439126
76	0xbd8896de	-0.06669401
77	0xbda88c2c	-0.08229861
78	0xbdf622de	-0.12018369
79	0xbdcf2262	-0.1011398
80	0xbdcd4541	-0.10022975
81	0xbdf2ca9a	-0.118550494
82	0xbdf22809	-0.11824042
83	0xbe10416c	-0.14087456
84	0xbe2894dc	-0.16463035
85	0xbe19c5a8	-0.15016806
86	0xbdd29516	-0.10282342
87	0xbdee1c69	-0.116265126
88	0xbd0e5b48	-0.03475502
89	0xbe0aff5f	-0.13573979
90	0xbe0ce24c	-0.137582
91	0xbe400453	-0.1875165
92	0xbde1e10c	-0.110292524
93	0xbe068e6e	-0.1314027
94	0xbdaa01c4	-0.08301118
95	0xbdd03574	-0.101664454
