Notebooks/2018-06-07_classification_BCELoss.pt (torch_old, 511993 bytes, 6 tensors)

hidden1.weight f4 [80, 1152]
00000000: ab5b f9bb eaca 44bc 0e45 1cba a675 7ebb
00000010: 6eea 553b 9b8d f2ba c94c b53c 968b 1e3c
00000020: f30e bdbc 542e 9a3b 1d13 f83c e9e0 4cbc
00000030: 17dc 63bc b3db 473c bd39 c73c bf55 c4ba
00000040: bf6a a93c f469 1a3b 8734 fcbc 973f 033c
00000050: d216 92bc b2b8 e13c 4343 b03a 2385 89bb
00000060: 6d49 acbb b9d1 3c3c 6b16 90bc f360 053c
00000070: 2912 da3c 15d5 d13c fa48 a0bc 8554 9fbc
00000080: 634a 1dbc 8b97 cbbb 6974 c83c 587e f3bb
00000090: 0542 cfbc 13cf 373c 1035 3fbc 0aeb 773c
000000a0: 74a2 dabc e723 0c3d 9838 a0bb 4646 53bc
000000b0: 3b66 683b 115c fcbb 70f8 d3bc 5cb4 9fbc
000000c0: 8a8a 2cbc 403e b2bc ab89 073c eb1c 873c
000000d0: 24e3 473c 5814 acbc c7a1 9a3b 56b4 5ebc
000000e0: cffa 973b 3980 9abc 5853 3dbb f023 e2bc
000000f0: 7a1d 1ebc 945c dc3c 0c8b 7ebc 7e8f c9bc
00000100: d394 cf3c e7f1 e5bb 826d 8f3c a025 b33c
00000110: 452f ddbc 0e71 b73c 55fd 13bd bb88 2c3c
00000120: 3d0c 403c 8539 56bc 7e5a dbbc 27c5 40bb
00000130: e0d6 493c 6794 a03c 1466 ffba 5bb3 b73c
00000140: 83a2 9d3c ea8a bf3c 0f26 9b3b b1b1 82bb
00000150: 9089 14bc 6f5b acbb cd70 d3bc 2539 183c
00000160: a699 a23c 43b2 eabc 3a95 cf3b 85a1 b73c
00000170: 7b37 a7bc e48f cfba 326b 86bb 04cb ae3c
00000180: cad8 103b 1623 d13b 9df8 cbbb 42b5 52bc
00000190: 0d86 743b f66a 42bc 94bc ed3c 778d 8e3c
000001a0: cf91 0ebc 21a6 03bc 4dc3 373b 36e7 bc3c
000001b0: eb7f 48bc 4ad9 94bc 1125 00bd 7aac 66bc
000001c0: a980 703c afa2 d73c d91e 6e3c 577f 433c
000001d0: 3d89 ea3c 7364 a73c 1785 753b f228 a1bc
000001e0: e0e6 c63c 52ea 01bc f2be 35bc 9271 743c
000001f0: 3b94 adbc 18e2 82bc 75fd 543c 36c3 97bc
00000200: a5a8 d73c 5d7a 9a3c 5e43 673c b3ee 97bb
00000210: 6e6b 023d f14a 88bc 7d9a 70bc 16dd cd3b
00000220: 4128 84bc 31c8 353c 6fde e43c 93a5 bdbb
00000230: 5e65 abbc a349 773c dac7 d0bc ee44 24bc
00000240: dd0a a3bb 8291 b33c dcaf c3bc 4b72 eb3b
00000250: 8b8d c53c 21a2 fe3c e28c 65bc a89f a3bc
00000260: 8093 0ebc 5734 1e3c 6da3 74bc ed5a 2fba
00000270: 5f4d ecbb fdf2 bd3a 0c39 28ba 3833 6b3b
00000280: 4188 a1bc b73f ab3c 3f19 a73c 7b4b 723c
00000290: b410 b03c b63b de3a 21af a8bc 4f86 3cbc
000002a0: 0bd9 833c 3c2f 0ebc 14d7 20bc e25d 1bbc
000002b0: 09de 1c3a 781e 18bb 670d aebc 54aa 123b
000002c0: 81e2 653c d6b2 833b 856f 8f3c 7f1c 643b
000002d0: 27bc b13c a294 9cbc 1536 c0bb c35c f4bb
000002e0: 7ae6 23bc 442b 113c 7fbf 7a3b 72ea 773c
000002f0: 368b af3b 27f1 6a3c 784f cc3c 1f20 fc3b
00000300: 8d7d 103b f48a cfbc dae1 a7bc 138f c8bb
00000310: 8970 9fbb 65b2 cdbc d87a 69bb c768 2e3a
00000320: 41a2 a5bb b6e1 fc3b 7dcb a7bb dda3 e23b
00000330: 9a34 1dbb eb46 ae3c 21aa bc3b 25f9 a23c
00000340: 7e18 fa3b 4e0d d6bc 43d5 10bc 7980 e5bc
00000350: 6c94 4abb c96f 393c 15a7 5a3c fa32 d93c
00000360: 2d1a cb3c c051 3e3c 247d a73a 02c0 40bc
00000370: 476e 883c ff8a 913c ddf9 5dbc b01f 70bc
00000380: 32ff 8dbc f3d5 ccbc 09ec e6bc 344c 433c
00000390: 6795 33bb 451e 82bc ed89 913c 7375 d7bb
000003a0: 2366 72bc 04ca aebc d31a d73c 72f9 1b3c
000003b0: 0087 a03c e151 52b9 9d39 b43c 9d46 b73c
000003c0: f747 e63c 56d4 64bc 7d41 d9bc 175d 903c
000003d0: ecbd a93b e39c e7bc 651d c33c 7ecf dc3a
000003e0: de39 df3a 3ef5 723c 7bb6 643c 89b8 5f3c
000003f0: 3de1 debc 4cb7 4dbc e1c7 213c 994d aa3b
-0.0076098046 -0.012011269 -0.00059612177 -0.0038827448 0.0032640952 -0.0018505336 0.02213134 0.009676835
-0.023078417 0.00470523 0.030282551 -0.012504795 -0.013907454 0.0121983765 0.024319524 -0.0014979168
0.020680783 0.0023561688 -0.030786766 0.0080107665 -0.017833147 0.02755389 0.001344778 -0.0041967793
-0.0052577765 0.011524611 -0.017588815 0.00814079 0.026619988 0.0256143 -0.019566048 -0.019449482
-0.009600255 -0.0062131337 0.024469571 -0.007430833 -0.025300035 0.011218804 -0.011670366 0.015131721
-0.026688792 0.034213927 -0.004889559 -0.012895172 0.0035461325 -0.007701405 -0.0258753 -0.019495182
-0.010531077 -0.021758199 0.008272569 0.016493281 0.012200151 -0.021005794 0.0047189924 -0.0135928
0.004638053 -0.01885997 -0.0028888788 -0.027605027 -0.009650582 0.026899613 -0.015536081 -0.024604555
0.02533952 -0.0070173624 0.017508272 0.021868527 -0.027000079 0.022392776 -0.036130268 0.010530646
0.011721668 -0.013075237 -0.026776548 -0.0029414387 0.012319297 0.019602014 -0.0019485378 0.02242439
0.01924253 0.02338167 0.0047347615 -0.0039884676 -0.009066001 -0.005259923 -0.025810624 0.009290968
0.019848656 -0.028649455 0.006334928 0.022415886 -0.020412197 -0.001583573 -0.004102134 0.02133704
0.0022101873 0.0063823564 -0.0062247054 -0.012860598 0.0037311346 -0.011866322 0.029020585 0.01740144
-0.008701756 -0.008035214 0.0028039992 0.023059469 -0.012237529 -0.018170018 -0.03128535 -0.014079208
0.0146791125 0.02632269 0.014533722 0.011932216 0.028629893 0.02043364 0.003746336 -0.019672845
0.024280012 -0.0079294015 -0.011092888 0.014919655 -0.021188846 -0.01597695 0.012999882 -0.018525701
0.026325533 0.018857175 0.014115183 -0.0046366095 0.031840734 -0.016637297 -0.01468527 0.006282459
-0.016132476 0.011095093 0.027938096 -0.0057875603 -0.02092236 0.01509324 -0.025485922 -0.0100262
-0.0049756602 0.02191997 -0.023887567 0.0071852556 0.024115345 0.031083168 -0.01401064 -0.019973591
-0.008702159 0.0096560335 -0.014931542 -0.0006689269 -0.007211372 0.0014491972 -0.0006417192 0.0035888683
-0.019718291 0.020904405 0.02039778 0.014788504 0.02149234 0.0016955051 -0.02059132 -0.011506631
0.016094705 -0.008678254 -0.009816904 -0.009482833 0.00059840136 -0.002321152 -0.021246625 0.0022379356
0.0140310535 0.0040191216 0.017509231 0.0034807024 0.021696163 -0.019113842 -0.005865822 -0.007457347
-0.01000368 0.008860413 0.0038261113 0.01513158 0.0053571714 0.014339722 0.024940237 0.007694259
0.002204749 -0.025334813 -0.020493437 -0.0061205714 -0.00486571 -0.02510948 -0.00356262 0.0006653186
-0.0050547426 0.0077173365 -0.0051206932 0.0069165067 -0.0023987652 0.02127405 0.0057575856 0.019894192
0.007632314 -0.026129391 -0.008839908 -0.028015362 -0.003091122 0.011318156 0.0133454995 0.026513565
0.024792755 0.01161617 0.0012778384 -0.011764528 0.016654147 0.017766474 -0.013548342 -0.014655992
-0.0173336 -0.025004363 -0.028188722 0.011920024 -0.0027402283 -0.015883574 0.017765963 -0.0065752803
-0.014794859 -0.021336563 0.026257908 0.009519922 0.019595623 -0.00020057663 0.022000128 0.022372538
0.028110487 -0.01396664 -0.026520485 0.017622514 0.005180111 -0.028273052 0.023817727 0.0016846505
0.0017030796 0.014828978 0.013959522 0.013654836 -0.027207011 -0.012555908 0.009874315 0.0051972386

hidden1.bias f4 [80]
00000000: e128 e43e f0a1 2e3d 0448 e73e 85bd a73e
00000010: 6ea0 743e 638b d23e eb5f 383e 93eb 483f
00000020: 6104 a33e 3596 ca3c fbbb 7a3e 3c6f 1b3e
00000030: 1fa4 863e d4b5 6b3f b1a3 3e3e 3a83 95be
00000040: 9564 793e df64 6b3e 6659 923e 4820 be3e
00000050: d254 d6bb f369 3c3d 009b 923c 18d9 8f3e
00000060: 9a93 b73d 6cd3 e63e c295 523e 2878 d83d
00000070: 74a9 443e 5e9a e9bd b819 353f 52aa 203e
00000080: c49a 253e 61ef 08bd 8137 a33d bb60 643e
00000090: 5dd1 0d3e 73b9 8f3e fc2c 99bb bf01 2e3e
000000a0: 5e76 ee3c a72a a0bc 455b ce3e a200 883e
000000b0: 5e77 3c3f 6a7e a43e b996 eb3e 6e63 913e
000000c0: 5627 f03b a6b6 0dbd ad94 7fbd ff27 b13e
000000d0: fbd8 11bd 7fc0 1e3e 9e9a d53d b0c7 f8bd
000000e0: 46d1 0c3e 63d5 a93e ae97 a13e 2da1 123d
000000f0: 4c1c ef3e eb8a f23c 68cb 313e de67 91be
00000100: 557d ef3d ef64 8d3e 730b 193f 2278 c03e
00000110: 198d 9a3e 14e3 343e 676c 0d3f e827 523c
00000120: 37e6 d03e 71b1 223d 31c0 6b3f ae72 bb3d
00000130: c746 7b3e 75e0 aa3e 53cd f03d aa92 103e
0.44562438 0.042634904 0.4517213 0.3276178 0.23889324 0.4112197 0.1800534 0.7848446
0.31839278 0.024729827 0.24485771 0.15179151 0.2629709 0.9207432 0.18617131 -0.2920168
0.24354775 0.22987698 0.2858383 0.37134004 -0.006540873 0.04599948 0.017896175 0.28095317
0.089637 0.45083177 0.2056494 0.10569793 0.19205266 -0.11406396 0.7074237 0.15689972
0.1617232 -0.033431415 0.07969571 0.22302525 0.13849397 0.28071174 -0.004674552 0.16992854
0.029109176 -0.019551588 0.40304008 0.26562983 0.7361964 0.32127696 0.4601343 0.2839617
0.007328908 -0.034598015 -0.062397648 0.34600827 -0.03560732 0.15503119 0.104298815 -0.12147462
0.13751706 0.33170614 0.31561035 0.03579824 0.46701276 0.029607257 0.1736275 -0.28399557
0.11693827 0.2761607 0.59783095 0.37591654 0.30185774 0.17664748 0.55243534 0.012826897
0.4080064 0.039720003 0.92090136 0.09152733 0.24538718 0.33374372 0.117579125 0.14118448

hidden2.weight f4 [200, 80]
00000000: 7cdc eb3d df04 81bd d63a 1d3d d701 ba3d
00000010: e3ae 27bd 81ff 303d d3b5 643c f566 3c3e
00000020: 01d6 0c3e 8c53 633d 03fb c03d 3074 843d
00000030: f970 153d 5993 7e3e 3c52 c13d 23b3 9cbd
00000040: 0323 a53d d711 6f3d c7a1 0c3e 3c40 61bc
00000050: ecd3 863c b678 42bd 869d 8fbd ca29 033e
00000060: 6100 cbbd 4ce8 613c fd24 87bd 5332 343d
00000070: bfcd 003d 3fd8 abbd 297b 013e e521 7a3d
00000080: ad6a c93c 589c a2bd d570 c13d f5fc 0b3d
00000090: 5ec6 ffbc 1063 3d3d bd5c 75bd f205 d13d
000000a0: a94c f8bc 92e0 0fbc d113 103e 34b9 9b3d
000000b0: 2b5e 2d3e fd49 7d3d 9582 493e b6ad 0d3c
000000c0: 526e bebd 0d81 7ebd aad5 edbc 7e39 e53d
000000d0: 716b 4bbd cb65 84bd 4d87 aab9 ffe4 8d3b
000000e0: 6833 893d a348 253d 4c9e 703d 3044 b4bc
000000f0: 5aa2 c33c 94ab 89bd a0ad b83d 70c0 16bd
00000100: 0c26 b4bc a850 9b3d 994d e33c 9181 cd3d
00000110: f650 b63d 7695 983d 5d7e 893d 389e a8bd
00000120: a871 ebbd c3b0 53bd 29de 7e3e d3c1 bcbd
00000130: e975 ecbc be85 e33d 695b 1e3c 95b5 e8bc
00000140: 8d58 893d 5bf4 263d 07d0 aebd 8caa 48bd
00000150: 0fa0 7f3d c106 a23d 69ec ed3b 4635 d83d
00000160: af21 aabd b332 9cbd 9ca5 20bd 4c84 2ebd
00000170: cf54 b83d 2b95 96bd d12d bc3d e5db 21bd
00000180: 1884 9fbc 5e9f 86bd 1d9d 16bd ceb9 cfbd
00000190: 5c9f 5cbd aac9 383d fc27 cebd 227a ac3d
000001a0: 1787 853d 57c7 62bd 0093 6b3c a82b f43c
000001b0: 0c3b 9a3d 4b26 3abc 40d9 94bc d44f b0bd
000001c0: cc2c 113d 7fac a2bd 2ec2 cfbc 96e8 9bbd
000001d0: e956 783c fc6c dbbd 7a1b 0b3c 1d67 d0bd
000001e0: 605a 08bd 8afe b73d 68dc 5a3d 6e03 2b3d
000001f0: af8f 8d3d 85a3 043e da40 e2bc 1452 113d
00000200: 9ead 213d 6017 8a3d 98c1 9d3c 3d2c e83d
00000210: 92bc da3d cba1 093e 4a31 95bd b797 96bd
00000220: 00ae f33b 932f 01bc 3295 63bd e053 af3d
00000230: 23af a0bd ef2a dcbd 58d8 3e3c 26e4 cabd
00000240: 9aa7 36bd 4bb0 c4bd cb94 b93d d779 04bd
00000250: 6866 033c 75b6 25bb fd14 0dbb ce14 9dbd
00000260: 90d9 bd3d d142 0f3d dea5 2cbd 5c1f 903d
00000270: fe2f 94bd 1960 ec3d 5a53 d23d 362e c9bd
00000280: e5e4 d23d 3f3f 8a3c 432f 9fbd fdec b5bd
00000290: 11b9 863c 4604 653b b442 8fbc e247 273d
000002a0: 7ffd 04bc 8a92 a0bd b08a db3b e552 dabd
000002b0: 1f50 15bd c617 b33d 50bd 0bbd d775 bebd
000002c0: 0599 9a3d 2208 593c 6cd8 c3bc fcd3 663c
000002d0: 97d1 7c3c ca9e e83b 7659 45bd 66ad d5bd
000002e0: 332e c2bd 58b0 08bd 9ebb 803c d8cb b9bd
000002f0: 2781 513d d459 c1bd 1385 c83d 1630 863d
00000300: ac83 7abd d56a 54bd 1f00 43bd 513c 313d
00000310: daf7 52bd b9ae cf3d b21a 453b 1099 693d
00000320: b7fe 0f3c e6cc 8bbd 87b3 1cbd b879 a83d
00000330: d100 123c d1ef bf3d acb4 f63a a250 0fbd
00000340: c148 813d 8f00 2e3b 53d3 9a3d 7402 c93d
00000350: 2569 513d cbab bfbd 1875 73bd d7e2 423c
00000360: 2e5e ddbd 793c b23d 0e12 a6bb 999b b93d
00000370: b266 193d 9600 af3d 7e58 88bd 8a44 b0bd
00000380: 7d1c 8f3a 5371 203d c114 a9bc 0695 843d
00000390: 315f cf3d 4dcb 073d bb19 123d 8a78 6abc
000003a0: 0819 00bc ff2a 3a3d 5087 21bd cde7 1abd
000003b0: 5ae7 f93c 1613 b23c 491a 2bbd 18ff 6f3d
000003c0: bea0 be3d 18fb a5bd 3678 9d3c 480c 43bb
000003d0: 2159 5d3d 9a09 22bc f9a8 333d 660a e03d
000003e0: ffad d83d 3f7c 03bd 292f 11bd f720 18bb
000003f0: 7cff 1ebc ea0e acbd 4a5a 083d 4560 ecbd
0.115166634 -0.06299757 0.03838619 0.09082382 -0.04093827 0.043212418 0.013959366 0.1839865
0.13753511 0.0554996 0.09422877 0.064674735 0.036484692 0.24860896 0.09439513 -0.07651355
0.080633186 0.058366623 0.13733588 -0.013748225 0.016458474 -0.0474784 -0.07012467 0.1280891
-0.09912182 0.013788294 -0.06598852 0.043993305 0.031446215 -0.08390855 0.12644638 0.06106748
0.024587 -0.079399765 0.09445349 0.034176785 -0.031222519 0.04623705 -0.059902895 0.10206212
-0.030309992 -0.008781569 0.1407006 0.07603684 0.16930453 0.06183814 0.1967872 0.008647373
-0.09298386 -0.06213479 -0.029032547 0.111926064 -0.04966301 -0.06464728 -0.00032525734 0.004330277
0.06699258 0.040352475 0.058744714 -0.02200517 0.023881126 -0.06722179 0.09017491 -0.036804616
-0.021990798 0.07583743 0.027746962 0.100344785 0.08902161 0.074503824 0.06713555 -0.08233303
-0.114962876 -0.051682245 0.24889435 -0.092166565 -0.028864818 0.11109494 0.009665349 -0.028406898
0.06706343 0.04076038 -0.08535772 -0.04899077 0.062408503 0.079114445 0.0072608483 0.10557036
-0.08307206 -0.076268576 -0.039220437 -0.042606637 0.09000551 -0.0735267 0.09188426 -0.03951635
-0.019472167 -0.06573366 -0.03677093 -0.10142861 -0.053862914 0.045114197 -0.1006622 0.084217325
0.06519907 -0.055365887 0.014378309 0.029805973 0.075307935 -0.011361669 -0.01817 -0.08608976
0.035443112 -0.07943057 -0.025361147 -0.076127216 0.01515744 -0.107141465 0.008490438 -0.10175917
-0.033289313 0.08984096 0.053432852 0.041751318 0.06912171 0.12953003 -0.027618814 0.035478666
0.039472215 0.0674274 0.019257352 0.11336563 0.10680498 0.13440625 -0.07284792 -0.07353156
0.007436514 -0.007884878 -0.055562206 0.0856092 -0.07845905 -0.107503764 0.01164826 -0.09906797
-0.04459343 -0.09603938 0.09061583 -0.032342758 0.008020021 -0.0025285755 -0.0021527403 -0.07669984
0.092700124 0.03497583 -0.04215037 0.07037231 -0.07235716 0.11541767 0.10269804 -0.09823267
0.102975644 0.016875861 -0.07772686 -0.088830926 0.016445668 0.0034945174 -0.017487861 0.040840037
-0.008117079 -0.0784045 0.0066998824 -0.10660342 -0.036453363 0.08744769 -0.03411609 -0.0929982
0.075487174 0.013246568 -0.023906909 0.014088627 0.0154308295 0.0070990073 -0.04818102 -0.10433464
-0.09481468 -0.0333713 0.015714463 -0.09072083 0.05114856 -0.094409615 0.09791007 0.065521404
-0.06116073 -0.051859695 -0.047607537 0.043270413 -0.0515059 0.101407476 0.0030075726 0.057030737
0.008788756 -0.06826191 -0.038257148 0.08226341 0.008911327 0.09371913 0.0018822155 -0.034989007
0.06312705 0.0026550626 0.07559838 0.09814921 0.051125664 -0.09358939 -0.05943784 0.011894903
-0.10808979 0.087029405 -0.0050680703 0.09062881 0.037451454 0.08545034 -0.066575035 -0.08606823
0.0010918524 0.039170574 -0.020639779 0.064737365 0.10125578 0.033152867 0.03566907 -0.014310965
-0.007818468 0.04545116 -0.039435685 -0.03781872 0.030505825 0.021737617 -0.041773114 0.058592886
0.09308003 -0.08104533 0.01922236 -0.002976196 0.054040078 -0.0098899845 0.043862317 0.10939483
0.10580062 -0.032100912 -0.035445366 -0.0023213008 -0.009704467 -0.08401282 0.03328923 -0.115417995

hidden2.bias f4 [200]
00000000: 52df 123f 0d6c 933d 1dfb b63d b1a6 013c
00000010: f059 16bd b8f3 f13c 45fd a2bd ec15 dc3d
00000020: 32ae 043d 3891 99bd 9d0f 503e f0c2 23bd
00000030: f5a1 dd3d bdeb d4bb e522 393d 1129 31bd
00000040: 5006 7e3e 53b8 c7bd f02c ea3e ae29 6b3d
00000050: a796 4f3e 1e57 773c e4eb 8a3e ce66 a13d
00000060: adf3 c83d f1a7 2b3e 8d0f 6f3e ad33 bf3e
00000070: 589b 033c b449 e73b d86e c73d 643c d7bd
00000080: d0df 67bd 8d47 dfbd 5f90 a9bd f33a 883c
00000090: ccba 6e3e a426 b5bd ef86 213d 1875 583e
000000a0: 06d4 d63c 8725 883d 04b0 14ba e022 663d
000000b0: 8954 af3d 87e7 3b3e 08c9 a43e d89a c33d
000000c0: 5fb4 363e 9d04 09be 4c73 873d 5e5b 213d
000000d0: 2f88 b5bc c6d5 66bd 2a96 8b3e dbcd bb3d
000000e0: 0fe2 383e 6a46 dc3e 5395 9f3d a2f8 043d
000000f0: 2646 203e 6b04 533e 41a5 bebc 00ef 243e
00000100: fa6f bb3e 28d6 0b3e c82d ac3e 9215 01be
00000110: f6dd 173e 702b 0dbd 2f71 963b 5eb6 5d3e
00000120: 9244 a8bd 49ac a33e c784 283d c966 bdbd
00000130: 2cd7 773e 63cb a4bc 6952 26bc 61e0 653c
00000140: ca3a bf3e 8a2b ed3d 098a df3d 9d51 433d
00000150: 2a72 8b3e 5034 1c3e 1876 373e 355f 22bd
00000160: 367b b43d 3755 e03e 0981 1f3d ba5e d73d
00000170: 1763 5fbd 3b03 5c3e a7c7 a93c 9eae 7f3e
00000180: f61c 8d3e bb7f 19bd 17c6 a0bb bdb4 2b3b
00000190: 1167 883c 57fe 193e 7209 dabd 0f95 083c
000001a0: 1cd3 033e 67a2 11bd 954e 773e 5bbb dfbc
000001b0: cc56 f8ba 17b6 623e 0012 47bc bd7d bcbd
000001c0: 82b6 9ebd 4a55 3a3e 9321 16bc 5818 9c3d
000001d0: 0330 453d 7b97 7d3e 6f03 d03d faee 883d
000001e0: 0edb 4abd aaea 60bd db14 063f 21da 633e
000001f0: 3952 07be 934b ad3d 6021 9abd 3631 f23d
00000200: 279f 303d 3e6c 883e fc9c eabd 7f65 de3c
00000210: 3807 44bc 602c 25bd 6274 133e 0cef 893d
00000220: 1944 b33d bb98 d9bd 0de3 24bd 131b a13d
00000230: a223 683d 707b 23bd 1a5d b63b d3da 003f
00000240: b054 2cbd f54b 623e f091 6f3c e66d 8d3d
00000250: 3044 0d3e 4d64 183d 45ba cf3e 32c6 423d
00000260: f516 793d 6196 f7bc 4c98 1e3e 2017 c33c
00000270: 3917 efbc 00ef ad3d 5b39 1d3e b808 d73d
00000280: 4a08 7dbd b34e e73d 732f 55bd f744 afbd
00000290: d98b 093e 8e73 6a3e a6ff 3d3d fb39 413e
000002a0: 9b54 c53d ee40 f53d 33b0 8dbb cb67 a1bd
000002b0: f72b 5dbc 8c72 133e fcc3 433e 2845 63bd
000002c0: 681f 91ba ba4d 7f3e ab31 693e 1265 e43d
000002d0: ae1d 493b 136f 233e 6cd5 a9bd 26af 283e
000002e0: 7d12 6e3e 3aed a5bd 144e 513e 712f 023e
000002f0: fa5f 803d 7baa 643e 86aa 79bd 6b2f c9bd
00000300: 332e c23c 1dae ee3d 9638 e23c 83cb 493d
00000310: 407c 893e 8646 353c 6cad c63e 7fd3 983e
0.5737201 0.071983434 0.08934615 0.0079132775 -0.036706865 0.02953516 -0.079584636 0.10746369
0.032392688 -0.074984014 0.20318456 -0.03998083 0.108219065 -0.0064978288 0.045199294 -0.043252055
0.24807096 -0.09751954 0.4573741 0.057412796 0.20272313 0.015096454 0.27133095 0.078809366
0.098121025 0.16763283 0.23345776 0.37344113 0.008032642 0.0070583466 0.09737939 -0.105095655
-0.05660993 -0.10902319 -0.0827949 0.016629672 0.23313445 -0.08845261 0.039435323 0.21138418
0.026224148 0.06647783 -0.00056719803 0.056185603 0.08561046 0.1835004 0.32184625 0.095510185
0.17842244 -0.13380666 0.06613788 0.039393775 -0.022159664 -0.056356214 0.27263004 0.09170123
0.18054985 0.43022472 0.07792153 0.032463677 0.1565176 0.20607154 -0.023272159 0.16106796
0.3660887 0.13655913 0.33628678 -0.12605885 0.14830765 -0.034465253 0.0045911293 0.21651599
-0.08216204 0.3196738 0.04114225 -0.0924812 0.24203175 -0.020116514 -0.010151484 0.014030547
0.3734954 0.1158057 0.10915 0.047685254 0.27235538 0.1525433 0.17916143 -0.039641578
0.08812563 0.43815014 0.038941417 0.105161145 -0.05453786 0.21485607 0.020725084 0.24968955
0.27561158 -0.03747533 -0.0049064266 0.0026200258 0.016650708 0.15038429 -0.10646333 0.00833632
0.128735 -0.03555527 0.2415107 -0.027311018 -0.0018946766 0.22139774 -0.012150288 -0.0920367
-0.07749654 0.18196598 -0.009163278 0.07621831 0.04814149 0.24764816 0.10156905 0.06686206
-0.049525313 -0.054911293 0.5237557 0.22251178 -0.13214959 0.0846168 -0.07525897 0.118257925
0.04312053 0.26645082 -0.11455724 0.027148006 -0.011964612 -0.040325522 0.14399865 0.06735048
0.08753223 -0.10624834 -0.040255595 0.07866492 0.056674607 -0.03991264 0.005565298 0.503339
-0.04207295 0.22099288 0.014622197 0.06905727 0.13795543 0.03720503 0.405718 0.047552295
0.06081291 -0.030223073 0.15487784 0.023814738 -0.029185878 0.08492851 0.1535391 0.1049971
-0.061775483 0.112943076 -0.052047204 -0.08558076 0.13432254 0.22895643 0.046386383 0.18869774
0.09635278 0.11975275 -0.004323983 -0.07881125 -0.013499252 0.14399165 0.19117731 -0.055485874
-0.0011071982 0.24931994 0.22772853 0.1115209 0.0030687856 0.1596034 -0.0829266 0.16473064
0.2324924 -0.08101888 0.2043994 0.1271341 0.06268306 0.22330658 -0.06095364 -0.098234974
0.02370367 0.11654303 0.027614873 0.04926635 0.26852608 0.011064177 0.38804185 0.2984886

predict.weight f4 [96, 200]
00000000: ebd3 6c39 6070 17bd d6f2 d33c 165f 8b3c
00000010: efd6 9a3c 7246 d93d 27a4 e7bc 0f16 0cbe
00000020: c1a2 843d 1116 1fbd e72e 27bd 31a9 28bd
00000030: b28f a9bd 6c72 2bbd c6ba 893c 8103 0ebd
00000040: 48a4 b93c 4294 273d 5793 20be c0a9 7f38
00000050: 60ea 13be 5bee bfbc 6c2b 383c bde9 92bd
00000060: 1a88 e73c e97c 26bc 96a3 0ebd 5b31 683b
00000070: aebd f7bb 37c4 93bd 79f5 ff3d f8c5 45bd
00000080: 651d 34bd c131 48bd 7b08 8b3d 3874 03bd
00000090: 08a9 4ebc a146 fdbc c476 1ebd 304c 96bd
000000a0: b306 983d 8838 813c 84a3 7cbd 8507 0e3d
000000b0: d958 a3bb 3220 93bd 1af6 aebd 76c4 a7bd
000000c0: 4568 a3bd 33b5 bbbc 1986 7fbd 1ebd 47bd
000000d0: 88c9 943d f0ab c7bb e826 2dbe 2b16 83bd
000000e0: 0eca 51bd 986f 02be 84e3 9cbd a116 6a3d
000000f0: 6a7b 7ebd 5f67 44bd d794 813c d7e1 89bd
00000100: 1e29 81bd 77b0 e23c 5d86 463d 922f cb3c
00000110: ab0b ea3d b5d1 92bc ef78 203d 8ebc 46bd
00000120: 2827 9d3d c3cd 643d a814 2b3d 9b28 9cbd
00000130: 2fb4 98bd 1674 57bd dc95 7e3d 958d e4bd
00000140: 017f 24be 964f 3bbd 4dd4 fc3c 0a87 d53c
00000150: f371 0e3e 4adc ecbc 6e80 e93d 00e9 85bd
00000160: 270c fb3b 3d24 793d cc14 a4bb c09e 293d
00000170: 8195 0abd 21b5 33bd b943 473d d433 413d
00000180: ec61 e53c 277e 2cbd 5788 153d 4cb4 bc3d
00000190: 5ad2 163d d455 08be 83b4 853d b0e0 e1ba
000001a0: e953 e0bc 283c 6d3c e037 853d 3800 61bd
000001b0: a967 d73c e50b 1bbd 36f5 94bd b79c 17bd
000001c0: 5b0e 81bd f2b0 0cbe adc5 293c c652 2d3d
000001d0: fa6a afbc eafb e83c 349b 4bbd 39be 9b3d
000001e0: 8acc 95bc 3858 003d f9f0 c1bc 6072 86bd
000001f0: 6a3e 3e3d 9ef1 aabd 0dae 6fbd 310e cbbc
00000200: d081 4c3d 0ab7 0fbd f68d 303d 27ce 7dbc
00000210: 5677 823d 90d5 69bd 9ec6 363d 7ba9 043d
00000220: 9996 f03b 9f1e 35bc a47a 0dbd 117f 463c
00000230: 7117 823d c0f9 ce3b f32c 8cbd c577 d6bd
00000240: fada 1bbd 814a db3c 3ef1 7ebd 60bc 003d
00000250: 1c08 873d ca97 e8bb 4010 a5bd 9989 38bd
00000260: 1d32 a5bb 219b 0a3d 4a95 913b a3f7 c5bd
00000270: d02e 05bd 58f3 1e3c 3708 d23c 2c56 b0bd
00000280: 12eb 7ebd f977 263d 9d7b 1e3d 723e 983d
00000290: a06c c9bd fe71 67bb 7523 f23d 893a 3dbd
000002a0: 68a8 30bd 241d 9abc 612d b2bc e861 35bc
000002b0: 4823 5ebb de32 2e3c 2240 21bc 3112 81bd
000002c0: b0ff fc3c 595d 483d 3f51 4abb 5d7b cc3b
000002d0: 76e8 dc3c cdd8 9fbd c6c8 f339 4337 49bd
000002e0: bbdc 5c3d 3564 85bc 8a77 00be 5cef 8abd
000002f0: 8732 28bd b2bd 33bd 702c ebbb ea78 d63b
00000300: 16bb e8bc ebd6 2d3d eec3 533d 3542 a6bd
00000310: 8abe 2fbd 2762 3d3d c920 93bd b730 83bd
00000320: b620 67bd 2cae a3bd ce14 eabc 352b 1b3d
00000330: d7e4 6f3d 8bbf d63d 0fc2 b3bc 1d93 54bc
00000340: 41e7 9cbc 9071 89bd 10e4 cebd 1031 08bd
00000350: ebf0 90bc 96f2 0fbd d5d8 98bd ae07 00bd
00000360: a21a 843c 0dfc 323d 9eab 8abd 138a f93c
00000370: 4602 c0bd b5c9 9ebd 95e7 3a3d d5ca e5bd
00000380: e39f 413d 49f9 cbbd dd4a 193d bc3b 0abd
00000390: 5d4b e53b d7eb 433c ff07 a43c 63f6 243d
000003a0: 6bb9 f1bc e298 7a3d 487a 1f3d eccd 083e
000003b0: 816d e83d d4d6 46bc a90a 3dbd f69f 56bd
000003c0: df67 b9bc 4dba 13ba 53bc e5bc 0540 33bd
000003d0: bfc3 33bd ea6a 76bc 545d 08bd 04bf 26bc
000003e0: a914 8e3b a826 133d 4fb1 f63b 1afe a2bc
000003f0: 8837 893c c98d 7f3d df78 08be 5d32 2e3c
0.0002258566 -0.036972404 0.02587263 0.017013114 0.018901316 0.106091395 -0.028276516 -0.1368029
0.06476355 -0.038839404 -0.040816214 -0.04117698 -0.08279361 -0.041857168 0.016812693 -0.03467131
0.022661343 0.040912874 -0.15681206 6.095483e-05 -0.14444876 -0.023429086 0.011240821 -0.07173488
0.02826314 -0.010161617 -0.034823976 0.0035429809 -0.0075604534 -0.072151594 0.12497992 -0.0482845
-0.043973345 -0.048875574 0.06788727 -0.032093257 -0.012613542 -0.030917468 -0.038687482 -0.0733875
0.07423153 0.015774027 -0.06167938 0.03467514 -0.0049849567 -0.07183875 -0.08543034 -0.08191769
-0.07978872 -0.022913551 -0.062383745 -0.04876434 0.072650015 -0.0060934946 -0.16909373 -0.064007126
-0.051218085 -0.12737882 -0.07660583 0.057150487 -0.062129416 -0.047950145 0.015818043 -0.06732529
-0.063066706 0.027672036 0.048467983 0.024802957 0.11428007 -0.017922262 0.03917783 -0.048519664
0.07673484 0.055860292 0.041767746 -0.076249324 -0.07456242 -0.052600943 0.062154636 -0.11159817
-0.16064073 -0.045730196 0.030862952 0.026065368 0.13910656 -0.028913636 0.11401449 -0.06538582
0.007661361 0.060825575 -0.005007362 0.04141116 -0.033833984 -0.04387391 0.04864857 0.047168568
0.028000794 -0.042112496 0.036506977 0.092140764 0.0368217 -0.13313991 0.065285705 -0.00172331
-0.027383761 0.014479674 0.06504798 -0.05493185 0.026294546 -0.03785314 -0.07273333 -0.03701469
-0.06301566 -0.13739374 0.010362071 0.042315267 -0.021413315 0.028440434 -0.04970856 0.076046415
-0.018286008 0.031334132 -0.023674475 -0.06564784 0.04644624 -0.08346866 -0.058515597 -0.02478704
0.049928486 -0.03508667 0.043104135 -0.015491045 0.06370418 -0.057088435 0.04462301 0.03238819
0.0073421714 -0.011054664 -0.034540787 0.012115256 0.06352127 0.0063163936 -0.06844511 -0.10472063
-0.03805063 0.026768925 -0.062241785 0.03142965 0.065933436 -0.007098173 -0.0805974 -0.0450531
-0.0050413744 0.03383935 0.0044428455 -0.096663736 -0.032515347 0.009701572 0.025638683 -0.08610186
-0.0622359 0.04064176 0.038692106 0.074337855 -0.09835172 -0.0035315747 0.11823169 -0.0461984
-0.043129355 -0.018812723 -0.021750154 -0.011070706 -0.003389554 0.010632245 -0.009841951 -0.06302298
0.03088364 0.04891715 -0.003087118 0.006240292 0.026966315 -0.07805023 0.0004649816 -0.049124967
0.053921442 -0.016283134 -0.125456 -0.067839354 -0.04106381 -0.04388208 -0.007176928 0.006545176
-0.028409522 0.04244129 0.051700525 -0.08118097 -0.04290632 0.046236183 -0.07183988 -0.06405776
-0.05642768 -0.07992205 -0.028574374 0.037883002 0.058567848 0.10485753 -0.02194312 -0.012974528
-0.01915324 -0.067111135 -0.10102093 -0.033249915 -0.017693004 -0.035143457 -0.074632324 -0.031257324
0.01612598 0.043697406 -0.06771015 0.030461347 -0.093754336 -0.07753316 0.04563101 -0.11220328
0.04727162 -0.09959657 0.03742491 -0.033748373 0.0069975094 0.011958084 0.020023344 0.040274035
-0.02950736 0.061180957 0.038934976 0.13359803 0.11349011 -0.01213618 -0.046152744 -0.052398644
-0.022632537 -0.0005635366 -0.028043902 -0.043762226 -0.04388785 -0.015040139 -0.03329213 -0.010177378
0.004335959 0.035925537 0.007528461 -0.019896556 0.016750112 0.062391076 -0.13327359 0.010632125

predict.bias f4 [96]
00000000: e14a d8bd bd39 03be c2c3 b4bd 2cb1 03be
00000010: 9c7d 3fbe 80d3 abbd e93c 2bbe 0cd2 2bbe
00000020: 7084 09be f6c6 04be e09b f3bd ec87 36be
00000030: 4665 d7bd 3701 f7bd 181c b1bd 51ce 37be
00000040: 2141 26be 45e9 90bd 11a2 02be b865 24be
00000050: a148 1fbe b909 37be 7c4b ccbd 5feb aebd
00000060: 88cf 77bd f267 19be cd1a 2cbe 9db7 f5bd
00000070: f1fe abbd 9392 1cbe 1594 c5bd 7bf8 2bbe
00000080: 7eeb aabd 129a cebd 96a0 2cbe 8f6a c5bd
00000090: 9ee4 d1bd b52b 4abe c27c 46be 6be5 3dbe
000000a0: e0d9 b9bd 4a08 05be d4f7 9bbd e8d0 82bd
000000b0: cc33 40be bfec 32be e52e a4bd c54e 3bbe
000000c0: 3907 b8bd 5506 54bd 7225 f4bd 9983 84bd
000000d0: 3b79 fcbd a78a c7bd 94d8 36be fa79 9abd
000000e0: 5dba 41bd e301 e1bd 5baa bdbd 9e91 33be
000000f0: 7a70 3fbe 0f4e 3bbe ce91 9dbd 1eb4 28be
00000100: e9e4 8ebd 33d0 f6bd e3c6 9abd 9cdf 26be
00000110: 2b9f 68bd 8685 e1bd 7534 cbbd f196 2bbe
00000120: 02ff d5bd 3e05 c4bd 104b 91bd 5af5 04be
00000130: d7c8 80bd 3056 a1bd ef54 eebd 2ae1 c7bd
00000140: 2b3a c9bd c93a edbd 5380 e5bd bf90 0dbe
00000150: 4176 24be a3d7 15be 5133 cdbd fcab e6bd
00000160: 0a6e 06bd 55f5 06be b12e 0abe 5e25 3ebe
00000170: ea9b dabd 06e0 03be 2047 a7bd 2c1c cbbd
-0.10561157 -0.12814994 -0.088264 -0.12860554 -0.1870026 -0.0838995 -0.16722454 -0.16779345
-0.13429427 -0.12966523 -0.11894965 -0.17825288 -0.10517363 -0.120607786 -0.086479366 -0.17949797
-0.16235782 -0.07075743 -0.12757136 -0.16054428 -0.1555505 -0.17874803 -0.09975335 -0.08540987
-0.06050065 -0.14981058 -0.16807099 -0.11997912 -0.083982356 -0.15290289 -0.09647385 -0.16794007
-0.08345698 -0.1008798 -0.16858134 -0.09639465 -0.102486834 -0.19743235 -0.19383529 -0.18544547
-0.090747595 -0.12991443 -0.07615629 -0.06387502 -0.18769759 -0.17473124 -0.08016757 -0.18291767
-0.089857526 -0.05176385 -0.119212046 -0.06470413 -0.123278104 -0.09743243 -0.17856055 -0.075427964
-0.04729687 -0.10986688 -0.09261008 -0.17536017 -0.1869525 -0.18291496 -0.07693826 -0.16474959
-0.06977255 -0.120514296 -0.07557466 -0.16296238 -0.05679242 -0.11011796 -0.09922115 -0.16756798
-0.104490295 -0.09571312 -0.07094395 -0.12984219 -0.06288307 -0.07877767 -0.116372935 -0.097597435
-0.09825548 -0.11583478 -0.112061165 -0.13824748 -0.16060735 -0.1463304 -0.100195535 -0.11263272
-0.032819785 -0.13179524 -0.13494374 -0.18568942 -0.106742695 -0.12878427 -0.08167863 -0.09917483
