Notebooks/2018-05-23_classification_BCELoss.pt (torch_old, 511993 bytes, 6 tensors)

hidden1.weight f4 [80, 1152]
0	0xbb50be7d	-0.003185182
1	0xbc4782be	-0.012177167
2	0xba924100	-0.0011158288
3	0xbc063ba2	-0.0081929285
4	0xbb9b801b	-0.004745496
5	0x3bb85ca1	0.0056262766
6	0x3cc8997a	0.024487246
7	0x3b904f0e	0.0044039553
8	0xbcd41741	-0.025889995
9	0x3c4686b8	0.01211708
10	0x3d07a75e	0.0331186
11	0xbbf9c28c	-0.0076220687
12	0xbc2297e8	-0.009923913
13	0x3c3ac19a	0.011398697
14	0x3cbc25c6	0.02296723
15	0xbb70a004	-0.003671647
16	0x3cba849a	0.022768307
17	0x3be7152a	0.0070520835
18	0xbcca439f	-0.024690447
19	0x3c000c03	0.007815364
20	0xbccdde21	-0.025130333
21	0x3ccef25f	0.025262056
22	0x3a433da6	0.0007447846
23	0xbbec358a	-0.007208531
24	0xbbe9783b	-0.0071249283
25	0x3c05c0eb	0.008163671
26	0xbcd75838	-0.026287183
27	0x3b922bf7	0.0044608074
28	0x3cfbe9c1	0.030751111
29	0x3cd8a0ee	0.026443925
30	0xbc92339c	-0.017846875
31	0xbca07dd1	-0.019591244
32	0xbc0bbb3f	-0.00852853
33	0xbc20f1df	-0.009823292
34	0x3cbc1342	0.022958402
35	0xbbae9ffe	-0.005329131
36	0xbc98ec2a	-0.0186673
37	0x3c5013d6	0.012700042
38	0xbc9307c4	-0.017948039
39	0x3ccedc52	0.025251541
40	0xbc90fbbe	-0.017698165
41	0x3cf6f6a3	0.030146902
42	0xbb9e4f92	-0.004831263
43	0x3a8fec34	0.0010980428
44	0x3a528aed	0.0008031566
45	0xbc49a19a	-0.012306595
46	0xbcd87ad7	-0.026425762
47	0xbca040ca	-0.019562144
48	0xbc63dd57	-0.013907752
49	0xbcc05325	-0.023477146
50	0x3c386906	0.011255508
51	0x3c3656f7	0.0111291325
52	0x3bd67e19	0.0065457937
53	0xbcecdbee	-0.028913464
54	0x3c613b95	0.013747116
55	0xbb0a5398	-0.0021106955
56	0x3bbabb8c	0.005698627
57	0xbd12b55d	-0.035817493
58	0xbc050786	-0.0081194695
59	0xbcdd0b52	-0.026982937
60	0xbc4d6e37	-0.012538484
61	0x3cc3ad49	0.02388634
62	0xbc4f1c93	-0.01264109
63	0xbcb4fbb8	-0.022092685
64	0x3cd3eb7f	0.02586913
65	0xbbfaea1c	-0.0076573025
66	0x3c8f7488	0.017511621
67	0x3ce31a96	0.027722638
68	0xbce8a075	-0.028396824
69	0x3d0718cc	0.032982633
70	0xbd00a95a	-0.031411506
71	0x39baad98	0.00035606022
72	0x3c1963e9	0.009362199
73	0xbcde0bda	-0.02710526
74	0xbcd2174e	-0.025645878
75	0x3c0916bb	0.008367236
76	0x3c8189ae	0.015812721
77	0x3ce22d99	0.027609633
78	0xbb19dc99	-0.0023477434
79	0x3c867002	0.016410831
80	0x3c990339	0.018678294
81	0x3ccf8c7b	0.025335541
82	0x3b499e65	0.0030764577
83	0xbb76bc06	-0.0037648692
84	0xbc31ecf9	-0.010859721
85	0xbc6e311b	-0.014538075
86	0xbcdfbc54	-0.027311482
87	0x3ce156e3	0.027507251
88	0x3c9be518	0.019030139
89	0xbcb1902a	-0.021675188
90	0xb7fe5263	-3.0317524e-05
91	0x3cbe0ee9	0.02320047
92	0xbcda84da	-0.026674677
93	0xbc4cce46	-0.012500351
94	0xbaae9110	-0.0013318378
95	0x3ccdf550	0.025141388
96	0xb8138d39	-3.5179055e-05
97	0x3bb34494	0.0054708216
98	0xbbbfc416	-0.0058522327
99	0xbc51233b	-0.012764747
100	0x3c18e6f1	0.0093324045
101	0xbca0e1d8	-0.01963894
102	0x3cd3d6df	0.025859294
103	0x3d0e20ec	0.034699365
104	0xbbd168ad	-0.006390652
105	0xbc56c3f6	-0.013108244
106	0x398519e7	0.00025387036
107	0x3c9c80d7	0.019104404
108	0xbb99fb90	-0.004699178
109	0xbcd15001	-0.025550844
110	0xbcea3d22	-0.028593604
111	0xbc29f416	-0.010373136
112	0x3c5a866f	0.0133377155
113	0x3cdcee47	0.026969088
114	0x3c3be9ff	0.011469363
115	0x3c26e330	0.010186002
116	0x3ceb5931	0.028729053
117	0x3c912715	0.017718831
118	0x3c139f51	0.009010152
119	0xbccd0771	-0.025027962
120	0x3c8bda1f	0.017071782
121	0xbc049d7b	-0.008094187
122	0xbc8d36e0	-0.01723808
123	0x3c9703a0	0.018434346
124	0xbcbc8a0e	-0.023015048
125	0xbcbfce12	-0.023413692
126	0x3c63e913	0.01391055
127	0xbcc6c946	-0.024265897
128	0x3cdb5af2	0.026776765
129	0x3cab1fdf	0.02088922
130	0x3c8b4ac0	0.017003417
131	0xbb1de360	-0.0024091825
132	0x3cc26fa7	0.02373488
133	0xbca2990a	-0.019848365
134	0xbcb2b5fa	-0.021815289
135	0x3c49cfe7	0.012317634
136	0xbbf081d6	-0.0073396964
137	0x3bde3841	0.0067816083
138	0x3d05e797	0.032691564
139	0xbc0deae6	-0.008661961
140	0xbcd0ff1f	-0.025512276
141	0x3ca8bb75	0.020597199
142	0xbcc055c4	-0.023478396
143	0xbb66de1a	-0.0035227598
144	0xbb623cd4	-0.003452112
145	0x3caf7922	0.021420065
146	0xbce3b3bf	-0.02779567
147	0x3b7e8161	0.003883444
148	0x3cfc7cd6	0.030821245
149	0x3ce8581b	0.028362324
150	0xbcc9cd99	-0.02463417
151	0xbc8fde8e	-0.017562177
152	0xbc000db7	-0.00781577
153	0x3c15c768	0.00914178
154	0xbc9d7e7f	-0.019225357
155	0x3b1b4bb7	0.0023696253
156	0xbbdf6fc5	-0.006818744
157	0xbbe93838	-0.0071172975
158	0xbb19f18c	-0.002348992
159	0x3b4253f5	0.0029652093
160	0xbcb42b9f	-0.021993456
161	0x3cc16874	0.023609377
162	0x3cb6533c	0.022256486
163	0x3c9bae5b	0.019004038
164	0x3ca2fcb9	0.019895898
165	0x3c246025	0.010032688
166	0xbc87c66b	-0.016574105
167	0xbca20a35	-0.019780258
168	0x3ca6f09a	0.0203784
169	0xbc83a250	-0.016068608
170	0xbba4c4ad	-0.0050283284
171	0xbc177699	-0.0092445845
172	0x3b3e40a2	0.0029030223
173	0xbbb75eb6	-0.005596007
174	0xbc99b5e1	-0.018763484
175	0x3ba45d3f	0.0050159986
176	0x3c700792	0.014650242
177	0x3ba8a107	0.005146149
178	0x3ca20f1e	0.019782599
179	0xbaf4993a	-0.0018661388
180	0x3c8d45c4	0.01724518
181	0xbccf9e9f	-0.025344191
182	0xbb2bd2fd	-0.0026218288
183	0xbc74b987	-0.014936811
184	0xbc6f8a23	-0.014620337
185	0x3c856166	0.016281795
186	0x3a4ec7ff	0.0007888078
187	0x3c3d8c63	0.011569115
188	0x3ba62b8e	0.00507111
189	0x3ca698e1	0.02033657
190	0x3cc52e9b	0.024070075
191	0x3b83e50a	0.0040251063
192	0x3b5052ce	0.0031787637
193	0xbcd9d64a	-0.026591439
194	0xbcbfa1e1	-0.02339262
195	0xbc0eac00	-0.008708
196	0xbc08e650	-0.008355692
197	0xbca68e65	-0.02033157
198	0xbb169dc8	-0.0022982229
199	0xbb2da4c1	-0.0026495906
200	0xbbb91475	-0.0056481906
201	0xbb54af95	-0.0032453288
202	0xbbaf964d	-0.0053584934
203	0x3c8433b5	0.016137937
204	0x3b70d1aa	0.0036746063
205	0x3ca6fd4e	0.020384457
206	0x3b28bfc9	0.0025749078
207	0x3c93313c	0.017967813
208	0x3c0fe647	0.00878293
209	0xbcd545b7	-0.02603422
210	0xbc203207	-0.009777552
211	0xbce936de	-0.028468546
212	0xbbcc32ad	-0.006231627
213	0x3c5a0e2b	0.013309042
214	0x3c8d1c46	0.017225396
215	0x3cd028c1	0.025410058
216	0x3c8ed54c	0.017435692
217	0x3c6f315a	0.014599169
218	0x3aaede8e	0.0013341473
219	0xbc25f1ed	-0.01012848
220	0x3c9339db	0.017971924
221	0x3c6deebe	0.014522253
222	0xbc7871ed	-0.015163881
223	0xbc844948	-0.016148224
224	0xbc7c5931	-0.015402124
225	0xbccdd934	-0.025127985
226	0xbcd59be9	-0.02607532
227	0x3c0e2899	0.008676671
228	0xbb3026df	-0.0026878638
229	0xbca3dbd5	-0.020002285
230	0x3c8a2087	0.016861213
231	0xbc12c801	-0.008958817
232	0xbcc80cca	-0.02442016
233	0xbcd4d143	-0.02597869
234	0x3cb3d3e6	0.021951627
235	0x3c606953	0.013696986
236	0x3c9bf957	0.019039793
237	0x3a66b9bb	0.00088014797
238	0x3cb5feb3	0.022216177
239	0x3cb84a36	0.022496324
240	0x3cdf4c6a	0.027258117
241	0xbc7a6671	-0.015283213
242	0xbcd8362f	-0.026393024
243	0x3c9ec182	0.019379381
244	0x3bf50ba1	0.007478193
245	0xbd02d2d8	-0.031939358
246	0x3cdeaf9a	0.027183343
247	0x3bbb9d15	0.0057255127
248	0x3c756c69	0.01497946
249	0x3b9ab05f	0.004720732
250	0x3caf65d5	0.021410862
251	0x3cacb0da	0.021080423
252	0xbce2d3c9	-0.027688878
253	0xbc6368ca	-0.013879964
254	0x3c3801db	0.011230911
255	0x3b95f2fb	0.0045760847

hidden1.bias f4 [80]
0	0x3ea3d8b9	0.32001284
1	0x3c73910f	0.014866128
2	0x3eacb575	0.3373219
3	0x3e70241b	0.23451273
4	0x3e426a9f	0.18985985
5	0x3e9fb9b4	0.31196368
6	0x3e1d1d4d	0.15343209
7	0x3f12107f	0.5705642
8	0x3e7e8b0a	0.24857727
9	0x3cf5f9b4	0.030026294
10	0x3e60b88a	0.21945396
11	0x3dfd8022	0.12377955
12	0x3e62ae40	0.22136784
13	0x3f27d0c8	0.6555295
14	0x3e21c1d4	0.15796596
15	0xbe3a7404	-0.18208319
16	0x3e1d876f	0.15383695
17	0x3e399cd1	0.18126227
18	0x3e76ea90	0.24112916
19	0x3e9798de	0.29608816
20	0xbb340853	-0.0027470782
21	0x3d0c12f9	0.03419778
22	0x3b733405	0.0037109863
23	0x3e2db002	0.16961673
24	0x3d88aaa6	0.066731736
25	0x3e9ed0fe	0.31018823
26	0x3e2b92b1	0.16755177
27	0x3d57a241	0.05264497
28	0x3e36a58e	0.17836592
29	0xbdbe418f	-0.09289848
30	0x3f0f9eaa	0.5610148
31	0x3e07238c	0.13197154
32	0x3dd747c1	0.10511733
33	0xbd066c16	-0.032817923
34	0x3d8accde	0.067773566
35	0x3e399fcd	0.18127365
36	0x3de003f4	0.10938254
37	0x3e40f748	0.1884433
38	0xbc8473c7	-0.016168488
39	0x3e005684	0.12533003
40	0x3d2f78e6	0.042839907
41	0xbce4732a	-0.027886946
42	0x3e9b97a8	0.30389142
43	0x3e600e1c	0.21880382
44	0x3f0c07ca	0.54699385
45	0x3e844fb8	0.2584207
46	0x3ea64d99	0.32481077
47	0x3e58285c	0.21109146
48	0x3b9737f9	0.0046148268
49	0x3c250524	0.010072026
50	0xbd9973d3	-0.07492795
51	0x3e8309ed	0.2559351
52	0xbc8eaaea	-0.017415483
53	0x3de17fc5	0.11010698
54	0x3d94a097	0.072571926
55	0xbd96de72	-0.07366647
56	0x3dcab7c7	0.09898334
57	0x3e7083d2	0.23487785
58	0x3e817a43	0.2528859
59	0x3cd45761	0.025920572
60	0x3eafe47a	0.34354
61	0x3c5d6b0a	0.01351429
62	0x3e0d5a68	0.13804018
63	0xbe2f93f1	-0.17146279
64	0x3dc8fa01	0.098133095
65	0x3e647c09	0.2231294
66	0x3ed8083d	0.42193785
67	0x3e8a004a	0.26953346
68	0x3e771dd7	0.24132477
69	0x3e07ea05	0.13272865
70	0x3eca1757	0.39470932
71	0x3a32cb6d	0.0006820474
72	0x3ea40823	0.32037458
73	0x3c2ec644	0.010667387
74	0x3f2685f3	0.6504814
75	0x3c95990a	0.018261451
76	0x3e1cb241	0.15302373
77	0x3e681e72	0.22667864
78	0x3dd6c91e	0.10487579
79	0x3df07bd3	0.117423676

hidden2.weight f4 [200, 80]
0	0x3dba9cfc	0.09111974
1	0xbd7aeb72	-0.061259694
2	0x3d5f26e5	0.054480452
3	0x3dfd84cc	0.123788446
4	0xbc7395c1	-0.014867247
5	0x3c85a599	0.016314315
6	0x3d2ba6e6	0.041907214
7	0x3e0fe4a8	0.14052069
8	0x3e04fc03	0.1298676
9	0x3d7803c7	0.060550477
10	0x3dd6b9d5	0.104846634
11	0x3dc63885	0.09678749
12	0x3d2f5dfe	0.042814247
13	0x3e48e84c	0.19619864
14	0x3dc91c8f	0.098199
15	0xbe11798e	-0.14206526
16	0x3dd06b68	0.10176736
17	0x3d5f94f6	0.05458542
18	0x3e04348e	0.12910673
19	0x3d0624dd	0.03275
20	0x3cbcf54c	0.023066185
21	0xbd292acf	-0.04130059
22	0xbdaa875c	-0.08326599
23	0x3e0b9fc4	0.13635164
24	0xbdaa62c3	-0.083196186
25	0x3c76089a	0.015016699
26	0xbd895b1c	-0.06706831
27	0x3d8913b8	0.06693214
28	0x3d5dbc1d	0.054134477
29	0xbe0c9ce6	-0.13731727
30	0x3dcd15a7	0.100138955
31	0x3d8f8dfa	0.07009502
32	0x3d6a970e	0.057272963
33	0xbda2d37e	-0.07950495
34	0x3dccd864	0.10002211
35	0x3d2418e6	0.040062808
36	0xbcd35e0e	-0.025801685
37	0x3dbce9a7	0.09224253
38	0xbd6f579e	-0.058433168
39	0x3debad07	0.11507612
40	0xbcbb5850	-0.02286926
41	0xbaa6b5a0	-0.0012718923
42	0x3e0094d9	0.12556781
43	0x3dcc4c14	0.09975448
44	0x3df58b99	0.11989517
45	0x3d570d74	0.052503064
46	0x3e2d381e	0.16915938
47	0x3d2ef395	0.042712767
48	0xbdc50998	-0.096209705
49	0xbd87c9df	-0.06630301
50	0xbd191c6d	-0.037380625
51	0x3db898f1	0.09013546
52	0xbd44a3bf	-0.048007723
53	0xbcef73db	-0.029230049
54	0xbab0459a	-0.0013448477
55	0x3b360b37	0.002777768
56	0x3daf01a7	0.08545237
57	0x3d8e92dd	0.06961606
58	0x3d570b7d	0.05250119
59	0xbc2659b1	-0.01015322
60	0x392334c3	0.00015564547
61	0xbd894945	-0.06703428
62	0x3dcd8548	0.10035187
63	0xbd7a548b	-0.061115783
64	0xbc7873b2	-0.015164303
65	0x3da58a5d	0.08083031
66	0xbc5294f2	-0.012852894
67	0x3dc3b119	0.09555263
68	0x3dcd4d75	0.100245394
69	0x3db08b4c	0.08620319
70	0x3d20856e	0.03918975
71	0xbdafde0e	-0.085872754
72	0xbdb61858	-0.08891362
73	0xbdc9cb6c	-0.09853253
74	0x3e448e1d	0.19194837
75	0xbd95ed2a	-0.07320626
76	0xbc7e19f9	-0.015509122
77	0x3de9daa3	0.11418655
78	0x3ccd06b2	0.025027607
79	0xbca1a110	-0.01973012
80	0x3d777772	0.060416646
81	0x3d4ba7db	0.049720626
82	0xbdbc1206	-0.09183125
83	0xbd2b3979	-0.041802857
84	0x3d85620b	0.06512841
85	0x3da1f5d2	0.07908215
86	0x3c05fbb6	0.008177688
87	0x3dc29405	0.09500889
88	0xbda76a94	-0.08174625
89	0xbd9b51bd	-0.0758395
90	0xbd2d536a	-0.042315878
91	0xbd4f5a3d	-0.050623167
92	0x3db9af9d	0.09066699
93	0xbda4e659	-0.08051748
94	0x3dc218b4	0.09477368
95	0xbcc0e76e	-0.023547854
96	0xbb8bf957	-0.004271667
97	0xbd8153a7	-0.063147835
98	0xbcc1dc7f	-0.023664711
99	0xbdcb9bf8	-0.09941858
100	0xbd4e756f	-0.050404962
101	0x3d4892e6	0.04896822
102	0xbdcaaa06	-0.09895711
103	0x3dbb8b52	0.091574326
104	0x3d88d192	0.06680597
105	0xbd229336	-0.039691173
106	0x3c91eca0	0.017813027
107	0x3d108dfa	0.03529165
108	0x3d8f352a	0.06992562
109	0xbc110b32	-0.008852767
110	0xbccb522e	-0.02481946
111	0xbdac1a31	-0.08403433
112	0x3ce855f0	0.02836129
113	0xbda3a117	-0.0798971
114	0xbcb82ac2	-0.022481326
115	0xbd994b00	-0.07485008
116	0x3c7d3245	0.01545388
117	0xbdcca289	-0.099919386
118	0x3c391904	0.011297468
119	0xbdcec492	-0.100960866
120	0xbd2344b0	-0.039860427
121	0x3dca9300	0.09891319
122	0x3d67d54a	0.056599893
123	0x3d27e2a0	0.04098761
124	0x3d8532b3	0.06503811
125	0x3df18212	0.11792387
126	0xbcdc143e	-0.026865121
127	0x3d13af0c	0.03605561
128	0x3d2f0dbd	0.04273771
129	0x3d8e21b0	0.06940019
130	0x3d29854c	0.041386887
131	0x3de639fb	0.11241528
132	0x3dc9e948	0.09858948
133	0x3de4a989	0.11165149
134	0xbda944fb	-0.0826511
135	0xbd828766	-0.063734815
136	0x3c4180b6	0.011810472
137	0xbc2f2919	-0.010690951
138	0xbd7dee2b	-0.061994713
139	0x3db15794	0.08659282
140	0xbda62b5b	-0.08113738
141	0xbdcd3e7e	-0.10021685
142	0x3c60ec8c	0.013728272
143	0xbdbb1b6a	-0.09136088
144	0xbd2ea16f	-0.042634424
145	0xbdcb990f	-0.09941303
146	0x3daed43e	0.08536576
147	0xbd060dda	-0.032728054
148	0x3bd66914	0.006543288
149	0xbbfd38eb	-0.0077277324
150	0xbc639e9c	-0.013892796
151	0xbd91a451	-0.07111419
152	0x3dbb5ff0	0.09149158
153	0x3d4525b6	0.048131667
154	0xbd44c829	-0.04804245
155	0x3db0fdec	0.08642182
156	0xbd8fd64f	-0.07023298
157	0x3de11c84	0.10991767
158	0x3dc8d9b3	0.09807148
159	0xbdcdafa5	-0.10043267
160	0x3dc7102f	0.09719884
161	0x3c631f3f	0.01386243
162	0xbd9a577b	-0.07536217
163	0xbd996d2e	-0.074915275
164	0x3cc627a5	0.024188826
165	0xbb7bd23d	-0.0038424872
166	0xbc4868ab	-0.012231986
167	0x3cbc5125	0.022987911
168	0xbc616461	-0.013756842
169	0xbd735f67	-0.059417155
170	0x3c48dd7b	0.012259836
171	0xbdcdaa24	-0.100422174
172	0xbcecba86	-0.028897535
173	0x3d833e38	0.06408352
174	0xbd2d8330	-0.04236144
175	0xbd78a12f	-0.06070059
176	0x3dbaf79a	0.091292575
177	0x3cac168a	0.021006841
178	0xbce8a993	-0.028401172
179	0x3cc793ee	0.02436253
180	0x3c7cfdc5	0.015441363
181	0x3c4598f1	0.01206039
182	0xbd648718	-0.055792898
183	0xbddd45c6	-0.10804324
184	0xbdae2e79	-0.08504958
185	0xbd1dc98a	-0.03852228
186	0x3c5049a0	0.012712866
187	0xbdb64026	-0.08898954
188	0x3d7817a7	0.06056943
189	0xbd860e62	-0.06545712
190	0x3dcb29cc	0.099200815
191	0x3d88fe53	0.066891335
192	0xbd5de558	-0.054173797
193	0xbd495e88	-0.049162418
194	0xbd530459	-0.051517818
195	0x3d293e94	0.041319445
196	0xbd51ac67	-0.051189806
197	0x3dc13958	0.094347656
198	0x3be03172	0.006841832
199	0x3d5e25ef	0.054235395
200	0x3c917033	0.017753696
201	0xbd71e861	-0.059059504
202	0xbd3aa77c	-0.04556988
203	0x3dca2d87	0.09871965
204	0xbc1180e8	-0.008880831
205	0x3dcb0fbe	0.09915112
206	0xb9a72c51	-0.0003188574
207	0xbce74988	-0.028233305
208	0x3d77dc3e	0.060512774
209	0x3cd6e4d7	0.026232166
210	0x3dbd862f	0.09254109
211	0x3dc3134a	0.095251635
212	0x3d4c1c5b	0.04983173
213	0xbdb33fb1	-0.087523825
214	0xbd42208c	-0.04739432
215	0x3d3ccc88	0.046093494
216	0xbdb7f2e3	-0.08981874
217	0x3dabbfa3	0.08386161
218	0xbc439206	-0.01193667
219	0x3dc18e13	0.09450927
220	0x3cde1403	0.027109152
221	0x3db17fca	0.08666952
222	0xbd9c6f75	-0.07638446
223	0xbd345cfb	-0.044033986
224	0x3af8c799	0.0018980383
225	0x3d2aece6	0.04172983
226	0xbd0ed106	-0.03486731
227	0x3d657c99	0.05602703
228	0x3ddcae82	0.10775472
229	0x3d2bbbf8	0.041927308
230	0x3cdb7359	0.0267884
231	0xbc05b878	-0.008161657
232	0xbbc9ba2b	-0.006156226
233	0x3d7ff292	0.062487192
234	0xbd7f13a3	-0.062274586
235	0xbcd72524	-0.026262827
236	0x3cf073fb	0.029352179
237	0x3cfe7e39	0.031066047
238	0xbd19d1bf	-0.037553545
239	0x3d81cebf	0.06338262
240	0x3dbee40e	0.09320842
241	0xbdab0df5	-0.083522715
242	0x3c9494f5	0.018137434
243	0x39a007b5	0.0003052332
244	0x3d73b133	0.059495162
245	0xbc93923e	-0.01801407
246	0x3d22ae5d	0.039717067
247	0x3dceaa7f	0.10091113
248	0x3dd719e5	0.10502986
249	0xbd2e8695	-0.042608816
250	0xbd2dd90b	-0.042443316
251	0xbb400951	-0.0029302428
252	0xbccc3960	-0.024929702
253	0xbdc00f95	-0.09377972
254	0x3d046ce6	0.032330416
255	0xbdc9202e	-0.09820591

hidden2.bias f4 [200]
0	0x3f004bd0	0.5011568
1	0x3d741d06	0.05959799
2	0x3d845d03	0.06463053
3	0xbc0e34bd	-0.008679566
4	0xbd0e6855	-0.034767468
5	0xbc99a53d	-0.01875555
6	0xbdc03029	-0.09384186
7	0x3d8d5f43	0.06902935
8	0x3c5a1932	0.013311671
9	0xbd3deb41	-0.046366934
10	0x3e2a47a3	0.1662889
11	0xbd4b7aa2	-0.0496775
12	0x3d7810fa	0.060563065
13	0xbbd28cda	-0.006425482
14	0x3cb555dd	0.02213567
15	0xbd21fc0c	-0.03954701
16	0x3e5b3f5a	0.21410885
17	0xbdbfd8f0	-0.093675494
18	0x3ede1695	0.43376604
19	0x3d2e9d88	0.042630702
20	0x3e35c148	0.17749512
21	0x3c493e24	0.012282882
22	0x3e7c2f96	0.24627528
23	0x3d9961d1	0.0748936
24	0x3da2c883	0.07948401
25	0x3defabbd	0.11702678
26	0x3e689623	0.22713523
27	0x3eacfdf0	0.3378749
28	0xbc0c3e0d	-0.008559716
29	0xb9e09b33	-0.00042840242
30	0x3d989d27	0.074518494
31	0xbdd37579	-0.103251405
32	0xbd4385fd	-0.047735203
33	0xbde77b01	-0.11302758
34	0xbda5a99f	-0.08088993
35	0x3a6e6943	0.0009094665
36	0x3e4aae3d	0.19793029
37	0xbdd25ca8	-0.10271579
38	0x3d631337	0.055438247
39	0x3e3df63b	0.1855096
40	0x3cc633f3	0.024194693
41	0x3d45023e	0.04809784
42	0xbb95a95f	-0.0045673097
43	0x3d09e835	0.033668716
44	0x3d8e1b68	0.06938821
45	0x3e275736	0.16341862
46	0x3e98c589	0.29838207
47	0x3d8c92d9	0.068639465
48	0x3e1cdba6	0.15318164
49	0xbde18aff	-0.110128395
50	0x3d97c534	0.074106604
51	0x3cd9365e	0.026515182
52	0xbcc10a5a	-0.023564506
53	0xbd9d5bcb	-0.07683524
54	0x3e78909f	0.24273919
55	0x3dacd22d	0.08438525
56	0x3e184c8e	0.14872953
57	0x3ec744a5	0.3891956
58	0x3d3c6fca	0.046005048
59	0x3cd72792	0.026263986
60	0x3e0f1f52	0.13976792
61	0x3e3f62f6	0.18690094
62	0xbcd37071	-0.025810452
63	0x3e004a4f	0.12528346
64	0x3eb87d99	0.36033323
65	0x3db4e125	0.088320054
66	0x3e9a5850	0.30145502
67	0xbdd9da2d	-0.10637317
68	0x3dfc67aa	0.1232446
69	0xbd0cdcd4	-0.034390286
70	0xbb82235b	-0.0039715
71	0x3e390a94	0.18070441
72	0xbdcb1f0e	-0.099180326
73	0x3e8db779	0.2767904
74	0x3c821512	0.015879188
75	0xbdd733b1	-0.10507906
76	0x3e6ab757	0.22921501
77	0xbc92aa07	-0.017903341
78	0xbc1208fb	-0.008913274
79	0xbd0af69f	-0.033926602
80	0x3eb197fc	0.34686267
81	0x3dcabde3	0.09899499
82	0x3d85b2d5	0.0652825
83	0x3d0373aa	0.032092728
84	0x3e68729a	0.22699967
85	0x3e095450	0.13411069
86	0x3e2387ba	0.15969744
87	0xbd75046b	-0.059818666
88	0x3dbe89b4	0.093036085
89	0x3ebea0bb	0.37232003
90	0x3d1e1d41	0.038602117
91	0x3dab859f	0.083750956
92	0xbd54caef	-0.051951345
93	0x3e49fe22	0.1972585
94	0x3c26a529	0.010171213
95	0x3e6fcad8	0.23417222
96	0x3e78b616	0.2428821
97	0xbd0e60f4	-0.03476043
98	0xbaad5dc1	-0.0013226793
99	0xbbb794d1	-0.005602457
100	0x3ca3a576	0.019976359
101	0x3dd19622	0.10233714
102	0xbddc6238	-0.10760921
103	0x3bd6fe3c	0.006561069
104	0x3dee14f9	0.11625094
105	0xbd2a8e1b	-0.04163943
106	0x3e63f3a1	0.22260906
107	0xbce30483	-0.027712112
108	0xbc8d85dd	-0.017275745
109	0x3e546f2a	0.2074553
110	0xbd0ad037	-0.033889975
111	0xbdc6c1a4	-0.09704903
112	0xbd9af175	-0.075655855
113	0x3e254b09	0.16141905
114	0xbcf445aa	-0.029818375
115	0x3d9dfc65	0.07714156
116	0x3d58bdd6	0.052915417
117	0x3e64fca2	0.22361997
118	0x3d9cd644	0.076580554
119	0x3d16326a	0.036669172
120	0xbd254b0d	-0.040354777
121	0xbd42ffce	-0.047607236
122	0x3ef01cb1	0.4689689
123	0x3e5402cd	0.20704193
124	0xbe0c96ed	-0.13729449
125	0x3d9dc97d	0.077044465
126	0xbd971ef9	-0.073789544
127	0x3db3414f	0.08752691
128	0x3cd3c3b7	0.02585016
129	0x3e71d98c	0.23618144
130	0xbddf4937	-0.109026365
131	0x3d123fd0	0.035705388
132	0xbc7075f1	-0.014676557
133	0xbd50d606	-0.05098536
134	0x3e02232f	0.12708734
135	0x3d4fb161	0.05070627
136	0x3d915334	0.07095948
137	0xbdc447de	-0.0958402
138	0xbcde68a8	-0.027149513
139	0x3d8bb73f	0.06822061
140	0x3d8727fc	0.06599423
141	0xbd3f12ea	-0.046648897
142	0x3c05acf2	0.008158909
143	0x3ee3e6f2	0.44512135
144	0xbd20e738	-0.039283007
145	0x3e495f4a	0.19665256
146	0x3c1b4427	0.009476698
147	0x3d8c3d56	0.068476364
148	0x3df377c7	0.1188808
149	0x3cd4bf4f	0.02597013
150	0x3eb3be55	0.3510615
151	0x3d544807	0.051826503
152	0x3d739b72	0.059474416
153	0xbcba04d5	-0.022707382
154	0x3dcdc93e	0.100481495
155	0xbbb453f2	-0.005503171
156	0xbd0da0ef	-0.034577306
157	0x3d9c826d	0.07642064
158	0x3e028b17	0.12748371
159	0x3db0e763	0.086378835
160	0xbd886d07	-0.0666142
161	0x3de4bb5a	0.11168547
162	0xbd5a9a81	-0.053370003
163	0xbd987680	-0.07444477
164	0x3dab9bbe	0.08379315
165	0x3e50c865	0.20388944
166	0x3cd16851	0.025562437
167	0x3e1adae9	0.1512257
168	0x3d93f8a2	0.07225157
169	0x3dc772ef	0.09738719
170	0xbc58fbcc	-0.013243627
171	0xbd9340f0	-0.0719012
172	0xbc594f0d	-0.013263476
173	0x3e07dadf	0.13267086
174	0x3e33f531	0.17574002
175	0xbd73cd16	-0.059521757
176	0xbcaa9c3b	-0.02082645
177	0x3e6181d4	0.22022182
178	0x3e587561	0.21138526
179	0x3db2fc08	0.087394774
180	0x3c8103da	0.015748907
181	0x3e029cdf	0.12755154
182	0xbda6b662	-0.081402555
183	0x3e18a88f	0.1490805
184	0x3e547232	0.20746687
185	0xbda372de	-0.079808936
186	0x3e2eca45	0.17069347
187	0x3db746e0	0.08949065
188	0x3d42d74b	0.0475686
189	0x3e5c2fd0	0.21502614
190	0xbd6696a9	-0.056296024
191	0xbdb6afa0	-0.089202166
192	0x3d27ca42	0.040964372
193	0x3d5b9a79	0.053614113
194	0x3ce18076	0.027527075
195	0x3d12f7f5	0.035881
196	0x3e6ed4a9	0.23323311
197	0xbc9b6cb2	-0.018972728
198	0x3eb77803	0.3583375
199	0x3e831dbd	0.25608626

predict.weight f4 [96, 200]
0	0x3a33c206	0.000685722
1	0xbcc9e893	-0.024647033
2	0x3cd9a6c4	0.026568778
3	0x3c9d4fc6	0.019203078
4	0x3c1f3565	0.00971732
5	0x3d797f8f	0.060912665
6	0x3c183099	0.00928893
7	0xbdc48ce5	-0.09597186
8	0x3d2a6f5c	0.041610107
9	0xbc732d70	-0.014842376
10	0xbc49b134	-0.012310315
11	0xbd6790e0	-0.056534648
12	0xbd91ea49	-0.071247645
13	0xbd52d29c	-0.051470384
14	0x3c14260b	0.009042273
15	0xbd414abc	-0.047190413
16	0xbb2ce28e	-0.0026380154
17	0x3d24d3df	0.04024112
18	0xbe0b16ff	-0.13582991
19	0xbbe7c1ce	-0.007072664
20	0xbde9ae27	-0.1141017
21	0xbcefd289	-0.029275196
22	0x3ca5b0df	0.02022594
23	0xbd701dd9	-0.058622215
24	0x3c62a4c0	0.013833225
25	0xbba63ea9	-0.0050733876
26	0xbd67a5e7	-0.0565547
27	0x3c752b4c	0.014963936
28	0x3a384d18	0.0007030531
29	0xbd90bffb	-0.07067867
30	0x3dce674b	0.10078295
31	0xbd5defdd	-0.05418383
32	0xbcfdbc50	-0.030973583
33	0xbd47387f	-0.048637863
34	0x3d8600e0	0.06543136
35	0xbd5e1c34	-0.054226115
36	0xbd4d83e6	-0.050174616
37	0xbcfcb71a	-0.030849028
38	0xbd2a1a6c	-0.041529104
39	0xbd7ad0ac	-0.06123416
40	0x3d73b270	0.059496343
41	0x3ca7b88a	0.020473737
42	0xbd933c3c	-0.07189223
43	0x3d2a5e31	0.041593734
44	0x3be33906	0.006934288
45	0xbdac891f	-0.08424591
46	0xbd17e593	-0.037084173
47	0xbd6ababd	-0.057306994
48	0xbd9d8710	-0.07691777
49	0xbd5eea71	-0.0544228
50	0xbd8276ee	-0.0637034
51	0xbd601239	-0.05470488
52	0x3d8fb4cf	0.070169084
53	0xbc516d36	-0.012782386
54	0xbdf77268	-0.12082368
55	0xbd825b60	-0.06365085
56	0xbd073499	-0.033009145
57	0xbdba0ff1	-0.09085072
58	0xbda005d1	-0.078136094
59	0x3d4ea5c3	0.05045105
60	0xbd250f71	-0.04029793
61	0xbd609085	-0.054825325
62	0x3c45084d	0.012025905
63	0xbd60c65c	-0.05487667
64	0xbd457084	-0.048203006
65	0x3d30efa2	0.04319728
66	0x3cddff86	0.027099382
67	0x3c7aac75	0.015299906
68	0x3da31093	0.07962146
69	0xbc949cea	-0.018141229
70	0x3d196684	0.037451282
71	0xbbf99fec	-0.007617941
72	0x3d704d7e	0.058667652
73	0xbcb274a5	-0.021784136
74	0xbbceb8db	-0.0063086576
75	0xbd6fc3cc	-0.058536336
76	0xbd33e645	-0.043920774
77	0xbd4dc973	-0.050240945
78	0x3d6c506e	0.05769389
79	0xbd880eda	-0.06643458
80	0xbddfd22f	-0.10928761
81	0xbd78a7ee	-0.060707025
82	0x3d2162c0	0.039400816
83	0x3a5e1cfd	0.00084729475
84	0x3dda9030	0.10672033
85	0xbd2724eb	-0.040806692
86	0x3d89b1dd	0.06723378
87	0xbd3c765a	-0.046011306
88	0xba90306b	-0.0011000758
89	0x3d450830	0.04810351
90	0xbba3dc65	-0.0050006383
91	0x3d308de2	0.04310406
92	0xbd220bc2	-0.039561994
93	0xbd5a121a	-0.05323992
94	0x3d17034d	0.036868382
95	0x3d3ba5d2	0.045812435
96	0x3d42675f	0.047461864
97	0xbd324ffb	-0.043533307
98	0x3d119fbd	0.03555273
99	0x3d87948e	0.066201314
100	0x3cc1e920	0.023670733
101	0xbdaaff9b	-0.08349534
102	0x3d700e69	0.058607493
103	0xbbf3b0f6	-0.007436867
104	0xbd3c51c5	-0.04597642
105	0x3be70ac3	0.0070508434
106	0x3cd95100	0.026527882
107	0xbd61e9cc	-0.055154607
108	0x3cb215a5	0.021738837
109	0xbc97a311	-0.018510373
110	0xbd4cb1a8	-0.049974114
111	0xbd28725d	-0.04112469
112	0xbd8b7afa	-0.06810565
113	0xbde41a35	-0.11137811
114	0x3cb7856f	0.022402493
115	0x3d1376d1	0.036001984
116	0xbcb03c89	-0.02151324
117	0xbd164e36	-0.03669568
118	0xbd3acb7b	-0.04560421
119	0x3cb56f09	0.022147672
120	0xbc0eb337	-0.00870972
121	0x3cf30b79	0.029668557
122	0xbcf88128	-0.030335024
123	0xbd81cdf2	-0.06338109
124	0x3cf4172a	0.029796202
125	0xbd957945	-0.07298521
126	0xbd8f87df	-0.07008337
127	0xbd0e82e2	-0.03479279
128	0x3d113908	0.03545478
129	0xbd090ba4	-0.033458367
130	0x3d2d715f	0.042344447
131	0xbc9d4029	-0.019195633
132	0x3d77f062	0.06053198
133	0xbd790c2b	-0.06080262
134	0x3d520474	0.051273778
135	0x3d1a710f	0.037705477
136	0x3c6ffa7f	0.014647125
137	0xbcc513ac	-0.024057232
138	0xbce558cc	-0.027996443
139	0xbc56e70b	-0.013116608
140	0x3d24f83b	0.040275794
141	0x390b0d85	0.0001326111
142	0xbd860d68	-0.06545526
143	0xbdcbbaee	-0.099477634
144	0xbd196a9d	-0.03745519
145	0x3c4bdd6e	0.01244293
146	0xbd65e56b	-0.056126993
147	0x3d6c9de5	0.057767767
148	0x3d8219aa	0.06352551
149	0xbc255046	-0.010089939
150	0xbda09f34	-0.078428656
151	0xbd2f93da	-0.04286561
152	0xbbc38d6a	-0.0059677856
153	0x3ce37e42	0.027770165
154	0x3d195415	0.037433702
155	0xbd9be10b	-0.07611283
156	0xbd06057d	-0.032720078
157	0xbb928a2f	-0.004472039
158	0x3d038a01	0.032114033
159	0xbd9abd59	-0.075556464
160	0xbd7f8a4e	-0.062387757
161	0x3d308156	0.043092094
162	0x3ce04077	0.02737449
163	0x3d6b9296	0.057512842
164	0xbd9fbd8a	-0.077998236
165	0x3b380daf	0.0028084328
166	0x3db2518a	0.087069586
167	0xbcd433f3	-0.025903678
168	0xbd220461	-0.039554957
169	0xbd2f78c3	-0.042839777
170	0x3c038c22	0.008029016
171	0xbc3eda03	-0.011648658
172	0xbb26e936	-0.0025468594
173	0x3c963121	0.018333973
174	0xbc029336	-0.007969668
175	0xbd8d8fa6	-0.069121644
176	0x3cd8217f	0.02638316
177	0x3d22deec	0.039763376
178	0xbd4e854b	-0.050420087
179	0x3c995f26	0.018722128
180	0x3b21e2ed	0.0024701909
181	0xbd9b6b75	-0.07588855
182	0xbc244c22	-0.010027917
183	0xbd3605d0	-0.044439137
184	0x3c6cc589	0.014451393
185	0xbc8bb7ec	-0.017055474
186	0xbd98ef3b	-0.074675046
187	0xbd63ae04	-0.055585876
188	0xbd69eb0a	-0.057108916
189	0xbd92a39f	-0.071601145
190	0xbc9267cb	-0.017871758
191	0x3a35bec3	0.0006933028
192	0xbd077829	-0.033073578
193	0x3d1a0646	0.03760364
194	0x3d4c51d5	0.04988273
195	0xbda39732	-0.079878226
196	0xbd8b0a2e	-0.06789051
197	0x3d55d8a7	0.05220857
198	0xbd868414	-0.06568161
199	0xbd64346d	-0.05571406
200	0xbd8733f7	-0.066017084
201	0xbd952e3c	-0.07284209
202	0xbcb1a630	-0.02168569
203	0x3d3e1def	0.046415266
204	0x3d47e954	0.048806503
205	0x3d9296a0	0.07157636
206	0xbc8c119c	-0.01709824
207	0x3bc285e6	0.005936372
208	0xbc3d0acc	-0.011538219
209	0xbd4dd848	-0.05025509
210	0xbda18f69	-0.078886814
211	0xbd11fdbf	-0.03564238
212	0xbb83a874	-0.004017884
213	0xbd143691	-0.03618485
214	0xbd854006	-0.06506352
215	0xbd046a3e	-0.032327883
216	0x3bd09dae	0.006366453
217	0x3d2fe1ca	0.04293994
218	0xbd42e15f	-0.047578212
219	0x3d3deb2a	0.046366848
220	0xbdb0e606	-0.086376235
221	0xbd86df84	-0.06585601
222	0x3d27db3a	0.040980555
223	0xbdb66e72	-0.089077845
224	0x3abde6bd	0.0014488321
225	0xbd8b5f97	-0.06805342
226	0x3c928e6c	0.017890178
227	0xbd6db317	-0.05803212
228	0x3c88e725	0.01671178
229	0x3cfc855d	0.030825311
230	0x3bf7de7d	0.0075643645
231	0x3d0cd8f2	0.034386583
232	0xbcc4fb03	-0.024045473
233	0x3d73ee61	0.059553508
234	0x3d1aab06	0.037760757
235	0x3dad6167	0.08465844
236	0x3d86a967	0.0657528
237	0xbcec4707	-0.028842462
238	0xbd4ce8d2	-0.050026722
239	0xbc2d00b8	-0.010559253
240	0xbcf4eddc	-0.029898576
241	0xbc2c2f9b	-0.010509397
242	0xbc61f280	-0.013790727
243	0xbd86359f	-0.06553196
244	0xbccd9ca4	-0.025099106
245	0x3b816afe	0.003949522
246	0xbc1853d7	-0.009297333
247	0xbbd1a23b	-0.006397513
248	0x3c3a19f7	0.01135873
249	0x3d17b2a0	0.037035584
250	0x3c035d1d	0.008017805
251	0xbc0373d9	-0.008023226
252	0x3c7c5cbe	0.015402971
253	0x3d25e2c3	0.04049946
254	0xbdca4d0b	-0.09877976
255	0x3c76cfa7	0.015064157

predict.bias f4 [96]
0	0xbdd73ee0	-0.10510039
1	0xbe01c9b0	-0.12674594
2	0xbda482c9	-0.08032758
3	0xbdf15dfb	-0.117855035
4	0xbe310e6e	-0.1729066
5	0xbd8e8c10	-0.069603086
6	0xbe1bcd65	-0.1521507
7	0xbe202f4e	-0.15643045
8	0xbe064150	-0.13110852
9	0xbe03b70c	-0.12862796
10	0xbde0fb53	-0.10985436
11	0xbe2f8db1	-0.17143895
12	0xbdb64700	-0.08900261
13	0xbde0ccf1	-0.109765895
14	0xbd937603	-0.07200243
15	0xbe2ec8c2	-0.1706877
16	0xbe28c2b8	-0.1648053
17	0xbd8ca176	-0.06866734
18	0xbdf553c9	-0.119788714
19	0xbe175ac8	-0.14780724
20	0xbe143ccb	-0.14476316
21	0xbe2757df	-0.16342114
22	0xbda9ebdd	-0.082969405
23	0xbd995313	-0.07486548
24	0xbd87268d	-0.0659915
25	0xbe192f6e	-0.14959499
26	0xbe21f139	-0.15814675
27	0xbdd6ab26	-0.10481863
28	0xbd947afc	-0.0725002
29	0xbe0fd606	-0.14046487
30	0xbda95ff3	-0.08270254
31	0xbe1d4835	-0.15359576
32	0xbdbf4120	-0.093385935
33	0xbdc9af1a	-0.09847851
34	0xbe28078e	-0.16409132
35	0xbdaacb73	-0.08339586
36	0xbdb1af6b	-0.086760364
37	0xbe3772c4	-0.17914873
38	0xbe3708f7	-0.17874514
39	0xbe2d7367	-0.16938554
40	0xbdc2ea27	-0.09517317
41	0xbe00df74	-0.1258524
42	0xbd910a56	-0.070820495
43	0xbd539a57	-0.05166086
44	0xbe2c3d25	-0.168202
45	0xbe258411	-0.1616366
46	0xbd8deeca	-0.06930311
47	0xbe2b171f	-0.16708039
48	0xbdbec7d9	-0.09315462
49	0xbd4c3a63	-0.04986037
50	0xbddde424	-0.1083453
51	0xbd60c965	-0.054879565
52	0xbddf0112	-0.10888876
53	0xbdac1289	-0.08401973
54	0xbe2a0f0f	-0.16607307
55	0xbd883c58	-0.06652135
56	0xbd393bf8	-0.045223206
57	0xbdd3a5c9	-0.103343554
58	0xbdb0135a	-0.08597441
59	0xbe243c40	-0.16038609
60	0xbe30576a	-0.17220846
61	0xbe2c1ef4	-0.16808683
62	0xbd82e120	-0.063905954
63	0xbe1c48b5	-0.1526211
64	0xbd8b156f	-0.067911975
65	0xbde993ae	-0.11405121
66	0xbd8a051c	-0.06739256
67	0xbe1cb67c	-0.15303987
68	0xbd3c9964	-0.046044722
69	0xbdc32956	-0.095293686
70	0xbdb62b2c	-0.08894953
71	0xbe255c69	-0.16148533
72	0xbdd56f3b	-0.10421606
73	0xbdbada0e	-0.09123622
74	0xbd871aab	-0.065968834
75	0xbdf53659	-0.119732566
76	0xbd5183a0	-0.051150918
77	0xbd847e0a	-0.064693525
78	0xbdd26657	-0.10273426
79	0xbdb3cffa	-0.08779903
80	0xbddaa9f5	-0.10676948
81	0xbdf04ea2	-0.11733748
82	0xbddb4f7b	-0.10708519
83	0xbe07c305	-0.13257988
84	0xbe1528af	-0.14566301
85	0xbe06de0a	-0.13170639
86	0xbdb2c04b	-0.08728083
87	0xbdcb9156	-0.0993983
88	0xbd2e4c51	-0.04255325
89	0xbe076cf8	-0.13225162
90	0xbe070d12	-0.1318858
91	0xbe32a966	-0.17447433
92	0xbdc26cc9	-0.09493405
93	0xbde95253	-0.11392655
94	0xbd92f325	-0.071752824
95	0xbdb63548	-0.08896881
